obsolete/training/models/deep_agent_best.pth (torch, 67816 bytes, 9 tensors)

fc1.weight f4 [128, 39]
00000000: 80b9 fa3d f018 083e e2a7 19bd 36a0 163e
00000010: ecb4 0fbd f859 043d 12a9 9fbd 4c98 c03d
00000020: 348c 103e 7a96 f0bd ee85 0e3e 8882 f53c
00000030: 6c49 f23d 58a7 b13c 4421 9e3d c835 b9bc
00000040: 60ce fc3d 28e4 c13c bc18 99bd 182f 273d
00000050: 5818 97bd c0d5 99bc 5132 85bd 288c d93d
00000060: 1a6f 01be 532f 97bd 9034 39bd c92e c5bd
00000070: 309e 773c 72f3 21be 7a15 143e d149 0bbe
00000080: 382e fd3d b84d da3c 02f8 54bd eca6 ca3d
00000090: b870 cc3c 947b 043e f866 8f3c 35c8 44bd
000000a0: eae5 363d e569 2fbd 9069 8e3d 3112 153e
000000b0: b403 c23d edc4 8abd 9bbe c13d 72d5 fc3c
000000c0: 2ee9 aa3d 35d0 c8bd b6ea 22be 2c12 80bd
000000d0: ed71 fcbd ee0d 063e b107 3b3d eeef 863d
000000e0: 2a2c 583d e34a 2bba cd82 023e e5a2 e4bd
000000f0: 5328 483c 7276 dbbd ccfb 523d f021 59bd
00000100: bc30 533d 32e4 fcbc 9b8f 0a3e 722d bdbd
00000110: 8061 c1bd 9f5b c2bd 2c05 163e 739c 583d
00000120: a713 203e 9968 0abe c5b3 25be 0054 fbbd
00000130: 729a dcbd 91e3 7f3d 48db 6a3d 683f 083e
00000140: 995b a9bd ee8f dfbd c4ff ad3d 498e 84bd
00000150: 3c09 c73d 54a4 1bbd 2099 bb3d 00cd febd
00000160: ff7e a5bd c0f6 473d b4a8 0a3d 3e39 27bd
00000170: fc79 c33d 34f0 de3d acd0 edbd fa13 afbd
00000180: 6824 163e 2051 5dbd 9e85 68bd 5da8 1ebe
00000190: 89cd bbbd acd7 233d 0825 adbc 800c eebd
000001a0: 8028 763b ec02 e0bd d61c 0bbe ed95 b4bd
000001b0: 7582 0fbe 3ed0 d0bd 36e8 233e b0c2 f73c
000001c0: 081e 4a3d f2ee 18be 4e62 d7bd aa50 5abd
000001d0: 781f cd3c 2248 10be 334d 8dbd 2f54 c4bd
000001e0: 00a8 e839 900e 74bd e0cc 35bc 3a39 debd
000001f0: 1e19 e1bd 7c52 bfbd fa81 60bd 5b6b 01be
00000200: 247c 093e 682b 02bd 8e14 0d3e ac5c 4c3d
00000210: b0d9 0abe 9cf2 e23d 9c76 34bd f26a 7bbd
00000220: 901b 08be 8403 23be d8a7 3b3d 2846 0fbd
00000230: e459 7f3d b090 06be 5879 f33d 35ba f0bd
00000240: f881 e2bc 98fe 083d 064d a93d 2c60 043e
00000250: 005f 153e 3404 02be 9410 253d 7a0e 8dbd
00000260: 00c0 8fbc 3076 f5bd c85a 153e 8ab1 f0bd
00000270: 339e b43d 0081 663d 3822 553d 034d b1bd
00000280: 05b7 173e a2d2 1a3d cc21 be3c d1d3 0dbe
00000290: c0ff 8e3d 8a68 afbc 083d 96bd b0d7 0c3e
000002a0: 903a 123d 5d71 b5bd 04fc a5bd 0094 fabb
000002b0: 401c b73d c9e7 1cbd 87c7 b5bd 89e7 55bd
000002c0: 0da6 efbd 829b 743d 3f98 013e 3fb2 17be
000002d0: 1007 233d 5f9e ae3d e265 013d 4051 5fbd
000002e0: 3a5c b03d deaa b13d 8b03 7f3d 6420 d1bc
000002f0: dcad 2dbd eeb7 a13c f08d fcbc bab6 4dbd
00000300: d8f7 d63d b4ea 0c3e 98dc 81bc 7737 08bd
00000310: 4022 193b 696e 2cbc 2e51 253d 3c73 423d
00000320: 4a5c 12be 3a9d 67bd ae97 0c3e 5c94 843d
00000330: eac1 b4bb b0cf c7bd 12e1 c9bd f958 13be
00000340: 4a17 5abd ddc3 583d 5321 cf3d e76f 953d
00000350: 036e 0ebe 2d41 c0bd 1ce3 babc fc21 213e
00000360: 75e0 d13c 8dcb 1fbd bfaf 8c3d c7c0 6fbd
00000370: fcaf cfbd da07 f43d 30c1 90bd 5b9c f4bc
00000380: 64b3 21be e3c3 db3d 88a0 fd3d 0a17 6b3d
00000390: f5a4 dfbd e44e 24be c082 07be 89c5 f93d
000003a0: 7272 9d3d 820e 0a3e 96cc ab3d d4ff 253d
000003b0: 0088 cdba f766 f9bd 697c 0cbe c95e 19be
000003c0: 463f 863d 5e02 a1bd a0ff 03bd 8cbb bcbd
000003d0: 1009 efbc 3dd1 e6bd 6248 d6bd 6890 593d
000003e0: 36ed 42bd fc73 ca3d e469 52bd 5e91 f0bd
000003f0: 8072 e7bc 21f8 9ebd 96a9 48bd 9219 1cbe
0.122424126 0.13290763 -0.03751362 0.14709553 -0.03508465 0.032312363 -0.077959195 0.09404048
0.14115983 -0.11747451 0.13918278 0.029969469 0.1183041 0.021686241 0.07721189 -0.022608653
0.123440504 0.023668364 -0.07475421 0.040816396 -0.0737769 -0.018778682 -0.06503738 0.10622436
-0.12640038 -0.07382073 -0.045216143 -0.09628064 0.015113398 -0.15815523 0.14461318 -0.13602377
0.12362331 0.026648387 -0.05199433 0.09895119 0.024956092 0.12937766 0.017505154 -0.048042495
0.044652857 -0.0428256 0.06953728 0.1455772 0.094733626 -0.06775842 0.09460183 0.030863497
0.08345257 -0.09805337 -0.15909848 -0.06253466 -0.12326417 0.13091251 0.045661632 0.06588732
0.052776493 -0.00065342913 0.12745209 -0.11163882 0.012216645 -0.10715951 0.051509663 -0.05301088
0.05156015 -0.03087053 0.13531344 -0.09237184 -0.09442425 -0.094901316 0.1465041 0.052883577
0.15632497 -0.13516463 -0.16181858 -0.12271881 -0.107716456 0.062472884 0.05733803 0.13305438
-0.08269424 -0.10916124 0.08496049 -0.06472451 0.09718558 -0.037998512 0.09160066 -0.124414444
-0.08080863 0.048819304 0.033852294 -0.040826075 0.09544751 0.10885659 -0.116120666 -0.08548732
0.14662325 -0.054032445 -0.056768052 -0.15493913 -0.09170062 0.040000603 -0.021135822 -0.11623478
0.003756076 -0.10938057 -0.13585219 -0.088176586 -0.14014609 -0.10195969 0.1600655 0.030244201
0.049345046 -0.149349 -0.10516797 -0.053299583 0.02503942 -0.14090016 -0.0689949 -0.09586369
0.00044375658 -0.0595842 -0.011096209 -0.10850759 -0.10991119 -0.093419045 -0.054811455 -0.12638609
0.13426262 -0.031779677 0.13777372 0.049893066 -0.13559604 0.1108143 -0.044058427 -0.061381288
-0.13291764 -0.1591931 0.045814365 -0.034979016 0.062341586 -0.13141131 0.11888379 -0.11754266
-0.027649865 0.033445925 0.08266644 0.12927312 0.14587021 -0.12696916 0.040299013 -0.06887527
-0.017547607 -0.11985433 0.14585412 -0.11752613 0.088192366 0.056275368 0.052034587 -0.08657267
0.1481591 0.03779853 0.023209475 -0.13850333 0.06982374 -0.021412153 -0.073358595 0.13754153
0.03570038 -0.08859513 -0.08104709 -0.0076470375 0.08940935 -0.038306985 -0.088759474 -0.052222762
-0.117015935 0.059718616 0.12655734 -0.14814089 0.039801657 0.08526301 0.031591304 -0.054520845
0.08611341 0.086751685 0.06225924 -0.02552814 -0.042402133 0.019741025 -0.0308294 -0.05022309
0.10496491 0.13761407 -0.015852258 -0.03325602 0.0023366362 -0.010524371 0.040360622 0.047473177
-0.14293018 -0.056546427 0.13729736 0.0647361 -0.0055162804 -0.0975641 -0.09857382 -0.14389409
-0.053244866 0.052921165 0.10113778 0.07296734 -0.13909154 -0.09387431 -0.022813372 0.1573562
0.025619725 -0.03901248 0.068694584 -0.058533456 -0.10140988 0.1191556 -0.070680976 -0.029859712
-0.15791088 0.10730722 0.123841345 0.05739502 -0.10920135 -0.1604572 -0.13233471 0.1219588
0.07687844 0.13482097 0.08388631 0.04052718 -0.001568079 -0.12177842 -0.13719334 -0.14977564
0.06555037 -0.0786178 -0.032226205 -0.09215459 -0.029179126 -0.11270378 -0.10463025 0.053116232
-0.047589503 0.098854035 -0.051370516 -0.117464766 -0.02825284 -0.077621706 -0.048989855 -0.1524413

fc1.bias f4 [128]
00000000: f0e5 b93d d241 be3d 4836 e63c 4c5d 1d3e
00000010: be94 0abe c552 9c3d 0ad7 4fbd 7092 013c
00000020: 902d e23d 0f2c f0bd e61d 8a3d 9801 03bd
00000030: 8fe2 ce3d 99e4 d0bb 56b4 a23d 3e54 1d3e
00000040: 0a2f 6abd d904 24be df3f 183e 3d8d b4bd
00000050: a38c 203d c0f5 cb3d 5ab1 b9bc b4a7 f93d
00000060: 4486 d43d 540c 04bd 0cf7 2b3d c104 203c
00000070: 4669 203e d0bc dd3d 4dbc dfbd 03b8 923c
00000080: 6fe9 b53d a2b0 fe3d acf0 5f3d ec53 8c3d
00000090: 6032 f2bc 009e 633b 9720 debd a607 093e
000000a0: 0c1e 013e 822b b0bd 0c62 0cbe abe0 013e
000000b0: 46b7 13be 1051 d23d 32f0 22be e912 adbd
000000c0: ff88 86bd dc19 1a3e 0d48 f3bc 7e70 0d3e
000000d0: 0a6e 493d 3eda 1e3e edba d33d 8849 f63d
000000e0: 4af5 0e3e 2ec8 41bd 2055 34bd 5c7a 5d3d
000000f0: 162a 123e f45e 71bd 3f04 fdbd 82a9 fbbd
00000100: 0633 92bd 1da2 e53c 3ffd 85bc 7a09 38bd
00000110: fb4f 99bd d7c6 1f3d fc3b 09be 9051 213e
00000120: 836e e1bc 877e 003d 4e99 623d cbf4 83bd
00000130: bde5 fd3d c03c c8b9 7807 7f3c d2c4 1ebe
00000140: b85e a23c 1c0d 613d c840 c63c 9000 82bc
00000150: afb7 fc3d eaa2 013e 9cc6 e13d 48ac e3bc
00000160: e899 e23c b6f9 e4bd f582 f5bd 7043 e5bc
00000170: 95ee 7a3c fe4d babd 70b2 0abe 4cba 9a3d
00000180: cf70 793d 2cac d8bd d224 d53d d699 f6bd
00000190: 26bb fc3d aa37 ae3d e0aa 5dbd 599e 193e
000001a0: 9821 b8bd 3fe8 90bd 0ab1 023e 9f05 1fbd
000001b0: c173 84bd 7c94 b53c 38a8 ddbc 5c33 d33d
000001c0: ecde 053e ecdf 913d 5b12 033d f0c4 243d
000001d0: acf5 083b be28 ac3c 4046 473b 5160 e53d
000001e0: 8fad bc3d a994 97bc e9c4 803d 99d0 2f3c
000001f0: 948e 5d3d 3cd1 043e bb1f dfbd d637 cd3c
0.0907706 0.09289898 0.028102055 0.15367621 -0.13533303 0.076329745 -0.050742187 0.007908449
0.110438466 -0.117271535 0.06743984 -0.03198394 0.10101806 -0.006374907 0.079445526 0.15364167
-0.057173766 -0.16017474 0.14868115 -0.088160016 0.03919662 0.099589825 -0.022667576 0.1219019
0.10377172 -0.03223832 0.04198365 0.009766758 0.15665159 0.10827029 -0.109245874 0.01791001
0.088824145 0.12436034 0.054672882 0.06851944 -0.029565036 0.0034731627 -0.1084606 0.13381824
0.12609118 -0.086020485 -0.13709277 0.1268336 -0.14425382 0.10269368 -0.1591194 -0.084508725
-0.06569099 0.15048927 -0.029697442 0.13812444 0.049177207 0.1551294 0.10338388 0.12025744
0.13960758 -0.047310047 -0.044026494 0.05407177 0.14273867 -0.058928445 -0.123543255 -0.122881904
-0.07138638 0.028031403 -0.016356109 -0.044930913 -0.07485958 0.039007988 -0.13401788 0.1575377
-0.027518516 0.031370666 0.055321984 -0.06443175 0.12397335 -0.00038192235 0.0155657455 -0.15504768
0.019820556 0.054944143 0.024200812 -0.015869409 0.12339722 0.12659803 0.1102421 -0.027792111
0.027661279 -0.11180441 -0.11987869 -0.027986258 0.015315671 -0.09096907 -0.13544631 0.075550646
0.0608986 -0.10579714 0.104074135 -0.120410606 0.12340383 0.08506711 -0.054118037 0.15001811
-0.089907825 -0.070755474 0.12762848 -0.03882372 -0.06467391 0.02216553 -0.027057752 0.103125304
0.13073319 0.07122788 0.031999927 0.040226877 0.0020898385 0.021015521 0.0030406862 0.112000115
0.09212791 -0.018503504 0.06287558 0.010730886 0.05409105 0.12970442 -0.10894724 0.025051039

fc2.weight f4 [64, 128]
00000000: 48a3 96bc 6e7f b5bd 99e6 afbd a89e 3dbc
00000010: 0e2d 793d a629 70bd e0db eb3c 3ea9 503d
00000020: 02f1 83bd c50d 133d 3f71 6a3c 5ccd a4bd
00000030: ea76 79bb 5617 acbd 0344 9e3d 4eae 293d
00000040: 64b8 0a3d 01e7 853d d967 863d 07b5 b33d
00000050: 3bb0 0b3d 2ab1 82bd 8ce1 a33d bd98 bb3c
00000060: 31b7 0ebd f5bc 06bd e762 a93d 7b44 983c
00000070: ad92 833d e1e9 8e3b 8283 a23d 11b2 88bd
00000080: 0c4b a53c 1ede 9e3c 809d 85ba fb6f a03d
00000090: 4067 913c 40e5 9c3b 0480 6f3d fed1 0fbc
000000a0: 1022 bbbb 6c34 99bd 80ce 17ba deb1 2cbd
000000b0: fd1e 4f3d bf79 9d3d c88b acbd 5692 58bd
000000c0: 7a83 aa3d b486 1abd b22b 9f3d a739 b23d
000000d0: fefb c4bc 9e88 92bd 62cd 2d3d 2ce7 1b3d
000000e0: 374f 9d3d 4828 513c cedb 443d 4f7c 9fbd
000000f0: b53c 283c d06a aa3c 550d 5b3d 9d5d 4bbd
00000100: 1f89 4abc 178b 5ebd e0c3 7bbd e15f 113d
00000110: 50d4 5c3c be25 073d f8cc 82bb e04c 0ebb
00000120: d7cf c0bb 0380 3c3d db6b 80bd 663e 8c3c
00000130: aff5 3e3d a9f7 533d df79 35bd cfe0 863d
00000140: f248 71bd e6c7 3c3d b51e 903d 40dd 393b
00000150: 03cf d23c c07b abbd 3635 0fbd f73d 0ebd
00000160: 0489 a8bd 4455 99bc 06bf 7c3d 8844 0abc
00000170: ce87 ad3d 3775 a6bd 2572 083d 29da 983d
00000180: 16fa ab3d ab70 0cbd 1091 a7bd 3b3c 0dbd
00000190: 4943 823d f0c3 fd3b af04 ad3d a7a5 87bd
000001a0: beb3 62bd 6540 303d 6845 f83c eee4 72bd
000001b0: bf67 a83d 554d 16bd ee71 96bd 15eb b73c
000001c0: 8fd3 4abd 5249 2cbd 2422 54bd e4f0 c43c
000001d0: 7926 223d 46c7 6a3d a2dd 4cbd 1390 bcbc
000001e0: 6eed a43d d514 42bd b801 08bd 20b3 9abc
000001f0: edbe a4bd 147f 89bd b144 a13d e1f2 633c
00000200: b849 873c dd7b 193d 4e2c 5c3d a62f 733d
00000210: 5deb 863d e7fa 143d ed76 883d 2a8c 6c3d
00000220: 8825 72bc ca7f 293c a364 33bd f035 88bd
00000230: cf93 b03d 74d1 83bd d855 62bd 18db aebd
00000240: 6ba9 8abd 9291 b93c f840 373d a8e2 96bd
00000250: 1f2b 1c3c 5ca3 85bd 318f 9c3c 0eda 603d
00000260: 0ce8 0abd 7ff1 1ebd 4ed0 6b3d 3f45 63bd
00000270: 98fb 93bc 5d6d 91bd 65e9 833d b056 fa3c
00000280: bf0a 0bbd e12f 853d 7f65 ab3d 2cf9 153d
00000290: 50aa 7fbd 3ce3 9dbc 9538 963d e817 883d
000002a0: 620c eebc e205 793d 0fd5 6cbd b726 ca3c
000002b0: 421c a13d 906b 833c 0b38 8bbd 10b7 ea3c
000002c0: 8bf1 523d 1aca 7b3d 9a7c 6abd fcf9 81bc
000002d0: 6a64 19bb 4830 7dbc f2a8 8ebc d556 f1bc
000002e0: 245d f93c 960a 2c3d 28a3 8cbc ca15 933d
000002f0: b84f ee3a 3883 b03c 1fee c73c c018 e2bc
00000300: 516a d8ba 14eb fdbb 6c6b 123d 893b 3bbd
00000310: 0931 26bd acd3 a9bd 07ff 13bd d4cb e63c
00000320: 2197 973d 7bfa adbd 8885 f2bc e027 6d3d
00000330: aa97 3abd aa70 723d 2126 bf3b 30db a4bd
00000340: 88dd 743c 5b01 59bd aa8b 9f3c f931 a2bd
00000350: 529a ad3d 2978 1abd 6a8b 673d 4bc9 63bd
00000360: 74b6 97bd 1a70 0e3d 4ea8 593d 0068 50ba
00000370: 3fbd 93bd 0724 b5bc d28f 71bd a639 df3c
00000380: 160e 883c b296 7b3d e375 b93d d0d2 1dbd
00000390: b8b5 933d 3288 7b3d f09a 5e3c 0e14 adbd
000003a0: fe19 7bbd 2b51 273d ff82 863d 09bf 4a3d
000003b0: e87d 083c 7e7a 51bd 1c10 9fbd ec84 44bd
000003c0: 00a7 2c3a f0e1 3e3c fdcf 8f3d 1e8f 82bd
000003d0: df79 463d 4937 9e3d 459d a3bd 8f9b 36bd
000003e0: ae1f b7bc 6647 9e3c d0d4 a53d 4857 a63c
000003f0: 2de5 7e3d d6ff 963d fd1b 8e3d 1bec 9fbd
-0.018388405 -0.08862196 -0.08588905 -0.011573471 0.060833983 -0.05863347 0.028791368 0.050942652
-0.06442453 0.035901804 0.014309227 -0.08046982 -0.0038065263 -0.084028885 0.07727816 0.041425996
0.033867255 0.06538201 0.06562776 0.087747626 0.034103613 -0.063814476 0.08002004 0.02289998
-0.034842674 -0.032895047 0.08270817 0.018587342 0.064244606 0.0043613766 0.079352394 -0.066745885
0.020177387 0.019393023 -0.0010194033 0.078338586 0.017749429 0.004788071 0.058471695 -0.008778093
-0.0057108477 -0.07480702 -0.0005790964 -0.042161815 0.050566662 0.07689237 -0.08425099 -0.05287393
0.083258584 -0.03772612 0.07772006 0.087024026 -0.02404594 -0.07154964 0.042432196 0.03806226
0.07681125 0.012765951 0.048061185 -0.07787382 0.01026838 0.020802885 0.05347951 -0.049649823
-0.012361794 -0.054331865 -0.061466098 0.035491828 0.013478354 0.032994978 -0.0039917193 -0.0021713302
-0.0058841514 0.04602052 -0.06270572 0.017119598 0.04662102 0.05174986 -0.04430568 0.065858476
-0.058907457 0.046089076 0.07037107 0.0028360635 0.025733477 -0.08373213 -0.034962855 -0.034727063
-0.08229259 -0.018717416 0.06170561 -0.008439191 0.08473168 -0.08127826 0.03331198 0.07463486
0.083973095 -0.034287136 -0.08181965 -0.03448127 0.0636049 0.007744305 0.08448159 -0.066233926
-0.055347197 0.04303016 0.030306533 -0.059300356 0.08222913 -0.036694843 -0.07345949 0.022450963
-0.049518164 -0.04206211 -0.05179037 0.024040647 0.03958747 0.05731895 -0.050016053 -0.023017919
0.080530986 -0.04738315 -0.033204764 -0.018884242 -0.08044229 -0.06713691 0.0787443 0.013912887
0.016514644 0.03747164 0.05375319 0.059371613 0.06587861 0.03637209 0.06663308 0.05775086
-0.014779456 0.010345409 -0.043797147 -0.06650913 0.08621942 -0.064364344 -0.05525765 -0.085378826
-0.06770595 0.022652421 0.044739693 -0.0736745 0.009531765 -0.06525299 0.019111248 0.054895453
-0.033912703 -0.038804527 0.0575717 -0.05548596 -0.018064305 -0.071009375 0.06441001 0.030558914
-0.033945795 0.06503273 0.08368968 0.036614582 -0.062418282 -0.019273393 0.07335011 0.06645185
-0.029058639 0.060796626 -0.057820376 0.024676664 0.07866718 0.0160425 -0.06797799 0.028651744
0.051499885 0.061472036 -0.057247736 -0.015866272 -0.0023405799 -0.015453406 -0.017414544 -0.02946035
0.03043992 0.042002283 -0.017167643 0.0718189 0.0018181717 0.021546945 0.024405537 -0.027599692
-0.0016511177 -0.0077489708 0.035746977 -0.045711074 -0.040574107 -0.08292326 -0.036131885 0.028173365
0.074018724 -0.08495041 -0.029604688 0.057899356 -0.045554794 0.059189476 0.0058334027 -0.08049619
0.014945395 -0.05297981 0.019475777 -0.07919688 0.084767 -0.03771225 0.05652944 -0.05561189
-0.07407847 0.034774877 0.053139023 -0.00079500675 -0.0721383 -0.022111906 -0.05897505 0.027249169
0.01660828 0.06142301 0.09055688 -0.038531125 0.072123945 0.061409183 0.013586745 -0.08451091
-0.061304085 0.040848892 0.06567954 0.04949859 0.0083308 -0.05114221 -0.077667445 -0.047978327
0.0006586164 0.011650547 0.070220925 -0.06374954 0.04845607 0.077253886 -0.07988981 -0.044581946
-0.022353973 0.019321155 0.080972314 0.02030529 0.062230278 0.073730156 0.06938932 -0.078087054

fc2.bias f4 [64]
00000000: 19df 14bd b7c9 d0bc ca82 9cbd 4cc8 593d
00000010: 9cb4 3a3c 61a5 1c3d 60e9 5d3d afbf 19bd
00000020: 00c2 573a 1353 973d 2058 86bd 0be4 993d
00000030: 94ff 453d a867 e3bc e80e 92bd 85ff 383d
00000040: d85c 373d 14b0 2ebd 2767 1f3d 0606 c33c
00000050: 2730 b23d ce30 393d 18fc 493c e1fe acbd
00000060: 4abf 983d 8989 963d 90b4 c8bc 007f e2bb
00000070: 7f48 91ba 70db b0bb 2e28 3a3d 362f 1f3c
00000080: 976e 9dbd 04f7 e83c cfe2 69bd 9860 db3c
00000090: ccf8 273d cddf 2cbd d1a7 693d a0ed 133b
000000a0: 0d17 36bd 6b1d 9b3d cfa7 713d ed2d 7f3d
000000b0: 7421 82bd 81f5 89bd 7828 9fbd e033 743d
000000c0: de25 533d 20b1 5cbd 84d3 023d ac89 913c
000000d0: e0ca 24bd e127 ae3b 3b55 50bd d86a e9bc
000000e0: f4e4 183d 1080 4c3c fdb5 86bd efd2 a03c
000000f0: e19f aabc b9fa 84bd ad35 a2bd a410 d03b
-0.036345575 -0.02548681 -0.076421335 0.053169534 0.0113956 0.038243655 0.054177642 -0.03753632
0.00082305074 0.07388892 -0.06559777 0.07514199 0.04833944 -0.027759388 -0.071317494 0.045165557
0.044766277 -0.04264839 0.038916733 0.023806583 0.087005906 0.04521256 0.01232817 -0.08447052
0.074583605 0.073504515 -0.024500161 -0.0069121122 -0.0011084228 -0.0053972527 0.045448475 0.009715846
-0.07687109 0.028438099 -0.057101067 0.026779458 0.041008756 -0.04220562 0.057044808 0.0022572055
-0.044455577 0.075739704 0.058997925 0.062299658 -0.06354037 -0.06736279 -0.07771391 0.059619784
0.051549785 -0.053879857 0.03194 0.017765842 -0.04023254 0.0053148125 -0.050862532 -0.02849333
0.03732772 0.012481704 -0.0657768 0.019631831 -0.02082819 -0.06493134 -0.07920394 0.00634964

fc3.weight f4 [32, 64]
00000000: ac68 bcbd fc7c 9cbd 98bf f63c 2091 fc3b
00000010: 18cd 67bd 48bf 9e3c 1af7 803d d4b4 45bd
00000020: 4899 36bd 48d1 b43c e87a fa3c 7cf6 303d
00000030: 3e56 ae3d 70e5 08bc 7c16 2a3d ce4f 93bd
00000040: 7094 82bc 00a3 bd3d 92ff f7bd 0866 a8bd
00000050: 0e4b ddbd d200 d53d f037 67bc a076 ea3d
00000060: c6fa 89bd 243a 0bbd ccc5 a43d 74f8 febd
00000070: 9a7d f9bd 4c6f abbd 0062 0b3b d683 ebbd
00000080: 0899 bd3c da80 d83d 808e cfbc 004c b4bc
00000090: 704b e1bd 6875 d8bc 4063 293c 909e d13c
000000a0: 749a 28bd 0a71 9cbd b21e 86bd 5884 b03d
000000b0: 7a44 8bbd 8038 1f3c c0fc b3bc 04e0 4dbd
000000c0: 60ed b0bb 2281 c13d 96d5 c13d b8e4 d5bc
000000d0: b0f6 cdbc b466 8fbd e024 6ebd d8eb aebc
000000e0: a4f5 bd3d 78e1 913c 061b dbbd 489c 03bd
000000f0: f427 ddbd 9e93 ec3d 409c 3d3c c4f3 01bd
00000100: 9530 573d 7172 ebbd 3c17 2bbd 303d 663c
00000110: d648 b53d 5f8b d53d 7367 cdba 08e7 ffbd
00000120: 802a bd3c a9d0 8bbd a971 eb3d 848d 02bd
00000130: 8835 02bd c815 98bc 4d7a ee3d 2633 683d
00000140: 9f1c adbd 23e1 c83c 48eb 2b3d 2857 f6bc
00000150: 4cf8 293d 8aca e5bd 6dce 80bd 4ee8 a73d
00000160: 1af6 f13d 0e1b 2d3d d208 91bd dc97 3a3d
00000170: 1b30 90bd b81f cdbd 8d9e a3bd 897f 1dbc
00000180: c072 d93c c07c 183c dc2a f93d 2ebe e7bb
00000190: 930a f03d 5241 bebd 7488 7abd 7865 8c3c
000001a0: 4094 983d e4f8 173d 7666 ff3d f2a4 83bd
000001b0: ecf1 f43d 8878 233d e02f 073d be81 6aba
000001c0: 0843 b8bd 12f3 883d c942 f33c 5278 b03d
000001d0: 98bb c13d eb33 d5bd 5eea f03d 4b6e d6bc
000001e0: 5531 a8bd c46f df3d 40f2 a1bc 5918 be3c
000001f0: e1c4 ad3c 0eb4 89bd 0598 a63d 402a 4c3d
00000200: 8557 d33d 0d72 04bd 0ed6 bcbd 48bf dc3c
00000210: 0ba6 10bd 8922 253b 5ddc cabd b497 e53d
00000220: 30a3 86bd 7d92 11bc 0fcc b63b d496 55bd
00000230: 540a 9d3d f097 d0bd dca0 83bc d447 a1bd
00000240: 5109 9c3d 1a03 b5bd dd9d cf3d eb4b d8bd
00000250: 76db ffbd 00c9 473b 547e f8bd 8c4b f33d
00000260: cbd4 f33d 3e3b 5fbd b85a bf3d 1ce9 44bd
00000270: ad8c 053d ba6e b3bd f81a c0bb 6c72 12bd
00000280: 70ba e53c 1c98 243d 0bf4 eabd f1c4 2d3c
00000290: 7329 cb3d a83c ce3d 5321 753d c0b0 3d3b
000002a0: 7aa3 af3d 9ed9 873d 3990 a3bd d279 98bb
000002b0: 6dcc e7bd 2033 103c 7086 1b3c 7a83 a3bd
000002c0: 488d f43c c808 b13d 3e82 d4bd 040b e4bd
000002d0: a57e 6fbd 72b2 973c 26fd f3bd a367 b6bc
000002e0: 01b0 c83d 004a d3bd 68c3 08bd 5613 c3bc
000002f0: 77e5 9f3d c863 3ebd b81b c73d 9940 76bd
00000300: f0f4 3d3d 6843 bdbc 12d9 de3d a80a 7bbd
00000310: 605e 40bd 42e4 e63d 0acd cabd b4c1 103d
00000320: bc7e 7e3d 00de 31bc c212 e13d 341a eebd
00000330: 20b6 94bc eeb5 86bd d4ba 493d a64e fa3d
00000340: 8097 fabd d03a 64bd 0094 bdbd f896 8fbd
00000350: 3cc9 1a3d 0087 f13a 2082 c8bd cafb 9cbd
00000360: 44aa a7bd 6061 1b3c 22d4 d2bd 282b c8bd
00000370: 2c1b cdbd 207d ce3d e0fa ba3d 7c42 72bd
00000380: 605c f03c 9803 8fbc d8c5 4dbd 6cbc 6e3d
00000390: ae31 acbd 0042 d8b9 c450 bf3d 884d debd
000003a0: f410 d33d 7e1a a93d 786c 623d 80cd 85bc
000003b0: 4828 47bd 708c 8cbd ee9b b9bd f28b f9bd
000003c0: 60e3 92bc 6096 cb3c 8ccd f7bd 62ff fb3d
000003d0: 78ea b6bd 50ac 213c 8c87 2dbd bcfb e83d
000003e0: c0e1 5ebd 28bf 053d 4c30 233d bcc8 6a3d
000003f0: 7078 b3bd fec6 8dbd 0092 b63a 0081 fcbd
-0.09199652 -0.076410264 0.030120656 0.00770773 -0.056592077 0.01937832 0.06297131 -0.048268154
-0.044579774 0.02207245 0.030576184 0.043203816 0.08512543 -0.008355483 0.04152535 -0.07192956
-0.015939921 0.092596054 -0.12109293 -0.08222586 -0.10805331 0.10400547 -0.014112458 0.11448407
-0.06737284 -0.033990994 0.08045539 -0.124497324 -0.1218216 -0.083708376 0.002126813 -0.11499755
0.02314426 0.105714515 -0.025336504 -0.022008896 -0.11000717 -0.026423171 0.010338604 0.025588304
-0.041162923 -0.07638748 -0.065488234 0.086189926 -0.0680017 0.0097180605 -0.021971107 -0.050262466
-0.005399391 0.09448458 0.094645664 -0.026110038 -0.025142044 -0.07002011 -0.058140635 -0.021352693
0.09275368 0.017807707 -0.10698514 -0.032131463 -0.10798636 0.11551593 0.011572897 -0.031726614
0.052536566 -0.11496437 -0.041770205 0.014052674 0.08851783 0.104269736 -0.0015671089 -0.124952376
0.023091555 -0.06826908 0.11496288 -0.03187324 -0.031789333 -0.018565074 0.11644421 0.056689404
-0.08452725 0.024521416 0.04197243 -0.030070856 0.04149656 -0.11220272 -0.062893726 0.081986055
0.11814518 0.04226213 -0.070817605 0.04555498 -0.070404254 -0.100158155 -0.079892255 -0.009612926
0.026543975 0.0093070865 0.12166378 -0.0070722317 0.11720767 -0.092898026 -0.061165288 0.017138228
0.074501514 0.037102595 0.12470715 -0.06427945 0.119602054 0.03990987 0.03300464 -0.00089457247
-0.0899716 0.06686987 0.029694932 0.08616699 0.09459609 -0.10410293 0.11763452 -0.026175639
-0.08212534 0.109099895 -0.019768834 0.02320497 0.021212043 -0.06723796 0.08134464 0.04984498
0.103194274 -0.03233533 -0.09220515 0.026946679 -0.0353146 0.0025197587 -0.09905312 0.11210576
-0.06574094 -0.008885023 0.005578525 -0.052145794 0.076679856 -0.1018523 -0.016067915 -0.07875028
0.076189645 -0.08838482 0.10137532 -0.10561355 -0.12493031 0.0030484796 -0.1213347 0.11879644
0.119058214 -0.054499857 0.09343475 -0.048073873 0.032604862 -0.08761354 -0.00586259 -0.035753652
0.028043002 0.040184125 -0.11472329 0.0106060365 0.09920015 0.10070163 0.059846234 0.0028944463
0.085761026 0.06633304 -0.07986493 -0.004653194 -0.11318288 0.008801252 0.009492502 -0.079840615
0.029852524 0.08644253 -0.10376404 -0.111349136 -0.058470387 0.018517707 -0.119135186 -0.022266215
0.09799195 -0.10316849 -0.03338948 -0.023812931 0.07807439 -0.046481878 0.09722084 -0.0601202
0.04637617 -0.02310343 0.108812466 -0.06128946 -0.046965003 0.112740055 -0.09902389 0.03534098
0.062132582 -0.010856152 0.10989906 -0.116260916 -0.01815325 -0.06577669 0.04925044 0.12222032
-0.122359276 -0.05572015 -0.092567444 -0.07011217 0.03778957 0.0018427074 -0.097904444 -0.076652125
-0.081867725 0.009483665 -0.102943674 -0.097738564 -0.10014948 0.100824594 0.09129882 -0.059145436
0.029340923 -0.017457768 -0.050237507 0.05828516 -0.08407913 -0.00041247904 0.09341577 -0.10854632
0.10305968 0.08257006 0.055279225 -0.016333342 -0.0486224 -0.06862724 -0.09062944 -0.121848956
-0.017930686 0.024851978 -0.12099752 0.1230457 -0.0893144 0.009867743 -0.042365596 0.113761395
-0.05441451 0.032653004 0.03984098 0.05732034 -0.08763206 -0.069227204 0.001392901 -0.12329292

fc3.bias f4 [32]
00000000: ec94 423d 141f 5a3c cb38 3e3b 923e ea3d
00000010: 58c2 193c 6f37 aebd 701d 78bd d4a5 f9bd
00000020: 7521 acbd f58e f33d 4e46 c7bd f841 e5bc
00000030: 2855 f1bd 5c3d 973d 4549 48bd c445 023e
00000040: bb11 b23d 142e 57bd b8bf 53bd 0058 aabc
00000050: 9c5d 07bd c2c0 ddbd b836 563c d732 acbd
00000060: 4858 a3bd 36cb 133d 15be 8e3d b6f3 f2bd
00000070: 4148 cb3c 191d d13d aefb 4d3d 60ea bdbd
0.047505304 0.013313074 0.002902555 0.114377156 0.009384714 -0.08506667 -0.06057495 -0.12189832
-0.08404819 0.11892501 -0.097302064 -0.027985558 -0.117838204 0.0738475 -0.048898 0.12721926
0.08694788 -0.052534178 -0.05169651 -0.020793915 -0.033048257 -0.10827781 0.013074569 -0.084081344
-0.07975823 0.03608247 0.06969849 -0.118628904 0.024814727 0.10210628 0.05028885 -0.09273219

fc4.weight f4 [16, 32]
00000000: 7220 2dbe b05c 96bc fe1e fe3d d08a 56bc
00000010: a292 2abe 271c 313e 4993 06be e814 623d
00000020: 2fb1 d7bd a82d 133d 10ce 16bd 787d a8bc
00000030: 1859 eabc dd7b 103e 05c2 a9bd 1c48 59bd
00000040: 7ead 01be 5b29 d2bd 5081 f6bc 7d84 0ebe
00000050: 8faf 89bd 90d4 b4bc cdb7 ffbd a09d 163d
00000060: 6097 b13c ccfb 083d 03e6 283e a75e f0bd
00000070: 88dc 0abd c41f 91bd fb4e 0bbe 1c8a 38bd
00000080: f881 393d bb79 2a3d 87f7 65bc ad6e 013e
00000090: 6c96 ff3d feb9 0e3e f512 023e 40db b53b
000000a0: ccdd c2bb 3d76 0d3e c09e c23c 8ddd 1a3e
000000b0: 600d ed3b 6625 08be 552e f3bd e4a8 ab3d
000000c0: 2a90 e93d ccd1 6f3d 0fa7 0d3e e7a3 283e
000000d0: 5dab 9bbd 5ccc 563d 4885 f53c 8f68 aabc
000000e0: 5fb5 17be 2532 09be dc56 a33d 89c1 9cbd
000000f0: 2fa8 87bd 07d0 c1bd 42fd 93bd e6d4 9f3d
00000100: 9dae 00be 328f a13d e842 80bc 5651 b93d
00000110: 01f8 c0bd 368d 803d 80d2 1f3d 0309 073e
00000120: 862a e23d 20e2 683c db46 193e 1194 07be
00000130: a084 75bd da49 983d 5ead c63d 1a6f 01be
00000140: 2c1f 53bd a367 0f3e d7bb 1bbe 8e47 9f3d
00000150: eb66 333e d854 86bd 1030 a2bc 9c95 373d
00000160: be34 a63d 80c0 cfbc 8ead 20be a014 fcbb
00000170: 5040 ab3c 8e40 ef3d 886a 023d 2133 083e
00000180: 86d6 8abd ce69 f1bc 3b86 4a3d f9e4 0f3e
00000190: b1d6 913d 3747 243e b455 6d3d d671 b93d
000001a0: 76a6 123d 33ce 123e 1998 0d3e 86eb db3d
000001b0: 5664 19be d23a aebc bb15 7ebd 2f07 ecbc
000001c0: a01d fd3d 2006 efbd 48b9 bcbd 23d4 92bd
000001d0: b0c7 4b3c ad28 c9bd 87aa 0f3d 6626 1abe
000001e0: 984b b9bd c70c d33d 3b4d f53d 2649 62bd
000001f0: c10d e83b 693e 09bc b690 02be dc5d 22bd
00000200: f6bb d53d dde6 063c c2d4 2f3e 96e0 13be
00000210: 828f fbbd e5b6 17be bd28 e5bd 78eb 173d
00000220: f476 f73d 4685 11be 931e 0abe 0018 86bd
00000230: 52c1 d63d 938d c23d eca4 81bc f365 273e
00000240: 8966 883d c525 2a3e 0028 f939 1b33 e0bd
00000250: e60f 0b3b fc57 653d 4d10 8e3d 50bb 9338
00000260: 60dd c53b 4db7 133d 8904 17bd c846 313d
00000270: c499 e1bd 00ae 15bd 3001 c83d 6c53 5d3d
00000280: 8296 ca3d e41d f1bd 321e 55bd 936e bbbd
00000290: 0ed1 0cbe 1ea3 94bd 8044 39bc 602e 54bc
000002a0: 50f7 32bc 03b0 e4bd 907f 44bc 84ff 3f3d
000002b0: 6702 023e 1207 db3d b047 17be 9aa5 e6bd
000002c0: dbc9 0e3e 22c2 f53d 52f7 c83d 69b9 babd
000002d0: 01a8 183e 9cdd 2fbe d2f5 0fbe 309c 813c
000002e0: de60 a83d 4e9f 2abe 602c d53c 4058 2ebb
000002f0: 00a0 bebc d2c8 0dbe 9a8e adbd a0f5 073c
00000300: 802c 2d3d 8211 e33d 2f42 80bd a957 2b3e
00000310: 8251 883d 2af9 f5bd 8f37 34be 8e69 f33d
00000320: 10e4 5a3c d057 91bc 06b5 6fbd da35 aa3d
00000330: 0e47 82bd e66f 04be ee6c fb3d f338 9bbd
00000340: 6275 d03d e6f7 f8bd b48f 11bd 5f63 c6bd
00000350: e08e f63b 4044 abbc 6805 583d 5968 0cbe
00000360: 57a8 1fbe dff6 0f3e 489a 0abe f827 743d
00000370: 4f36 1dbe c819 0d3d 407f 76bb 2008 b2bd
00000380: 8090 6ebb 90cc b13c 8019 a23b 6bf2 083e
00000390: c95f cfbd aaf0 a33d 43b8 263e 5505 02be
000003a0: 99c8 0dbe 84b8 743d b085 80bd 80a3 82bb
000003b0: fddb 28be f624 dd3d 1039 3fbc 7010 323c
000003c0: 44b2 7bbd b05b 7b3d 80fc 3dbb 6749 90bd
000003d0: 04de 333d 056d 86bd 3c5c 863d 5a60 2dbe
000003e0: 7915 8cbd 320f f8bd 8a07 9a3d 9e3a febd
000003f0: 5941 0c3e 004e 303d 9ae2 dd3d e229 ecbd
-0.16906908 -0.018354744 0.12408255 -0.013094619 -0.16657498 0.17295896 -0.13142122 0.05519572
-0.10531842 0.035932213 -0.03681761 -0.02056764 -0.028606936 0.1410975 -0.082889594 -0.053047284
-0.12663838 -0.10261794 -0.030090958 -0.13917728 -0.06722938 -0.022074014 -0.12486229 0.036771417
0.021678627 0.033443257 0.16493993 -0.117368035 -0.03390172 -0.07086137 -0.13604347 -0.045053586
0.045289963 0.041619997 -0.014036066 0.12639876 0.124798626 0.13938138 0.12702544 0.0055498183
-0.0059468504 0.13814636 0.023757339 0.15123577 0.0072342604 -0.13295516 -0.118740715 0.08381823
0.1140445 0.058549687 0.13833259 0.16468774 -0.07601044 0.052440986 0.02997078 -0.02080181
-0.14815281 -0.13398035 0.079755515 -0.076541014 -0.06623875 -0.09463506 -0.072260395 0.07804279
-0.1256661 0.078886405 -0.015656903 0.09048717 -0.09422303 0.06276934 0.039019108 0.13187031
0.11043267 0.014214069 0.14968435 -0.13240077 -0.059940934 0.07435961 0.09701036 -0.12640038
-0.0515434 0.14004378 -0.15208374 0.0777732 0.17519729 -0.065591514 -0.019798309 0.044820413
0.081155285 -0.025360346 -0.15691206 -0.0076928884 0.02090469 0.11682235 0.031839877 0.13300754
-0.06779198 -0.029469397 0.04944442 0.1405219 0.07121027 0.16042791 0.05794306 0.090549156
0.03580328 0.14336471 0.13827552 0.10738282 -0.14979681 -0.021268282 -0.062032443 -0.02881202
0.12359166 -0.1167109 -0.09215027 -0.07169368 0.012437746 -0.098222114 0.035074737 -0.1505371
-0.090476215 0.103051715 0.11977621 -0.05524554 0.0070817177 -0.008376696 -0.12750515 -0.039640293
0.10436241 0.008233753 0.17171004 -0.14441141 -0.12283231 -0.14815862 -0.11189411 0.037089795
0.120832354 -0.14210996 -0.13488226 -0.065475464 0.10486092 0.094996594 -0.015825711 0.16347484
0.06660182 0.1661597 0.00047522783 -0.109472476 0.0021219193 0.05599211 0.06936703 7.044396e-05
0.006038353 0.03606348 -0.03686956 0.043280393 -0.110156566 -0.036542892 0.097658515 0.054034635
0.09891988 -0.11773279 -0.05203075 -0.0915195 -0.13751623 -0.07257675 -0.011307836 -0.01295051
-0.010923222 -0.11166384 -0.011993304 0.046874538 0.12696229 0.10694708 -0.1477344 -0.11262055
0.13944189 0.119999185 0.098127976 -0.091173954 0.14907838 -0.17174381 -0.14058617 0.015821546
0.08221601 -0.16662332 0.026022136 -0.0026602894 -0.023269653 -0.13846138 -0.08474465 0.008298308
0.042278767 0.11087324 -0.062626235 0.16732658 0.066561714 -0.12010415 -0.17599319 0.11885367
0.013360038 -0.017742068 -0.058522247 0.083110526 -0.06361209 -0.12933311 0.12276636 -0.075792216
0.10178639 -0.12156658 -0.035537437 -0.09686922 0.0075243562 -0.020906568 0.05273953 -0.1371168
-0.1559156 0.14059018 -0.13535416 0.05960843 -0.15352748 0.034448415 -0.0037612468 -0.08692956
-0.0036402047 0.021703988 0.0049468875 0.13373725 -0.101256914 0.080048874 0.16281228 -0.12697347
-0.13846053 0.05974628 -0.06275499 -0.003986776 -0.16490169 0.10798065 -0.01167132 0.010868177
-0.061449304 0.061366737 -0.0028989613 -0.070452504 0.043912902 -0.065637626 0.06560561 -0.16931286
-0.06840033 -0.12112273 0.07520969 -0.12413524 0.13696803 0.043043137 0.108342364 -0.11531426

fc4.bias f4 [16]
00000000: 2dd9 90bd d88e 193d 6fad debd 5377 903d
00000010: aeba 8f3d ea47 c83d d957 28be 50fc d5bd
00000020: 327c de3d 0834 0e3e 2a54 8c3d 9b99 1cbe
00000030: 131e 3b3d 1d67 f93d 6433 bdbb bd4b d73d
-0.07072673 0.037489742 -0.108729236 0.07054009 0.07018028 0.097793415 -0.16439761 -0.104485154
0.10863532 0.13887036 0.068519905 -0.15292971 0.045682978 0.121778704 -0.0057739485 0.10512493

fc5.weight f4 [1, 16]
00000000: 6aba 34be b388 1a3e 0870 4b3d 8539 b0bd
00000010: 85fa 4f3e 7e4e 68be c293 5b3e 107c 683d
00000020: db07 913d 9872 cebc 3d7c 0c3d ac46 343e
00000030: 93e7 033d 6e93 013d e297 003e 135c e4bd
-0.17649236 0.15091209 0.04966739 -0.08604721 0.2031041 -0.22686192 0.21443084 0.05675894
0.070815764 -0.025201127 0.03429817 0.17605084 0.03220327 0.03163474 0.12557939 -0.11150374
