obsolete/training/models/deep_agent_episode_150.pth (torch, 16692 bytes, 7 tensors)

fc1.weight f4 [64, 10]
00000000: b617 603e e0a0 813c 2ffa 29be f41e 85bd
00000010: 1c80 003e 6072 da3c f0c4 d2bd 108e dd3c
00000020: dbcc 8b3e 9224 7bbe 9c0f 0dbe 90af eebc
00000030: af37 913e 161c abbd 837d 8e3e a461 9ebe
00000040: d638 233e 4308 a1be b8b7 783d 14ec b93d
00000050: a61c 76be d14c 55be 4208 b0bd 8ed8 c7bd
00000060: 8cd6 f3bd 88b5 833d 50c3 f7bc a63c 93be
00000070: 964e 7abe 31b6 853e 001f d53c 1e5b 663e
00000080: a090 363e 20fa 37bd 12b4 503e 00a9 303c
00000090: 9530 11be e06d 94be 40a4 72bd 6801 073d
000000a0: 017b 8ebe 90dd afbc 20af 463c 1b29 85be
000000b0: 0e6b 63be 5237 99be 80f9 adbd ce0b 223e
000000c0: d661 6e3e e26e 7d3e b24b 553e c0ce a0bb
000000d0: 160c 6bbe 2e5d 6a3e fa53 44be 4c0f bbbd
000000e0: 4867 3bbe a214 3f3e a8d5 943d 697e 97be
000000f0: ef20 8c3e 1c9f 2e3e a093 f0bc 864b 7e3e
00000100: f783 7bbe ce37 fabd 9ffa 903e 609f 88be
00000110: 0056 0abd 0335 52be f4a5 e13d 84f3 abbd
00000120: 44be 5fbe 3054 e83c 2c4d 72be f02e d1bd
00000130: 2cdc e53d 9db6 2bbe d2a8 99bd e693 293e
00000140: 30da 7ebe b2a0 643e 4bf3 9c3e 423a 383e
00000150: 2c4a 0fbe e81b ce3d 7c29 75be 5e2a 4d3e
00000160: 0ece 40be 949c af3d a83d 13be 94ad 88be
00000170: 0c33 f73d 3082 7c3d ccdc 7bbe 4bb6 8a3e
00000180: 4a5a 633e 770f 26be 10f9 143d 0ab0 02be
00000190: 86fc 793e 9092 76be 1077 9d3c f28c 56be
000001a0: c5b1 95be 13b7 02be 401c b83d 7126 8b3e
000001b0: 08c3 22be fbc8 86be 7482 2a3e 4445 09be
000001c0: 46a1 54be 475a 983e 848d 98be 8086 fa3c
000001d0: 1de3 903e 2831 2fbd 303b f93d 943e d13d
000001e0: f690 dcbd 38d4 69bd 8a36 0b3e 4768 2ebe
000001f0: d6d9 90be b288 533e 67d4 85be 826f 78be
00000200: 6cfc e7bd fc95 ee3d f542 943e 761f 563e
00000210: fa35 443e a0e9 b53c 32f8 1fbe 2401 af3d
00000220: b88f 3d3d fb82 72be 6eec 1e3e 609d 3dbe
00000230: 3054 fb3d 2993 933e 9494 ff3d 0e9c 8abe
00000240: e8d4 8ebd 1c0b a53d d0b1 b7bc 7490 293e
00000250: 2caa 75be 0084 d7bb 9830 62bd a896 ec3d
00000260: 5c48 8dbe fcc8 eebd 4df9 8e3e f2d3 c0bd
00000270: 02d8 89be 8046 a83c e0da fe3c 0274 e6bd
00000280: 9a32 d8bd c0a4 1b3d f0d7 4e3d 695b 89be
00000290: 9c98 313e cb77 75be 0b2c 8ebe e3f4 69be
000002a0: f3f3 9cbe c06c 603c 1c36 e03d 23c6 a03e
000002b0: ee0d 333e 0506 16be 8209 633e d0de c9bc
000002c0: 1a58 fabd 30dd 893d 0060 453b f051 cf3c
000002d0: da47 88bd 9405 bcbd b5ba 873e d46e 87be
000002e0: 422e 5f3e 4c31 0e3e c5a6 86be bcf7 d43d
000002f0: 61b8 863e 247d 0b3e 010a 16be 1943 843e
00000300: 98b9 ec3d c43f 95bd 8291 6d3e d296 fbbd
00000310: 4207 8cbe f692 443e 8057 8b3d f86c fa3d
00000320: 1e90 17be 91c1 a1be f07c 78bd d250 30be
00000330: 01b9 9d3e 56c3 64be f044 943d d36d a03e
00000340: 6199 993e d74b 5fbe 6aa2 cdbd f611 d1bd
00000350: d665 a6bd 640e 313e bc4b a43d 2bc9 873e
00000360: 54f4 e23d 60f5 4c3d ec3c c6bd f05e e83c
00000370: 5817 1abd 0031 fcbb 4d6a 843e de73 5bbe
00000380: 9905 00be 8ed0 523e 735c 85be 122a 4c3e
00000390: 8c3d f43d 4885 013d 932c 883e 7047 81be
000003a0: 7475 30be 508b f73d a03f b63c 284e dfbd
000003b0: c4d4 8ebe a40d d23d 8224 543e 98bf d4bd
000003c0: 126a 44be 0ce3 52be a209 403e 8f6b a13e
000003d0: 64ea d03d 006e cc3a 9a13 d4bd 26b0 593e
000003e0: 8679 f0bd 401a 923b 4b26 8b3e 0016 3bbb
000003f0: 84cf adbd eeae 92be feb7 273e 09d4 00be
0.21884045 0.015823781 -0.16599344 -0.065000445 0.1254887 0.026665866 -0.10291469 0.02704528
0.2730473 -0.24525669 -0.13775486 -0.02913645 0.28362796 -0.08354966 0.27830133 -0.3093387
0.1593965 -0.31451616 0.060722083 0.090782315 -0.24034366 -0.20830084 -0.08595325 -0.097581014
-0.11906156 0.06431109 -0.0302445 -0.2875721 -0.2444404 0.26115564 0.026015759 0.22495696
0.17828608 -0.044916272 0.20381191 0.01078248 -0.14178689 -0.28990078 -0.059238672 0.032960325
-0.2782822 -0.021467954 0.012126714 -0.26007923 -0.22208807 -0.2992502 -0.08494854 0.15824816
0.23279509 0.2474933 0.20829657 -0.004907459 -0.22953829 0.22887108 -0.1917266 -0.09133777
-0.18301117 0.18660215 0.07267314 -0.2958863 0.27368876 0.17052883 -0.029367268 0.24833497
-0.2456206 -0.12217675 0.2831621 -0.26684093 -0.033773422 -0.20528035 0.11017981 -0.08396056
-0.21849924 0.028360456 -0.23662251 -0.10214031 0.11223635 -0.1676888 -0.07502903 0.16560325
-0.2488792 0.22326925 0.30654368 0.17990974 -0.13993138 0.100639164 -0.23941606 0.20035693
-0.18828604 0.08574787 -0.14378989 -0.2669493 0.12070283 0.061647594 -0.24595946 0.27092203
0.22202411 -0.16216837 0.036370337 -0.12762466 0.24412736 -0.24079347 0.019221812 -0.20952204
-0.2923719 -0.1276515 0.08989763 0.27177766 -0.15894711 -0.2632521 0.16651326 -0.13405329
-0.20764646 0.29756376 -0.29795468 0.030581713 0.28298274 -0.04277149 0.12169492 0.10217014
-0.107698366 -0.057087153 0.13595024 -0.17031966 -0.28291196 0.20657614 -0.26138613 -0.24261287
-0.113274425 0.11649701 0.28957334 0.20910439 0.19161215 0.022206128 -0.15622023 0.085451394
0.04627964 -0.23682778 0.15519878 -0.18517065 0.12271917 0.28823212 0.12479511 -0.27072185
-0.069742024 0.080587596 -0.022423655 0.1655901 -0.23990697 -0.006577015 -0.055222124 0.11552173
-0.27594268 -0.116594285 0.27924576 -0.09415425 -0.26922613 0.02054143 0.031110227 -0.112525955
-0.105565265 0.037998915 0.050498903 -0.26827553 0.17343372 -0.23971479 -0.27767977 -0.22847323
-0.30654868 0.013697803 0.109478205 0.31401166 0.17485783 -0.14650734 0.22171596 -0.024642378
-0.12223835 0.06731641 0.0030117035 0.025307626 -0.066543296 -0.091807514 0.26509634 -0.26451743
0.2179499 0.13885993 -0.2629911 0.10398814 0.26312545 0.13621956 -0.14652254 0.2583244
0.11558837 -0.07287553 0.23200038 -0.12284626 -0.27349287 0.19196686 0.06803799 0.122278154
-0.1480107 -0.31592992 -0.060666025 -0.1721833 0.3080521 -0.2234014 0.07239711 0.3133379
0.2999983 -0.21806274 -0.10040744 -0.10208504 -0.081248924 0.17290646 0.08022258 0.26520666
0.11081758 0.050038695 -0.09679589 0.028365582 -0.03761992 -0.007696271 0.2586235 -0.21430919
-0.12502135 0.2058737 -0.26047096 0.19937924 0.11925802 0.031621248 0.26596507 -0.25249815
-0.17232305 0.120871186 0.022247136 -0.10903579 -0.27896702 0.10256508 0.20717052 -0.10388106
-0.19181088 -0.20594424 0.18753675 0.31527373 0.102009565 0.0015596747 -0.10355301 0.21258602
-0.11741929 0.0044586957 0.27177653 -0.0028547049 -0.08486846 -0.28649086 0.16378781 -0.12580885

fc1.bias f4 [64]
00000000: 5a6e 2a3e b424 b53d 214f 06be 355e 823e
00000010: 682d cd3d 44c0 b33d a250 7f3e a76f 25be
00000020: 1e6a 2a3e 14bb 49be 45d4 8b3e 53f5 833e
00000030: 608f 003e e846 66bd 9a0f 5f3e 8c27 c23d
00000040: 5aee 273e 5f52 52be bdd3 8e3e 1813 bc3d
00000050: d00f 9dbe 9010 8ebd 4076 6f3d 605f 143d
00000060: e284 683e b081 38be 069e 87be 149e bb3d
00000070: f837 513d d26f 373e 0c0a d53d 8033 23bb
00000080: de72 e1bd 6820 993d b015 e93d fe35 503e
00000090: 2cd0 3dbe 906e cd3d 8023 4d3c 00d4 bd39
000000a0: 3ec1 fcbd 80b1 e7bc 8bd4 803e 6ad4 643e
000000b0: 01f9 99be 27d0 873e 8ce9 b73d 80a3 d23b
000000c0: 464b f6bd 4012 4c3c 806c 10bb ca41 4fbe
000000d0: e470 d03d d89a 6ebd cecc 553e c4e5 8dbe
000000e0: 6005 6bbc 00e4 3eba b8ef 59bd efd9 8ebe
000000f0: 5e65 4a3e 40a7 543d 350e 85be c01d 413d
0.16643658 0.08844891 -0.13116123 0.254625 0.10018426 0.08776906 0.24933103 -0.16155873
0.16642043 -0.19700271 0.27310386 0.25773105 0.12554693 -0.056219965 0.21783295 0.09480199
0.16399518 -0.20539235 0.27895918 0.09183329 -0.30676126 -0.06936753 0.05846238 0.03622377
0.22706941 -0.18018222 -0.2648775 0.091610104 0.051078767 0.1791375 0.10402307 -0.0024902523
-0.11008237 0.07476884 0.1138109 0.20333096 -0.18536443 0.10030854 0.012520671 0.00036206841
-0.123415455 -0.02828288 0.25162157 0.22346655 -0.30072787 0.26525995 0.089800924 0.006428182
-0.12026076 0.012455523 -0.0022037327 -0.2023994 0.10177782 -0.05825314 0.20878908 -0.2771436
-0.014344543 -0.00072818995 -0.05320713 -0.27900645 0.19765231 0.051917315 -0.25987402 0.047147512

fc2.weight f4 [32, 64]
00000000: 809c 6b3b a2c9 dd3d 4e65 ea3d f03e 6c3d
00000010: 04af cb3d ac6a 4a3d 78e6 f13c 2c68 7d3d
00000020: 328b cd3d 8093 de3b 48ad b03c 08b7 593d
00000030: 9045 77bc c02d cd3c 8cbe 75bd 201c 503c
00000040: 4094 d73c 5069 f43d 0ca0 73bd 0404 9ebd
00000050: 309f a4bc 108a fb3c 90c4 813d 8a41 abbd
00000060: c061 3bbb 1c34 0a3d 1898 b0bd 4836 32bd
00000070: e855 ab3d a815 2dbd e078 3bbc 00da 983a
00000080: 182a 8abc 143b d3bd 6e61 e1bd 826e dc3d
00000090: 50b1 f7bc 54b8 3c3d f22f c13d d0f7 8cbc
000000a0: 3891 a3bd 10b8 ffbc 7aaf d7bd 8ce8 3abd
000000b0: 867c f8bd f85d 273d 1c04 18bd ce76 9f3d
000000c0: b0ae 103c 9ce7 50bd d49c ea3d 00aa e6bc
000000d0: d071 4ebc c047 423c 7a19 bd3d e093 b5bd
000000e0: 7c57 a8bd 4cf9 24bd f001 253d f0a6 dc3d
000000f0: 4807 e53d 003f 44bc ecb2 073d a017 9ebb
00000100: 00f1 20bb b412 483d d8f8 e2bc d455 803d
00000110: b824 ef3d 7cca 4dbd 80bf aabb 7076 d8bd
00000120: 206e 5e3d 80ce 17bc 3068 573c 96e9 833d
00000130: 006d 573b d095 72bc fa13 e4bd 9053 2a3d
00000140: 687f 283d d846 8bbd 5605 99bd 14c6 a0bd
00000150: 40b2 a93c 98ee e13c 58f7 3cbd a0e5 c53b
00000160: 10d7 c83d 6028 aa3b 8234 af3d f016 4cbc
00000170: 3c60 003d 6eb4 a0bd 5c07 9e3d 5aa8 bc3d
00000180: 005c 793c 684e 833c 8c16 9e3d 74c5 3bbd
00000190: 58a5 dfbd ac59 fdbd 0494 453d 002c 2bbd
000001a0: 5ce3 babd f404 03bd 3044 4abc 3049 5b3d
000001b0: 3857 b5bc e6c9 f7bd 2cca e2bd b61d 82bd
000001c0: 504a 41bd d863 7c3d 267e ab3d 46e7 92bd
000001d0: 80dc c3bd a0d9 8bbd 2ef8 e0bd 42a4 a33d
000001e0: 10d0 ecbd c01f 4abd 781c ffbd 8e4a a23d
000001f0: 0001 d2bc b2bd fcbd 0aaf ccbd fe77 e0bd
00000200: 8027 b5bb fc36 97bd 587e e83c 90be 353c
00000210: 5828 b93c b46c 293d 1af4 c4bd e8a8 e1bc
00000220: b0f0 003d 1221 8ebd 5a5c a83d d695 e0bd
00000230: 1a39 b7bd 367c a6bd e823 e5bc 289c f63d
00000240: 8289 8d3d 9c03 ffbd a05c 5f3d 5c3e 64bd
00000250: 60e8 c0bb 8c86 2e3d ec7a 72bd 98c6 5f3d
00000260: 589d 7fbd dc97 98bd 5046 d6bd 786b cbbd
00000270: 4e8a babd 48fe b13c a004 533d 986c ea3c
00000280: 60db 3c3c 20e6 0cbc 46b4 a0bd 50c7 1e3d
00000290: 0024 d03b 8068 84bd 6470 4f3d 98fe c13d
000002a0: 9eb9 b43d 007e cbbc 8062 afbb a454 c3bd
000002b0: 8261 a7bd b838 84bd 60eb 03bc 2c82 65bd
000002c0: 7e94 a63d 7841 8a3c 6209 acbd f8aa 8dbd
000002d0: 54d9 fbbd b40f f9bd 106e 9e3c 6cfe 8c3d
000002e0: 8476 bc3d 58bf b03d 4c67 d9bd a8d9 b8bd
000002f0: 8e62 ff3d b848 b23d d406 e2bd 780c dbbc
00000300: fe1f a7bd f2df e0bd 4863 f9bd b0b6 61bc
00000310: 8c17 76bd 20f0 5e3c 2c72 cdbd 8ae4 a3bd
00000320: 70df fa3d 2419 b2bd 1269 89bd 2e1b d33d
00000330: 5030 27bd e4f5 0b3d b826 d83d a2a0 b7bd
00000340: dc5d 75bd 5ef3 c9bd e0a8 c23c d898 a2bc
00000350: a06d 4d3d 4836 1d3d 9084 5cbd b8a4 2b3d
00000360: c0d1 58bd f447 39bd f00d 1d3c 3cbc acbd
00000370: 3085 873c 1882 ba3d 6282 8ebd 30ed 24bc
00000380: 000c 2abb 6ea4 c3bd 00ab d63c 72c3 d5bd
00000390: 885d 583d c4c2 46bd 4abd 983d 9076 083d
000003a0: 546e 3e3d 882a 633d c896 2abd d08c b8bd
000003b0: 282e a1bc ec4a bcbd 0c6b d63d d490 61bd
000003c0: 00b4 7439 6093 b93b befc f5bd 8016 2bbd
000003d0: 6c33 8c3d 002b 413d 04b7 dabd 2469 4d3d
000003e0: 00eb 94bd c0ce 0dbc cea7 fa3d 64fc 1cbd
000003f0: 12d3 bbbd cc60 6e3d 40f0 d13c 4050 a83b
0.0035951436 0.10829474 0.114451036 0.05767721 0.09945491 0.049418136 0.029528841 0.061866924
0.10036315 0.0067924857 0.021567002 0.053153068 -0.015092269 0.02504623 -0.059996173 0.012702018
0.026315808 0.11934149 -0.059478804 -0.0771561 -0.020095438 0.030705482 0.063363194 -0.0836211
-0.00285922 0.0337411 -0.086227596 -0.043508798 0.08365995 -0.04225698 -0.011442393 0.0011661649
-0.016865775 -0.10314003 -0.11004911 0.10763265 -0.030235916 0.046074226 0.09432973 -0.01720801
-0.07986683 -0.031215698 -0.105315164 -0.04563193 -0.12133126 0.0408611 -0.037113294 0.07786332
0.008830711 -0.05100213 0.11455694 -0.028157234 -0.012600377 0.011857927 0.09233375 -0.088660955
-0.08219811 -0.04027681 0.04028505 0.10774028 0.111830294 -0.011977911 0.033129618 -0.0048245937
-0.002455771 0.04884596 -0.027706549 0.062663704 0.116769254 -0.050241932 -0.005210817 -0.10569465
0.054304242 -0.009265542 0.013147399 0.06441037 0.0032871366 -0.014806226 -0.11136623 0.041583598
0.04113713 -0.06800622 -0.07471721 -0.078502804 0.020714879 0.02757959 -0.046134323 0.0060393363
0.09806645 0.0051928014 0.08554937 -0.012456641 0.031341776 -0.07846914 0.077162474 0.09211798
0.015219688 0.016028598 0.07719144 -0.045842603 -0.10920209 -0.12370619 0.04823686 -0.04179001
-0.091253966 -0.031987146 -0.012345359 0.053536594 -0.022136316 -0.12099056 -0.110737175 -0.06353323
-0.04719001 0.061618656 0.0837367 -0.07173018 -0.095635414 -0.06828618 -0.109848365 0.07990314
-0.11563122 -0.049346685 -0.12456602 0.079243764 -0.025635242 -0.12340869 -0.099943236 -0.10960387
-0.0055283904 -0.07383534 0.028380558 0.011092797 0.022602245 0.041363433 -0.09616871 -0.027546361
0.031479537 -0.069399014 0.0822074 -0.10966079 -0.08946438 -0.0812916 -0.027971223 0.12041503
0.06910993 -0.1245186 0.054531693 -0.055723533 -0.0058870763 0.042608783 -0.05919926 0.054632753
-0.062405914 -0.0745084 -0.1046263 -0.099326074 -0.09108411 0.021727696 0.051518083 0.028616235
0.011526912 -0.008599788 -0.078468844 0.038764298 0.006351948 -0.06465244 0.050644293 0.09472388
0.08824466 -0.024840355 -0.0053523183 -0.09537628 -0.08172895 -0.06456131 -0.008051723 -0.056032345
0.081337914 0.016876921 -0.08400227 -0.06917375 -0.122973114 -0.12161198 0.019339591 0.068844646
0.092022926 0.08630246 -0.106154054 -0.0902589 0.1246997 0.08705276 -0.110364586 -0.026739344
-0.08160399 -0.10980214 -0.121771395 -0.013776466 -0.06008105 0.013607055 -0.10031542 -0.08002575
0.122496486 -0.086962014 -0.06709494 0.103079185 -0.04081756 0.034170046 0.1055426 -0.08966185
-0.059903964 -0.09860872 0.023762167 -0.019848272 0.050153375 0.038381845 -0.05383736 0.041905135
-0.05293441 -0.045234635 0.0095858425 -0.0843434 0.016543001 0.09106845 -0.06958462 -0.0100663155
-0.0025947094 -0.09552847 0.026204586 -0.10437669 0.052823573 -0.048525587 0.07457979 0.033316195
0.046491936 0.055460483 -0.041647702 -0.09011233 -0.01967533 -0.09193978 0.10469636 -0.05506976
0.00023336709 0.0056633204 -0.12011097 -0.041769505 0.068457454 0.04716015 -0.10679439 0.050149098
-0.07271385 -0.00865525 0.122390375 -0.038326636 -0.09171118 0.05819778 0.025627255 0.0051365197

fc2.bias f4 [32]
00000000: 4092 b53c 0afe b43d 6c6a 8dbd a6ee dc3d
00000010: e07c 7bbd c0fe c53c e2a8 b7bd a6d9 ee3d
00000020: c048 353d 0cbf 7ebd 82d7 ebbd 9802 163d
00000030: c87e d43c 347c 0e3d e05c d83d 1436 91bd
00000040: f08d 003c 7646 913d e4ca 4cbd 4ca2 d23d
00000050: 180a 12bd c495 e53d ec4b 64bd 7048 8dbc
00000060: e0dd 2e3c b02c 80bd ec7e 003d b0e4 acbc
00000070: bef2 fc3d c865 e93c 18bd 30bd 80f5 803d
0.022164464 0.088375166 -0.06905064 0.10787706 -0.061398387 0.024169326 -0.08967759 0.11662607
0.044258833 -0.062193915 -0.11515714 0.036623567 0.02593936 0.034786418 0.105645895 -0.07090393
0.007846341 0.070935175 -0.04999818 0.10284862 -0.035654157 0.11210206 -0.055736467 -0.017246455
0.010673016 -0.062585235 0.031371042 -0.02110514 0.12350987 0.028490916 -0.043149084 0.062968254

fc3.weight f4 [16, 32]
00000000: 8275 b73d 88e9 09be d82c b1bc 803a 00bd
00000010: 6cb4 ecbd 2003 f6bc d1e4 22be d894 e6bc
00000020: 103d 6c3c e0c3 e9bc 009e a93a 3755 00be
00000030: 1f85 07be 738d 34be 2020 c53b 603a f1bc
00000040: 22d4 9f3d e40d 3bbd 27eb 34be 6b50 103e
00000050: 22b4 bf3d b672 e23d 3377 90bd c90b adbd
00000060: 8943 1e3e 386d f7bd e8d6 efbc 00a0 6f3a
00000070: c0c7 253d 4e94 e83d c819 d13c 40d6 1ebc
00000080: a2cf 9b3d 1f2f c2bd 00c2 b639 a0bf 5c3c
00000090: 55f9 333e 1870 39bd 00c5 41bb 36e1 fdbd
000000a0: 71d7 033e 4e95 a93d 70fb fabc f581 ebbd
000000b0: 9647 9e3d e42a 1fbe a082 c23c 0006 c03a
000000c0: 9c8e 503d 7426 c3bd 2a1d 21be a215 a03d
000000d0: 9f98 d3bd 5b56 203e 8286 be3d d0f8 ecbc
000000e0: 56c3 a33d d60d 5abd 5278 e63d 8bb4 32be
000000f0: 10d7 edbd 80bb 65bc 344b 263d 8262 b23d
00000100: 5659 b1bd c2e0 83bd c700 edbd 4cc4 133d
00000110: 44f5 343d 261a f83d b9b0 2f3e b6c0 fa3d
00000120: b15f 20be fb89 0a3e 4432 64bd 2000 b0bb
00000130: d007 64bc 46ac d13d 323a 31be 2544 2cbe
00000140: d047 e7bc 9056 28bd 73a9 253e 861e 9d3d
00000150: 7c45 e3bd ce59 fb3d b02b 273c db49 2fbe
00000160: a733 1b3e 98bf 99bd b74c 293e 7099 39bc
00000170: 5a9b e93d 0ded 183e 1f79 12be 2bf7 0d3e
00000180: c3ab bbbd 48ed d93c 219f 0b3e 8057 4cbb
00000190: 2c7b 3abd 022d b93d 9e12 65bd 50c5 7b3c
000001a0: abf3 253e 7091 3abc 74a0 513d b95f ecbd
000001b0: 9292 74bd a09c 43bc 1f5a c0bd f84b d4bc
000001c0: d0eb 863d 08a3 853c 3c77 873d 613a 0bbe
000001d0: d29f c73d a8c9 bebd baf0 b63d 00ac 6639
000001e0: aa14 d43d 4eb5 ad3d c67e d53d 361f 06be
000001f0: 681c 1dbe 3124 0b3e 19a7 083e f8d0 27be
00000200: 206c e13c 8d50 03be 2ec3 bd3d 86c7 a03d
00000210: 5854 74bd 7d91 173e 00a7 39bb 4708 0e3e
00000220: 72d3 0cbe e000 043c 90f8 e2bc 467f fbbd
00000230: 4c0a 08be e05c a2bc 7581 093e 809d 2cbe
00000240: fad0 b63d 8129 053e f871 37bd 9c03 413d
00000250: c01f 47bd 192a 143e 388f 22be 1ce5 1bbd
00000260: c0a6 c7bd 8b2d 1f3e 0ce5 493d f8b0 753d
00000270: 5f43 333e aad7 96bd 8c0e 7c3d 58a9 eebc
00000280: 8cfd 773d e011 e9bb 9506 ecbd e416 143d
00000290: 215a 26be 809a 9b3c 7fb6 b8bd a7b8 043e
000002a0: 1e48 ca3d 7fd6 28be 6a7e f3bd ae69 c73d
000002b0: e096 2ebd 0347 86bd 59e9 193e ee97 ae3d
000002c0: b8dd e1bc 1a65 9d3d 104c f53c 60ac 4abd
000002d0: 43c4 adbd 86b2 fe3d b075 92bc 20c5 873c
000002e0: 60c3 69bd bedd e03d 4be4 98bd 7fb4 033e
000002f0: 6a02 e63d c0f2 513b 5268 c53d 0d2a b5bd
00000300: 6c0f 3a3d a79e 0b3e c85a 44bd 4f9d 283e
00000310: dc70 2b3d 38cc d23c ae18 02be 01ef 25be
00000320: 2222 61bd 36eb 9d3d 1d48 2e3e 14d5 f5bd
00000330: c8dc f6bc 2fd5 343e 48eb 3e3d f1cf bcbd
00000340: d2f5 893d 2a59 a33d 8316 11be 3f10 9fbd
00000350: 000a 013b c0d3 e0bc 3888 a8bc 50d9 59bc
00000360: c8b2 083d 7ae0 c7bd 40c6 243d b5ab 1f3e
00000370: e91a abbd b04c 003d 7ea5 8a3d 7af2 14be
00000380: 81d1 2b3e 2e02 ae3d dba0 1dbe 4e97 e13d
00000390: fe9a 9a3d 822b c23d 0039 723c 9bed 14be
000003a0: f843 f7bd 4a3b fb3d 5af5 2bbe c319 083e
000003b0: 0a68 c63d 9455 193d 5590 2e3e c84c 13bd
000003c0: 6ff8 003e c0c7 4ebb b71d 0f3e 9290 d03d
000003d0: a044 823b be96 a63d c8a1 6d3d ca70 af3d
000003e0: a561 143e 20fd e4bc 2839 883d 90f4 123c
000003f0: 88eb e2bc e3a2 2b3e e994 213e 4211 f23d
0.0895796 -0.13467991 -0.021627828 -0.03130579 -0.1155785 -0.030030787 -0.15907599 -0.028147146
0.014418855 -0.028535783 0.0012940764 -0.12532507 -0.13234375 -0.17632084 0.0060157925 -0.02944678
0.07804133 -0.045667544 -0.17667829 0.14093177 0.093605295 0.110570356 -0.070539854 -0.084495135
0.1545545 -0.12081379 -0.02927728 0.00091409683 0.0404737 0.11356412 0.025524989 -0.009694636
0.07607962 -0.09481644 0.00034858286 0.013473421 0.17575581 -0.045272917 -0.0029566884 -0.12396471
0.12875153 0.08280431 -0.030637473 -0.11499397 0.07728498 -0.15543705 0.023743927 0.0014650226
0.050917253 -0.09528819 -0.15733781 0.07816626 -0.103318445 0.15657942 0.09302999 -0.028927237
0.07996242 -0.05323585 0.11253418 -0.17451684 -0.116132855 -0.014021754 0.040599063 0.08710195
-0.086596176 -0.064393535 -0.11572414 0.036075875 0.044179216 0.121143624 0.17157258 0.12243788
-0.15661503 0.13529198 -0.055712 -0.0053711087 -0.013917878 0.10237937 -0.17307356 -0.1682287
-0.028232485 -0.041098177 0.16177921 0.076718375 -0.110972375 0.12272988 0.010203287 -0.17118017
0.15156423 -0.07507247 0.1653317 -0.011328086 0.11406584 0.14934178 -0.14304017 0.13863818
-0.0916362 0.026602402 0.13634922 -0.0031180084 -0.045527622 0.09041788 -0.055925958 0.015366867
0.16206233 -0.011387214 0.05117841 -0.11541695 -0.059710093 -0.011939198 -0.09392189 -0.025915131
0.065879464 0.01631309 0.06614539 -0.13596489 0.0974728 -0.093158066 0.08932634 0.00021998584
0.10355504 0.08481847 0.10424571 -0.13097844 -0.15342867 0.13588025 0.13344993 -0.16388309
0.027517378 -0.12823696 0.09265743 0.07850556 -0.05965075 0.14801593 -0.00283283 0.13870345
-0.13752535 0.008056849 -0.027706414 -0.12280135 -0.13285178 -0.019819677 0.1342829 -0.16856956
0.08926578 0.13004114 -0.044786423 0.047122583 -0.048614264 0.14469184 -0.15874946 -0.038060293
-0.09748602 0.15544717 0.0492907 0.059983224 0.17506169 -0.073653534 0.06153731 -0.029133484
0.060544536 -0.0071127266 -0.11524693 0.036154643 -0.16245319 0.01899457 -0.09019183 0.12961064
0.098770365 -0.16488074 -0.11889346 0.09736954 -0.042624354 -0.06556513 0.15030421 0.08525072
-0.027571544 0.07685299 0.029943496 -0.049480796 -0.084846996 0.124363944 -0.017878383 0.016573489
-0.05707109 0.10979794 -0.074654184 0.12861823 0.11230929 0.003203556 0.09639038 -0.08845911
0.045424864 0.1363474 -0.04793814 0.16466258 0.041855678 0.025732145 -0.12704727 -0.16204454
-0.054964192 0.077108786 0.17019697 -0.12003532 -0.030134574 0.17659448 0.0466111 -0.09219349
0.0673634 0.07975991 -0.14168744 -0.077667706 0.0019689798 -0.02744472 -0.020572767 -0.01329644
0.033373624 -0.097596124 0.04022813 0.15592845 -0.08354742 0.031323135 0.067698464 -0.14545622
0.16779138 0.084965095 -0.15393393 0.11015187 0.07549094 0.09480955 0.014784098 -0.14543764
-0.12073511 0.12267168 -0.16792813 0.13291077 0.096878126 0.03743513 0.17047246 -0.035961896
0.1259477 -0.0031552166 0.13976179 0.101838246 0.003975466 0.081342205 0.058015615 0.08566435
0.14490373 -0.02795273 0.06651527 0.008969441 -0.0277002 0.16761355 0.15779461 0.11819698

fc3.bias f4 [16]
00000000: 5f02 1f3e e473 97bd b429 a1bd 5956 313e
00000010: fbf5 1a3e 20ea 8bbc b66a be3d 80f2 e63a
00000020: 606b 09bd b17d 343e 332a cdbd 6bb9 0f3e
00000030: 6bf6 1e3e f825 f3bd 006d f33c 391a 1dbe
0.15528248 -0.07395151 -0.07869282 0.17318095 0.15132897 -0.017079413 0.09297697 0.0017619878
-0.033549666 0.17626072 -0.100178145 0.14035575 0.15523688 -0.11872476 0.029715061 -0.15342034

fc4.weight f4 [1, 16]
00000000: bedc 2b3e 08be 433d 5881 763e 606d 983d
00000010: d46e e4bd e238 283e ec70 ca3d aa5f 5a3e
00000020: 985f 02be 74e2 5dbe 2ed8 71be e01e e6bc
00000030: 3204 13be 0835 533e 0820 093e 2c49 0abe
0.16783425 0.04778865 0.24072778 0.074427366 -0.11153951 0.16427949 0.098848194 0.21325555
-0.12731779 -0.21668416 -0.23617622 -0.028090894 -0.14357069 0.20625699 0.13391125 -0.13504475
