obsolete/training/models/deep_agent_episode_25.pth (torch, 17041 bytes, 7 tensors)

fc1.weight f4 [64, 10]
000000 ae 32 3c 3e 84 52 80 3d 90 22 b1 3d 95 2f 56 be
       0.18378708 0.062657386 0.086491704 -0.20916589
000010 4a d5 8d bd fd 39 2e be 68 79 5f 3d f3 54 96 be
       -0.06925447 -0.17014308 0.05455914 -0.29361686
000020 54 4c 78 be ee 84 15 be 42 05 41 be 14 20 06 be
       -0.24247867 -0.1460149 -0.18849662 -0.13098174
000030 05 70 96 3e 2a ef e1 bd 00 57 3a 3d 74 f9 98 be
       0.2938234 -0.11031945 0.045493126 -0.29877818
000040 52 5c 9b be 3a 75 54 be c2 0f 9f bd 10 a9 77 bd
       -0.30343872 -0.20747843 -0.077666774 -0.060463965
000050 4a de 94 be 5c f1 a1 3d 00 56 67 3c 2a da 6b 3e
       -0.29075843 0.07907364 0.014119625 0.23032442
000060 82 d3 9c be 80 11 2f bd e0 ec 6c bd 34 7f c8 3d
       -0.30630118 -0.0427413 -0.05784309 0.09789887
000070 70 e9 09 3d 00 49 7b 3d 74 ad 94 bd 28 72 a7 bd
       0.03366989 0.061348915 -0.07259646 -0.081760705
000080 96 cd 5e be e2 14 64 3e dc 2f 0e be f6 bd 0c 3e
       -0.21758112 0.22273591 -0.13885444 0.1374434
000090 71 23 9d be ec bd 3f be 60 83 47 3c e7 6c 81 be
       -0.30691102 -0.18724793 0.012177318 -0.25278398
0000a0 01 96 8d 3e 29 2c 8c 3e 00 8c 70 ba 04 83 51 be
       0.27653506 0.27377442 -0.0009176135 -0.20460135
0000b0 6b 2e 83 3e 99 99 73 be d8 01 38 bd a0 8e ef bd
       0.25621352 -0.23789062 -0.044923633 -0.116971254
0000c0 10 b4 b8 bc 1b b8 a0 3e 60 d8 1d 3d 30 97 18 bd
       -0.022546798 0.3139046 0.03853643 -0.03725356
0000d0 20 30 24 3e 10 58 34 3d e8 97 6f 3d 18 34 14 bd
       0.16033983 0.044029295 0.05849448 -0.036182493
0000e0 00 60 ab 3d 80 57 71 bd 2c 0a c3 3d 5a 87 17 be
       0.0836792 -0.058921337 0.095234245 -0.14797726
0000f0 e6 c5 23 3e 20 f6 18 3d b8 d1 13 3d 00 67 70 3c
       0.15993461 0.037344098 0.036088675 0.014672995
000100 f8 9f 9d 3d c2 c1 e0 bd 4b 8d 44 be 34 58 f4 3d
       0.07696527 -0.10974456 -0.19194524 0.11930886
000110 e4 e4 a1 3d 18 4f fe 3d 06 3f 2d be 96 1e 55 3e
       0.079049855 0.1241743 -0.16918573 0.20812449
000120 40 08 88 3c c0 a8 6d bd 00 99 4a bd fe 57 52 be
       0.016605496 -0.05802226 -0.04946232 -0.20541379
000130 80 cd 3f bd b8 9b 5f 3d e2 b7 a1 bd 56 de 98 be
       -0.04682684 0.054591864 -0.07896401 -0.2985713
000140 b2 e5 77 be a8 ea cb 3d c5 78 91 3e 62 71 9a bd
       -0.24208716 0.099568665 0.28412452 -0.07541157
000150 74 53 8b 3d 60 e1 1b bc 03 d1 81 3e 30 d1 4d be
       0.06803027 -0.009514183 0.25354776 -0.2009933
000160 46 1a d9 bd 63 2c 18 be a1 ef 05 be 5d ed 81 3e
       -0.106007144 -0.14860682 -0.13079692 0.25376406
000170 78 30 51 be 60 f0 3f 3c 30 69 b5 bc b8 0a b9 bd
       -0.20428646 0.011715025 -0.022144884 -0.090352476
000180 24 f1 15 be ae 65 52 3e 18 d1 41 bd 20 5b ed bd
       -0.14642769 0.205466 -0.047318548 -0.11589646
000190 10 d1 08 3e 02 44 75 be e8 b1 9d be 00 a9 8a 3b
       0.13361001 -0.23951724 -0.30799794 0.004231572
0001a0 a0 fb e1 3c 5e 48 4a 3e d6 ba 4e 3e bf 32 97 be
       0.027585804 0.19754168 0.2018846 -0.29530904
0001b0 80 d0 dd 3b 38 2f 5a 3d 00 3e 62 ba 08 5c 8f 3d
       0.00676924 0.053267688 -0.00086304545 0.069999754
0001c0 12 8b 8f be ed d5 1f be b8 99 cd 3d 40 0b 16 bc
       -0.2803579 -0.1560895 0.10039085 -0.009157956
0001d0 7e 41 1a 3e d0 df 89 be 45 55 05 be a8 bf d9 3d
       0.15064046 -0.26928568 -0.13020809 0.10632259
0001e0 20 95 b6 3c f0 39 8e be c5 0b 8c 3e a6 1f dc bd
       0.022287905 -0.27778578 0.2735273 -0.10748224
0001f0 6c 80 b3 bd a4 e1 ca bd 88 24 47 3d 56 b2 7e 3e
       -0.08764729 -0.09906319 0.048618823 0.24872717
000200 f0 2b 11 3e 70 52 9d bc 68 d1 91 bd 76 a9 72 3e
       0.14176917 -0.019204348 -0.07120019 0.23697457
000210 b4 5e 9a be f8 ae 02 3e 96 52 1b 3e e0 0b ba bc
       -0.30150378 0.12762058 0.15168223 -0.02271074
000220 e6 39 91 be 28 fe dc bd ac 11 72 be 2b ff 0b be
       -0.28364486 -0.10790664 -0.23639554 -0.13671558
000230 5e 15 4a be 58 ac d0 3d 28 f0 59 3d 06 2f 4c 3e
       -0.19734713 0.10189122 0.053207546 0.19939813
000240 26 e3 54 3e 80 e6 65 3d 91 35 8a 3e a4 a6 10 3e
       0.20789775 0.056128025 0.26993993 0.14126068
000250 c4 22 2c be 1c ea 9b 3d 8e d0 2b 3e 93 c0 a0 3e
       -0.16810137 0.07613012 0.16778776 0.31396922
000260 7a a7 40 3e c5 60 45 be ba be 7b 3e 72 dc 5c 3e
       0.18813887 -0.19275196 0.24584475 0.21568468
000270 9c d8 ad bd 24 7c ab bd bc 4e da bd 60 df b1 bd
       -0.084885806 -0.08373287 -0.10659549 -0.086851835
000280 65 90 87 be f4 d9 83 be d7 d7 89 be 00 14 4b bb
       -0.26477352 -0.25752223 -0.26922485 -0.0030987263
000290 37 f6 33 be 76 35 8e be b2 a1 85 be 96 2b e5 bd
       -0.17574392 -0.27775162 -0.26099926 -0.11189954
0002a0 10 ae 11 be 05 a2 92 3e 79 13 98 3e c0 d4 fd bd
       -0.14226556 0.28639236 0.29702356 -0.123940945
0002b0 82 a5 5a 3e b7 ff 8f 3e 00 84 b1 3c de 14 5a 3e
       0.21352199 0.28124782 0.021669388 0.21297023
0002c0 a8 ef 74 bd 60 27 45 bc 98 8c 17 3d be 50 65 3e
       -0.059798867 -0.0120333135 0.036999315 0.22394082
0002d0 60 8f 56 bd 10 54 bf bc 17 2a 0e be 90 6a 08 be
       -0.052382827 -0.023355514 -0.13883244 -0.133219
0002e0 cc 07 39 3e 62 27 83 be c2 9f d2 bd 47 d4 83 be
       0.1806938 -0.25615984 -0.10284378 -0.25747892
0002f0 80 87 96 bb 62 00 21 3e c0 d0 69 bc 70 c9 14 bd
       -0.0045937896 0.15722802 -0.014270961 -0.03632492
000300 2e 0c 47 3e 70 af 07 3e a0 a0 8c be 76 38 63 3e
       0.1943824 0.13250518 -0.27466297 0.22189507
000310 70 58 d4 3c 6e 38 2b 3e 8e 1e 86 be a6 5a 4a 3e
       0.025921077 0.16720745 -0.26195186 0.19761142
000320 90 ef 7b be 29 77 93 3e 6e c0 5d 3e 12 92 68 be
       -0.24603105 0.2880185 0.21655437 -0.22711971
000330 40 15 27 bd 01 e1 99 3e a4 05 1d 3e 80 ea 5f be
       -0.04079175 0.30054477 0.15334183 -0.21866798
000340 7e ef af bd 5f be 83 3e 12 de 53 be b0 d8 ca 3d
       -0.085906014 0.2573118 -0.20690182 0.09904611
000350 38 ce 8d 3d 01 22 93 3e a0 a9 6e be c2 06 86 be
       0.06924099 0.2873688 -0.23306894 -0.2617703
000360 df 3f a0 3e bf cd 88 3e 44 36 9c bd 1e 26 96 be
       0.3129873 0.26719472 -0.07627538 -0.29325956
000370 20 a7 d4 3d 97 15 9d 3e 60 e5 51 3d 67 6f 9d 3e
       0.10383439 0.30680534 0.05124414 0.30749056
000380 00 50 fa 39 af fb 90 3e 74 c1 0c 3e d2 ff 6b 3e
       0.0004774332 0.2831702 0.13745672 0.23046806
000390 f8 2e 3c be e1 72 9e 3e 96 56 5c be d7 20 23 be
       -0.18377292 0.3094702 -0.21517405 -0.15930496
0003a0 e0 ae 29 bd 83 cb 04 be c0 74 03 3d 98 71 0f 3d
       -0.04142654 -0.12968259 0.032093763 0.03502044
0003b0 80 21 41 bd f0 4f bb 3c 04 e7 08 3e 1a 8a e9 bd
       -0.04715109 0.022865266 0.13369375 -0.11403294
0003c0 f7 60 1e be 6e d1 71 be c4 42 20 3e c0 bb bc bd
       -0.15466677 -0.23615047 0.15650469 -0.09215498
0003d0 80 e8 d1 bb 1e 63 4c 3e a6 ce a6 bd b6 f8 64 3e
       -0.00640589 0.19959685 -0.08144884 0.223605
0003e0 06 be 92 bd d0 c0 69 3d 8c 65 97 be 67 80 95 3e
       -0.0716515 0.057068646 -0.29569662 0.29199526
0003f0 78 14 21 3e a6 a7 10 3e e0 ad 93 3d 6c db 98 3d
       0.15730464 0.14126453 0.072108984 0.074637264

fc1.bias f4 [64]
000000 e0 d0 3c bd 98 c9 25 bd ed f6 75 be c0 32 be 3c
       -0.046097636 -0.040475458 -0.24019976 0.023217559
000010 50 20 27 3e 28 5b a2 bd 72 1c a1 be d6 29 81 be
       0.1632092 -0.07927543 -0.31467015 -0.2522723
000020 9c 3b d5 bd bf 2f 87 3e 4e 86 f2 bd 8e 6c 29 be
       -0.1041176 0.26403615 -0.11842023 -0.16545317
000030 b0 67 48 bd e0 19 e1 3d 18 a7 bd 3d 4e d6 31 be
       -0.04892701 0.109912634 0.09260386 -0.17366907
000040 e6 ef ab bd 80 77 de bc 44 dd 87 be c8 36 55 be
       -0.08395366 -0.027156591 -0.26536 -0.20821679
000050 2e 43 77 3e 5e fa 96 bd d7 0d 03 be b3 08 90 3e
       0.24146721 -0.073719725 -0.12798248 0.28131637
000060 31 1a 83 3e 6e 82 54 3e 88 8c 34 be 1a 2d 7d 3e
       0.2560592 0.2075288 -0.17631733 0.24724236
000070 96 ca 96 be 00 5d cd bc 88 60 5f be 70 e8 57 3d
       -0.29451436 -0.02506876 -0.21814167 0.052711904
000080 d2 5c 4c 3e 80 70 29 3c 18 ce 53 be d9 8b 74 be
       0.19957283 0.0103417635 -0.20684087 -0.23881473
000090 90 54 b6 3c 42 71 6d 3e 9e b7 75 3e 92 17 7f 3e
       0.02225712 0.23187736 0.23995826 0.24911335
0000a0 e6 e9 62 3e 4e 4d 99 bd da 01 23 3e 0a 71 18 3e
       0.22159538 -0.07485448 0.15918675 0.14886871
0000b0 72 f7 7e be b1 83 91 3e 56 77 8a be 38 58 f2 3d
       -0.2489908 0.28420785 -0.2704417 0.11833233
0000c0 46 fe 00 3e 16 ad 92 bd e6 72 55 3e 47 82 91 3e
       0.12596998 -0.0716192 0.20844612 0.28419706
0000d0 5c 77 b2 3d a6 d8 f3 bd 30 43 65 3d d8 e7 00 bd
       0.08714172 -0.11906557 0.055972278 -0.031471103
0000e0 51 57 12 be 26 3c 34 3e 69 b5 89 3e 60 40 06 3e
       -0.14291121 0.1760107 0.26896217 0.13110495
0000f0 db cc 96 3e 36 c0 09 3e c0 70 0d bd c0 f3 3e 3d
       0.29453167 0.13452229 -0.034531355 0.046619177

fc2.weight f4 [32, 64]
000000 f4 6a de 3d 70 b2 55 3c 90 08 08 3d 00 08 fe bd
       0.108602434 0.013043031 0.03321129 -0.1240387
000010 00 9b 77 3d a0 3a 9e 3d 9c 4a fe bd 68 51 d3 3c
       0.060450554 0.077260256 -0.12416574 0.025795653
000020 00 74 9a 39 5e 9a e0 bd 8c 4f 7e 3d 9e 66 a9 3d
       0.00029459596 -0.10966943 0.06208758 0.08271526
000030 bc 9c aa 3d aa 60 ba bd 26 2f 9b bd c4 a9 69 bd
       0.08330676 -0.091004685 -0.07577352 -0.057046667
000040 cc bc d2 3d 3e a6 84 bd 00 2c f0 3d 14 8c 6e 3d
       0.102899164 -0.06477021 0.11727142 0.058239058
000050 62 1f df bd 32 64 f2 3d e2 ab ad 3d 60 e6 28 bd
       -0.10894658 0.11835517 0.0848005 -0.041235328
000060 00 c8 b1 3d fe 23 bb bd 0e ac a2 bd 04 34 27 bd
       0.08680725 -0.09137724 -0.07942973 -0.04082109
000070 40 55 ae 3d c8 8b a5 3d 64 1c df 3d 00 35 29 bb
       0.08512354 0.08083302 0.10894087 -0.0025818944
000080 e8 f1 e7 bc 12 0c de bd 88 ec 68 3d 20 41 42 3d
       -0.028313592 -0.10842146 0.0568662 0.04742539
000090 94 25 a6 bd c2 0b aa bd 40 cc da bd 68 6a dd bd
       -0.08112636 -0.08303024 -0.10683489 -0.10811311
0000a0 98 25 d2 bd 04 64 b4 bd e0 71 16 bd 58 75 59 3d
       -0.10261077 -0.08808139 -0.036729693 0.053090423
0000b0 6e 38 bc bd f4 2b 7a 3d ce 6d f1 bd b8 eb b9 bd
       -0.091904506 0.061077073 -0.11788522 -0.09078163
0000c0 f0 4a 0e bd 16 77 be 3d e0 b5 13 3c 0e 71 e8 bd
       -0.034739435 0.093000576 0.00901553 -0.113496885
0000d0 04 bd 67 bd 74 21 8c 3d 60 23 27 bd dc 10 ae bd
       -0.056576744 0.06842318 -0.04080522 -0.084993094
0000e0 1c b9 db bd 44 f1 2f 3d 7c e5 6e bd 88 a7 fd 3c
       -0.10728666 0.0429547 -0.058324322 0.030963674
0000f0 58 b3 22 3d 54 66 1b bd 30 9a 94 bd 54 c5 54 3d
       0.039721817 -0.037939385 -0.072559714 0.051946
000100 6e 30 d4 bd 40 06 4f bb d2 89 86 3d f0 59 44 bc
       -0.103608 -0.0031589419 0.06569256 -0.011984333
000110 c2 6c dd bd 30 6c 45 bc 64 2b 23 3d 7c c6 62 bd
       -0.108117595 -0.01204972 0.039836302 -0.05536507
000120 74 f6 5f bd 00 d4 61 3d 38 ac 51 3d 94 07 e0 bd
       -0.054678395 0.05513382 0.05118963 -0.109389454
000130 3c 26 89 3d 20 60 f0 3c c6 08 b9 3d ec af d4 3d
       0.06696746 0.029342711 0.090348765 0.10385117
000140 18 73 d1 3c 6c 84 fa bd 36 92 80 3d f8 54 61 3d
       0.025567576 -0.12232289 0.062778875 0.055012673
000150 90 5e dd 3c 32 c2 97 3d d8 b7 f6 3c b8 f3 b9 3c
       0.02702263 0.07410087 0.03011696 0.022699222
000160 30 26 58 3c b6 30 ca bd a0 cc 0f 3d b8 6d 6d bd
       0.013192698 -0.09872572 0.035107255 -0.057965964
000170 00 c0 a7 bd 60 08 12 3d f8 d0 e0 bc b0 31 55 bc
       -0.08190918 0.03565252 -0.027443394 -0.013012335
000180 30 84 a0 bc 94 bf cf bd 54 b8 2c bd 7c a9 3a 3d
       -0.019594282 -0.101439625 -0.042167976 0.04557179
000190 10 7e 8a bc f6 b3 8c 3d c0 a6 74 3d ec 83 b7 bd
       -0.016905814 0.06870262 0.059729338 -0.08960709
0001a0 98 da cd bc 64 6f d1 bd d0 07 1c bd 0a 5a a6 3d
       -0.025128648 -0.10226324 -0.038093388 0.08122642
0001b0 ca 45 86 bd e6 20 ac bd fe bd 98 bd 00 d8 0a 3c
       -0.0655628 -0.084047124 -0.07458113 0.00847435
0001c0 08 d4 c0 3c c6 b6 e9 3d 86 18 b6 3d 0c f0 36 3d
       0.023538604 0.114118144 0.08891396 0.04466252
0001d0 86 fa bc bd e8 87 6e 3d 50 52 74 bc 5c 11 f8 bd
       -0.09227471 0.05823508 -0.014912203 -0.12112686
0001e0 9c e1 22 3d 58 cc cb bc e0 f6 3b 3d d4 77 ac bd
       0.03976594 -0.024877712 0.045889735 -0.08421293
0001f0 30 05 7d bd 58 cd c9 3d 7c b3 6f bd ac 51 2b 3d
       -0.061772525 0.09853619 -0.05852078 0.041825935
000200 68 fc 59 3d 64 25 69 bd 0a 51 d6 bd 8c f9 d5 3d
       0.05321923 -0.056920424 -0.10464676 0.10447988
000210 f0 af c8 3c 60 fd 3e 3d c2 50 cc 3d 20 7d 2f 3d
       0.024497956 0.046628356 0.09976341 0.042843938
000220 f4 76 38 bd bc d7 e1 bd 24 67 04 3d 50 29 ec bd
       -0.045035318 -0.11027476 0.032324925 -0.11531317
000230 6c 19 3d 3d 7c 8f 1b 3d 2c 14 27 bd 1a e6 bb bd
       0.046166822 0.037978634 -0.04079072 -0.09174748
000240 f0 3f 56 3c ac 50 cf bd 22 ae 89 3d 48 30 ba bd
       0.013076767 -0.10122809 0.06722666 -0.0909124
000250 f0 68 cb 3c 22 12 eb 3d c4 12 58 3d 00 b0 93 3c
       0.024830312 0.11478068 0.05275227 0.01802826
000260 18 1e a5 3d 80 fc 32 bb 36 64 c1 3d 40 62 07 3d
       0.080623806 -0.0027311146 0.09442942 0.033052683
000270 34 56 31 bd 14 54 38 3d be 04 99 bd 5c 48 81 bd
       -0.0432951 0.04500206 -0.074716076 -0.063126296
000280 40 43 5f bb 2e 3a a1 3d e2 8d 8d bd 10 05 b1 bc
       -0.0034067184 0.07872425 -0.069118276 -0.02160886
000290 80 76 26 3b 5c c6 34 3d 2c 02 05 bd 28 70 9f 3d
       0.0025400221 0.044134483 -0.032472774 0.07785064
0002a0 02 9c a5 3d 80 6f 4a bd c0 89 3a bb 6c 36 68 bd
       0.08086397 -0.04942274 -0.0028463453 -0.056692526
0002b0 d8 b4 fa 3c 70 33 20 3c a2 d3 80 3d 02 a2 94 3d
       0.030603811 0.009777889 0.06290366 0.07257463
0002c0 90 30 43 bc a2 04 e2 bd e0 ef 7a 3c 2a 23 f4 3d
       -0.011913434 -0.1103604 0.01531598 0.119207695
0002d0 04 84 d1 3d ee 79 d9 bd 10 c9 d7 3c 68 a8 5a 3d
       0.10230258 -0.10618959 0.026340991 0.05338326
0002e0 6c 76 4f 3d 00 9a 1d 3d f4 07 00 bd 80 32 fb bd
       0.050650045 0.038476944 -0.031257585 -0.122654915
0002f0 d0 b7 f9 bd c0 68 c0 bc a0 b5 dd bb 54 cb 56 3d
       -0.121932626 -0.023487449 -0.006766036 0.052440003
000300 70 4f 4c bc 3c dd 3d 3d d0 8a 4b 3d fa 56 c4 3d
       -0.012470111 0.046353564 0.04969293 0.09586902
000310 20 48 d1 bd 6a 6c c1 bd 88 b6 bb bc 20 fb a9 3c
       -0.10218835 -0.094445065 -0.022914186 0.020749629
000320 ea 5b 9d 3d dc 96 d2 3d 94 e7 aa 3d 7c ec 6a 3d
       0.07683547 0.102826804 0.08344951 0.057354435
000330 56 c4 9c 3d d8 0d 9c 3c 4a 24 f4 3d f0 04 34 bc
       0.076546356 0.01904957 0.11920984 -0.010987505
000340 58 18 fc bc 58 6b 23 bd f6 23 bb 3d 22 fb c8 3d
       -0.030773327 -0.039897293 0.091377184 0.09813525
000350 80 bc d7 ba 66 d7 82 3d a8 86 a3 3c 78 46 40 3d
       -0.0016459376 0.0638874 0.01996167 0.046942204
000360 70 30 7b bc 08 15 ac 3d 70 3b 3e bc d4 06 1f bd
       -0.015331373 0.08402449 -0.011610851 -0.03882487
000370 40 33 85 3d cc 29 55 3d c4 66 43 3d 92 d3 a3 3d
       0.06503916 0.052041814 0.047705427 0.07999338
000380 b0 f7 6f 3d d0 21 37 3c f8 df b8 3c 60 61 55 3d
       0.058585823 0.011177495 0.022567734 0.052094817
000390 f8 97 ce bc 48 4f da bd 48 93 fd 3c d8 2f c9 bd
       -0.025218949 -0.10659653 0.030954018 -0.098235786
0003a0 b6 6c 9b 3d 88 48 c3 bd a0 46 eb 3c 70 d1 46 3c
       0.07589094 -0.095353186 0.0287202 0.012134895
0003b0 90 ab 9e 3d f8 ea 8c 3c 98 1c c1 bd 64 f5 c3 bd
       0.07747567 0.017201886 -0.09429282 -0.09568289
0003c0 c4 49 2f 3d 42 b5 b7 3d a8 7c bc 3c 38 77 b3 bd
       0.042794958 0.08970119 0.02300866 -0.087629735
0003d0 92 aa 8f bd 0e 5d e2 bd 1c 92 de bd 0c 3c 0d bd
       -0.070149556 -0.11052905 -0.10867712 -0.034481093
0003e0 e0 2c 5c 3c 40 85 3c bc 64 73 22 bd 30 bb 92 bd
       0.013438433 -0.011506379 -0.039660826 -0.071646094
0003f0 e6 a7 8b bd 00 d3 31 bb 00 c9 e4 3c 1c 10 f0 bd
       -0.068191335 -0.0027133822 0.027927876 -0.117218226

fc2.bias f4 [32]
000000 c0 04 99 bc 70 d2 ac bc f4 03 3f bd f4 8f d1 bd
       -0.018679023 -0.021096438 -0.04663463 -0.10232535
000010 de 22 89 3d 90 3e aa bc 66 ec a8 bd a8 00 88 3d
       0.066961035 -0.020781785 -0.082482144 0.0664075
000020 3c 4e bf 3d d0 2b 98 3d 3c 3b 9b bd e4 39 60 3d
       0.09341094 0.074302316 -0.075796574 0.05474271
000030 30 52 af bc 50 d4 e7 bd 40 d9 9c bb 10 81 04 3d
       -0.021401495 -0.11319792 -0.0047866404 0.032349646
000040 e0 00 d0 3c d8 a6 bb bc 40 af f2 bc b4 d5 b1 bd
       0.025391042 -0.022906706 -0.029624581 -0.08683339
000050 2c 1b 0f 3d 36 33 c1 bd 88 e1 de bc a4 7b 6c bd
       0.034938022 -0.09433596 -0.027207151 -0.0577351
000060 72 eb b7 3d da 4a e1 bd 00 bc 74 bd 08 36 a8 bc
       0.089804545 -0.11000605 -0.059749603 -0.020533577
000070 d6 d5 9a 3d 86 d9 89 3d 04 79 36 bd a4 ee 07 bd
       0.07560317 0.067309424 -0.044549003 -0.03318657

fc3.weight f4 [16, 32]
000000 fa 81 b7 bd a6 03 e0 3d c0 8f fc bb 2e c5 97 3d
       -0.08960338 0.10938196 -0.007707566 0.07410656
000010 20 48 d4 bb b8 f6 0f 3d 0c 98 25 3d 78 12 58 3d
       -0.0064783245 0.0351474 0.040428206 0.05275199
000020 70 b1 27 bc 9f d4 2a be 01 ca 11 3e f0 43 73 3d
       -0.0102351755 -0.16682671 0.14237215 0.059390962
000030 44 8b 2c be 72 3f fc bd 40 b6 0c 3d 94 bd 37 3d
       -0.1685 -0.12316789 0.034353495 0.04485853
000040 3b 8e 30 be b7 82 16 3e 36 d6 f2 3d 16 26 e8 3d
       -0.17241757 0.14698301 0.11857264 0.11335389
000050 2e ce 2a be 12 ed b3 3d 88 db 45 3d be d2 e9 bd
       -0.16680214 0.08785452 0.048305064 -0.11417149
000060 50 1d c3 3c d8 92 c4 bc b3 c3 0a 3e 00 dd 17 bc
       0.023817688 -0.023995802 0.13551216 -0.009268999
000070 be 0d d8 3d 08 8a 4d 3d 0e d8 fa bd da ee d9 3d
       0.10549496 0.050180465 -0.122482404 0.106412604
000080 70 f2 4d bd 00 d1 1e ba 8f 23 15 3e 76 7f 0d be
       -0.050280035 -0.0006058365 0.14564346 -0.13818154
000090 37 65 1c 3e 58 89 4d 3d 16 70 d2 3d b2 f5 ec bd
       0.15272985 0.05017981 0.10275285 -0.115703
0000a0 24 b1 15 3d 90 c7 c3 bd 4b c4 06 3e 90 b9 c2 3c
       0.036545888 -0.09559548 0.13160817 0.023770124
0000b0 cc 05 2e bd 90 26 84 bc c0 9b a8 3b 39 35 30 3e
       -0.042485997 -0.01613167 0.00514552 0.17207803
0000c0 f0 af 7d 3d be bb ae 3d 64 e1 ca bd 36 e2 07 be
       0.061935365 0.08531903 -0.09906271 -0.13269886
0000d0 fb 99 9a bd ad 66 09 3e dc a7 4d bd 98 49 4f 3d
       -0.07548901 0.13418074 -0.05020891 0.050607294
0000e0 58 e6 88 bc 5b 56 2b 3e fb d6 27 3e f8 16 2a 3d
       -0.016711399 0.16732161 0.16390602 0.04152581
0000f0 30 c9 47 bd 14 db 87 bd 8a 29 8b 3d ff cc 25 3e
       -0.04877585 -0.06633583 0.06795032 0.16191481
000100 84 6b 0a be c5 8d 2f 3e a5 1f 97 bd 53 c1 1e 3e
       -0.13517576 0.17143925 -0.073790826 0.15503435
000110 00 51 e8 bb 61 b0 d0 bd b1 3c 0e 3e 4a db af bd
       -0.007089734 -0.101898916 0.1389034 -0.08586748
000120 70 7c 13 be 90 f7 3b bd d1 41 9e bd 80 af 2d 3d
       -0.14402938 -0.04589039 -0.07727397 0.042403698
000130 90 64 74 3d 50 89 34 bc 8c bf 11 bd c5 ac 15 3e
       0.059666216 -0.011019066 -0.035583064 0.14616688
000140 2d 51 03 3e 26 34 bb 3d c5 63 2e 3e 43 40 b6 bd
       0.12823935 0.09140806 0.17030247 -0.08898976
000150 aa 11 ea 3d 86 56 d6 3d 80 fb 26 be a6 09 93 bd
       0.114291504 0.10465722 -0.16306877 -0.07179575
000160 0c d3 d1 bd 38 f6 1e bd e6 9d 2c be 98 52 31 bd
       -0.10245332 -0.03880903 -0.16857108 -0.04329166
000170 cd d7 c8 bd 00 51 41 bc aa fc a9 bd 0a fd c0 3d
       -0.09806786 -0.011799097 -0.08300145 0.09423263
000180 3b ef 33 3e a8 b0 c6 3c 90 1c 97 bd e4 70 d9 bd
       0.17571728 0.024254158 -0.07378495 -0.10617235
000190 2e a6 0f be 40 20 80 3b c0 9b 10 bc 79 82 d0 bd
       -0.14028236 0.0039100945 -0.008826196 -0.10181136
0001a0 a8 c0 32 3d 13 2b 01 be 12 74 0d be 90 a8 16 3d
       0.043640763 -0.12614088 -0.13813809 0.036781847
0001b0 86 fb dd 3d 0a bc f9 3d f8 da 0c 3d a0 db 38 3d
       0.1083899 0.12194069 0.034388512 0.045131326
0001c0 a0 02 23 3c 4b 28 16 3e d8 41 16 be 1a ad 34 be
       0.009949356 0.14663808 -0.14673555 -0.17644158
0001d0 1e 95 bb 3d d2 5b 96 3d d7 da d2 bd 68 ff 0a be
       0.09159301 0.07341732 -0.10295647 -0.13573992
0001e0 15 1f 20 3e 4d 6e 10 3e 1e 5e c9 3d dc f5 78 3d
       0.15636857 0.14104576 0.098324046 0.060781345
0001f0 78 53 1d 3d f0 d8 b3 bd d0 9b ed 3c 48 0b 38 bd
       0.03840968 -0.08781612 0.029004961 -0.044932634
000200 d9 c4 cf bd 6c 8a 4a bd 52 2c da 3d f9 7d 17 3e
       -0.101449676 -0.049448416 0.10652985 0.14794149
000210 8a e7 df 3d 40 6f 69 3c d6 39 ec bd 76 2d c2 3d
       0.109328344 0.0142477155 -0.11534469 0.09481327
000220 1e 83 99 bd e6 90 a8 3d b4 cb 34 3d 2a 29 e4 bd
       -0.07495712 0.08230762 0.04413958 -0.11140664
000230 00 ec 97 bd 32 2e d1 3d 98 81 71 3d d0 4e 12 be
       -0.0741806 0.10213889 0.05896148 -0.14287877
000240 f2 d3 ec 3d 27 d3 31 be 00 1f 46 3d 90 63 2a be
       0.11563863 -0.17365704 0.048369408 -0.16639543
000250 16 5f a9 3d 80 ac eb bc f0 a4 3f 3c 69 36 34 3e
       0.08270089 -0.028768778 0.011697039 0.17598881
000260 74 4f 92 3d d9 17 28 3e 98 7d 7d 3d 31 16 f9 bd
       0.07144061 0.16415347 0.061887354 -0.12162436
000270 de 84 cc 3d 5c 27 0f be 68 f9 cd bd 8d 43 c8 bd
       0.0998628 -0.13979858 -0.10057336 -0.09778509
000280 6e 73 e0 3d b5 72 32 3e a5 c6 2b be 5c 29 07 be
       0.109595165 0.1742657 -0.16774996 -0.13199371
000290 0e 25 a3 3d 34 3a 77 3d 1e 12 8e 3d e2 ad 7c bd
       0.07966052 0.06035824 0.06937049 -0.061689265
0002a0 66 a4 a2 3d 8c ce 15 bd 93 bd 02 be 30 d6 40 3c
       0.07941513 -0.03657393 -0.1276763 0.011769816
0002b0 cb 0d 15 3e 72 1d e0 3d d0 87 eb bd b1 65 1f 3e
       0.14556043 0.10943116 -0.115005136 0.15566136
0002c0 28 e0 a6 3c c0 9a d9 3b be 2e b2 3d c0 b2 a2 bb
       0.020370558 0.006640762 0.087003216 -0.0049651563
0002d0 74 43 8f bd 52 5a 8d 3d 50 44 0c 3c eb d1 06 3e
       -0.069952875 0.06901993 0.008561209 0.13166015
0002e0 32 f8 f1 3d 6c 38 6f 3d be d6 30 be 2a 92 88 3d
       0.118149176 0.058403417 -0.17269418 0.066685036
0002f0 b0 6d 41 3c 00 7b 0d bc b6 f2 8c 3d 68 df 48 3d
       0.011805937 -0.0086352825 0.06882231 0.04904118
000300 6b ff 07 3e 00 84 8f 3a b8 99 08 be 16 2e 17 be
       0.13281028 0.0010949373 -0.13339889 -0.14763674
000310 94 22 53 3d 9e 67 17 be a0 43 94 3c 5a cc b2 3d
       0.05154665 -0.1478562 0.018098652 0.08730383
000320 38 f3 9a bd 92 ae 2e be 50 ca 36 3c 20 0d 52 bd
       -0.075659215 -0.17058781 0.0111566335 -0.05128205
000330 7d a6 12 3e 7e 6b e8 3d 1e 36 bf 3d 69 6e 29 be
       0.14321323 0.113486275 0.09336494 -0.16546024
000340 3a 69 bb bd 9e d8 a1 3d da 9c aa 3d 18 4c 7a bd
       -0.0915093 0.079026446 0.08330698 -0.061107725
000350 e0 61 06 3d be cd ec 3d c8 86 e4 3c ab eb 91 bd
       0.032808185 0.1156268 0.0278963 -0.07125028
000360 10 57 0c bd d2 12 e8 3d 6a be d2 3d f0 48 11 be
       -0.034262717 0.11331715 0.10290225 -0.1418798
000370 50 5e 29 3d 14 18 13 be f2 1f fb 3d 18 08 a9 bd
       0.04134971 -0.14364654 0.122619525 -0.08253497
000380 4e 97 8c 3d 20 55 8f 3c 8e 52 ee 3d a8 78 fd bd
       0.068647966 0.017496645 0.1163684 -0.12376529
000390 82 a0 dd 3d 95 52 33 3e d6 43 b3 3d 2e bc f6 3d
       0.1082163 0.17511971 0.08753173 0.12047611
0003a0 9f 92 01 be 20 21 95 bc 30 53 10 3d cd 91 2d be
       -0.12653588 -0.018204272 0.035235584 -0.1695015
0003b0 32 b4 b5 3d 1b f7 86 bd 04 c1 07 bd 60 fb 4a bd
       0.0887226 -0.065901004 -0.03314306 -0.049556136
0003c0 68 6f 64 3d dd 3e 1a be 10 04 b7 3c 90 68 ec bd
       0.055770308 -0.15063043 0.022340804 -0.11543381
0003d0 9e 62 93 3d 35 2f 31 3e ba ae 77 bd 74 9f 7c 3d
       0.07196544 0.17303164 -0.060469367 0.061675504
0003e0 07 8b 28 3e 1c 6b 2d be 2a 91 cf 3d 3c b4 43 3d
       0.16459285 -0.1693539 0.1013511 0.047779307
0003f0 19 e0 02 3e 8a a2 84 bd 80 d5 eb ba 0b a5 0c 3e
       0.12780799 -0.06476314 -0.0017992705 0.13734834

fc3.bias f4 [16]
000000 60 fb 45 3c 60 3b f1 3b 64 3b 1a 3d c0 32 2d be
       0.012083858 0.0073618144 0.037654296 -0.16913891
000010 0f 9f 16 be 76 ab 96 3d 05 d5 29 3e b7 4c 16 3e
       -0.14709114 0.07356922 0.16585167 0.14677702
000020 29 58 bf bd e3 12 18 3e 0e e5 00 be 10 62 25 be
       -0.09342987 0.14850955 -0.12587377 -0.16150689
000030 b7 8e 08 3e 90 57 37 bd 60 7e a8 bd 18 9a 83 3d
       0.13335691 -0.04476124 -0.08227229 0.064258754

fc4.weight f4 [1, 16]
000000 ee c4 5a be 5c 0b d7 bd 4c 1c 6e 3e bc ae df 3d
       -0.21364185 -0.105002135 0.23252982 0.10922
000010 5e c4 2c 3e de f4 6a 3e 98 ec ca bd 70 9a 19 be
       0.16871783 0.22944972 -0.09908408 -0.1500032
000020 2a f2 1f 3e 2c 38 b2 bd 40 50 67 bd 20 a8 4c 3c
       0.15619722 -0.0870212 -0.056473017 0.012491256
000030 10 f0 5a 3d b8 de 7c 3e 28 cf 10 bd 6e 99 35 be
       0.053451598 0.24694335 -0.03535381 -0.1773431
