obsolete/training/models/deep_agent_episode_50.pth (torch, 16616 bytes, 7 tensors)

fc1.weight f4 [64, 10]
000000 9b bd 9c 3e 96 27 5a 3e 28 76 68 3d 32 5a 23 be
       0.30613407 0.21304163 0.056753308 -0.15952376
000010 04 36 90 3d d8 53 82 be 8b 98 4d be a6 3a 55 3e
       0.07041553 -0.25454593 -0.20077722 0.20823154
000020 de c7 73 be b5 e4 89 be 7e 05 8c be e0 07 77 bd
       -0.23806712 -0.26932302 -0.2734794 -0.060310245
000030 84 95 d4 bd 3a 99 10 be 50 10 c8 3d 3a fc ca bd
       -0.1038008 -0.14120951 0.09768736 -0.0991139
000040 15 e0 96 be a2 fe 49 be fa 5b 51 3e cb 16 86 3e
       -0.29467836 -0.19726041 0.20445243 0.26189265
000050 ca 0e 1a be 56 b8 7a be 50 00 dd 3c 1c c5 9a be
       -0.15044704 -0.24484381 0.026977688 -0.30228508
000060 6b d6 0a be 24 37 5e be 32 a0 5a 3e bc 64 a9 3d
       -0.13558356 -0.21700722 0.21350172 0.08271167
000070 4e c3 4a 3e 1f fb 3f be b7 83 57 be ae 35 0a 3e
       0.19801065 -0.18748139 -0.21046339 0.1349704
000080 e6 83 8e be 8d 37 3b be f3 bc 55 be f4 ca 8f 3d
       -0.27835006 -0.1828291 -0.2087286 0.07021132
000090 12 c0 5b 3e 0c 22 4b be 06 19 a1 bd 20 1b 39 3d
       0.21459988 -0.19837207 -0.07866101 0.045191884
0000a0 5b 57 86 be 8a 1e 40 be 17 97 33 be c0 f0 47 3d
       -0.26238522 -0.1876165 -0.17538105 0.04881358
0000b0 b0 c5 d8 bd 5a c3 78 3e 58 16 d3 3d 00 78 60 bc
       -0.10584581 0.2429327 0.10306996 -0.013700485
0000c0 ce 72 58 be 1a ce 19 be 9a d8 c9 bd 90 70 e9 3c
       -0.21137545 -0.15020028 -0.098557666 0.028496057
0000d0 98 25 6b bd 26 e6 23 be 48 77 e5 bd 8f c6 8e 3e
       -0.0574089 -0.16005763 -0.11204392 0.27885863
0000e0 01 5b 91 be d2 03 13 3e fc 30 af bd c8 61 7a 3d
       -0.28389743 0.14356926 -0.08554265 0.061128408
0000f0 1a fb 3f be 30 00 04 3d 45 15 84 3e c8 4b 8d be
       -0.18748131 0.03222674 0.25797477 -0.2759688
000100 37 eb 41 be 66 7f 6e 3e 58 ec a8 bd ca 3c 9f be
       -0.18937384 0.23290786 -0.08248204 -0.31101066
000110 d0 ad ea bc 78 52 2d 3e 28 0d 29 bd a4 75 9e bd
       -0.028647333 0.1692599 -0.041272312 -0.07737282
000120 3a 2b 1d 3e a0 8c 2a 3d 18 8a 78 3d 8c 4a 97 bd
       0.15348521 0.041638017 0.06067857 -0.073872656
000130 12 34 70 3e dd 9b 87 3e 80 9f cd bc c4 cc 1f be
       0.23457363 0.26486102 -0.02510047 -0.15605456
000140 f9 ef 3f be fe ff 5c be c6 7e 3a 3e 44 fe e5 bd
       -0.18743886 -0.21582028 0.18212423 -0.11230138
000150 87 e1 85 3e 03 5e 92 3e b0 92 eb 3d 80 81 70 3b
       0.26148626 0.2858735 0.11502588 0.0036698282
000160 90 02 d2 3c 20 68 1d bc a9 12 1b be 29 5a 9b 3e
       0.025635988 -0.009607345 -0.15143837 0.30342224
000170 b0 b3 e9 3c c0 7e 06 bc 9c 05 fb 3d 7f 32 9e 3e
       0.028528064 -0.0082089305 0.12256929 0.308979
000180 75 02 99 3e da 76 5a 3e a6 bc 5b 3e 00 10 74 39
       0.29884687 0.21334401 0.21458682 0.00023275614
000190 bc d9 11 3e 1a c3 4f 3e 56 39 53 3e 9d 7b a1 3e
       0.14243215 0.20289269 0.2062734 0.31539622
0001a0 93 a9 9f be 37 85 97 3e 20 f3 7b 3d 24 79 9e 3d
       -0.31184062 0.29593822 0.06151116 0.077379495
0001b0 b7 60 8a 3e fe 0f 4a 3e f0 0f 2a 3e e8 32 81 be
       0.27026913 0.19732663 0.16607642 -0.2523415
0001c0 fe 94 95 be 92 3f 68 be 52 74 92 be a6 40 64 3e
       -0.29215235 -0.226805 -0.2860437 0.22290286
0001d0 1e 7d 01 be 75 e9 80 3e f0 ea bb 3c 1c dc b0 bd
       -0.12645385 0.25178114 0.022939175 -0.086357325
0001e0 34 86 c6 3d e0 39 0e bd ad 38 9d 3e 9e 22 09 be
       0.09693566 -0.034723163 0.30707303 -0.13392112
0001f0 00 70 1d 3b 24 51 dc bd f2 09 1b 3e 2b bf 1c be
       0.0024023056 -0.10757664 0.15140513 -0.153073
000200 34 4b b5 3d be 06 1b be 00 d0 0a b9 3e ca 7e 3e
       0.088522345 -0.1513929 -0.00013238192 0.24881837
000210 c8 e0 0f 3d 60 31 1b be 6e e5 c5 bd c0 0f 8e bb
       0.035126477 -0.15155554 -0.09662901 -0.0043353736
000220 04 5b df 3d d2 e2 35 be 38 b9 13 bd 4b 21 3e be
       0.10906032 -0.17762306 -0.03606531 -0.18567388
000230 32 30 4f 3e 72 ca 75 3e 99 ca 00 be 7f 28 a1 3e
       0.20233229 0.24003008 -0.12577285 0.3147621
000240 ec 6f 9b 3d c0 47 fd bc 16 5d 9b be 51 64 3d be
       0.07589707 -0.030918002 -0.30344456 -0.18495299
000250 5d 74 01 be 31 57 87 3e e8 91 1d 3e f8 62 31 3e
       -0.12642045 0.2643371 0.1538769 0.1732291
000260 1c 8e 6c be 78 04 38 be 98 1a 48 3d f1 e1 9f be
       -0.23101085 -0.17970455 0.048853487 -0.31227067
000270 4c 97 16 3e ac db 1e be a8 53 60 be 86 44 49 3e
       0.14706153 -0.15513486 -0.21906912 0.19655046
000280 c8 1c 87 bd 3e 21 6c be b2 e4 c2 bd 87 15 a0 3e
       -0.065972865 -0.23059556 -0.095162764 0.31266424
000290 05 96 46 be 72 35 83 be 71 24 93 3e 9a d0 76 3e
       -0.19393165 -0.25626713 0.2873874 0.24103013
0002a0 3c ee de 3d b6 25 27 3e 48 ae 7d be 90 4b 1b 3e
       0.10885283 0.1632298 -0.24773514 0.15165544
0002b0 80 e2 05 bd 7a 48 7e 3e b0 ac ac bd 00 07 08 bc
       -0.03268671 0.24832335 -0.08431375 -0.00830245
0002c0 a6 0d 49 be e9 68 8d 3e 2a 04 01 3e 47 58 99 be
       -0.19634113 0.27619103 0.12599245 -0.29950163
0002d0 c5 16 92 be 54 94 89 be 08 88 83 3d 12 e0 38 3e
       -0.28532997 -0.26870978 0.0642243 0.18054226
0002e0 6d 83 5a be 17 5c 6e be 58 12 18 3e c0 73 e8 3b
       -0.21339197 -0.23277317 0.14850748 0.0070938766
0002f0 ea 02 22 3e fc 6e 8d 3d 70 b7 84 3d 3c 06 cb 3d
       0.15821424 0.06905934 0.064803004 0.099132985
000300 3e b7 7f 3e cb 28 3c be 8c b0 2d be 28 76 fc bd
       0.24972245 -0.18374936 -0.16961879 -0.12327224
000310 c8 53 1f 3d 5b a4 86 be 92 a2 86 be 7c 87 a7 3d
       0.03889826 -0.26297268 -0.26295906 0.081801385
000320 d0 66 d5 3d 68 14 09 be 90 3d b6 3d 54 d2 52 be
       0.104200006 -0.1338669 0.08898461 -0.20588046
000330 8a 7a 59 3e 95 4e 96 3e a2 ee 82 be 68 da 0e bd
       0.21238151 0.29356828 -0.25572687 -0.034876257
000340 81 a8 96 3e a0 c3 7d 3c bc 4d ef 3d 2a ee bf bd
       0.29425433 0.015488535 0.116847485 -0.09371598
000350 1f 21 8b 3e 00 7b 23 bd 16 28 15 3e 30 ec a5 3d
       0.27173707 -0.039912224 0.14566073 0.0810169
000360 50 2d a2 bc 13 6f 9b be 7e bd 29 3e c4 f9 82 3d
       -0.019796997 -0.3035818 0.16576192 0.06395295
000370 8c fe f1 3d 30 3a ba bc a8 7e df bd d0 83 fe 3d
       0.11816129 -0.022732824 -0.1091283 0.12427485
000380 3e d3 67 3e 4f d5 7a be 9a 2a 75 3e 26 01 40 3e
       0.22639176 -0.24495433 0.23942032 0.18750438
000390 32 00 6a 3e 2d 09 30 be c8 e5 f5 bd b6 98 8f be
       0.22851637 -0.17191 -0.12006718 -0.28046197
0003a0 40 22 94 bd e8 1e c4 3d a0 a1 8c be 7a c9 52 3e
       -0.07233095 0.095762074 -0.2746706 0.2058467
0003b0 ca 13 98 bd 8f f3 77 be 24 ec 32 3e e0 d5 07 3d
       -0.074256495 -0.24214004 0.17472893 0.03316295
0003c0 f5 ac 96 3e 40 25 6c bd e0 bf 91 bd b6 2a 56 be
       0.2942883 -0.057652712 -0.071166754 -0.2091473
0003d0 c0 53 ff 3d 78 08 1b 3d 82 56 40 3e 00 68 76 3d
       0.12467146 0.037849873 0.18783 0.060157776
0003e0 36 86 89 be e5 64 9f 3e 00 40 b1 3a b6 f1 56 3e
       -0.26860207 0.31131664 0.0013523102 0.20990643
0003f0 15 8b 95 be 4e 41 dc bd 3a 5d 21 be 4a ea 33 be
       -0.29207674 -0.107546434 -0.1575822 -0.17569843

fc1.bias f4 [64]
000000 83 6c 79 be a0 ac 2b bd f2 56 16 3e 68 e6 b9 3d
       -0.243578 -0.041912675 0.14681605 0.0907715
000010 c8 f9 28 3e 2c c3 1e be c0 85 80 be 58 ea 04 be
       0.16501534 -0.1550414 -0.25102043 -0.1298002
000020 70 2c bb 3c c3 a8 85 3e 69 11 9b 3e 43 70 16 be
       0.022848338 0.26105317 0.3028672 -0.14691262
000030 e0 0d 23 bd 08 84 24 3d 40 9f 14 be b8 63 5f be
       -0.039808154 0.040164977 -0.14513874 -0.21815383
000040 53 f7 89 3e b0 6e 20 3d 38 ac e4 3d 28 97 e1 3d
       0.26946506 0.03916806 0.111656606 0.11015159
000050 35 79 97 3e 20 3a ad 3c 24 f2 59 be 44 64 1d 3e
       0.2958466 0.02114588 -0.21283776 0.1537028
000060 ac aa 8b 3d 74 0f c0 3d 18 06 3b bd 8c f8 d0 3d
       0.068196625 0.093779474 -0.04566011 0.102036566
000070 86 6d 55 3e 83 12 58 be 52 b5 40 3e 8a f4 cd bd
       0.20842561 -0.21100812 0.18819168 -0.10056408
000080 b7 f9 88 3e 06 6a ac bd 64 21 ca 3d 8e a3 46 3e
       0.26753017 -0.0841866 0.0986965 0.19398329
000090 d6 73 9c be dc 13 fe bd 20 df ad 3c ea 68 f5 bd
       -0.30557126 -0.124061316 0.021224558 -0.119829014
0000a0 44 ca e1 bd 30 76 ed 3c 6a ea 48 3e 80 46 1b bc
       -0.11024907 0.02898702 0.19620672 -0.009477258
0000b0 4e 5d 7a 3e d0 b2 ce bc c0 46 cc 3d e0 e2 f1 bc
       0.24449655 -0.025231749 0.09974432 -0.029527128
0000c0 54 92 db 3d 7a 37 22 3e 3b de 9e be 38 f5 f0 3d
       0.10721269 0.15841475 -0.31028923 0.11765522
0000d0 f8 dc 33 3e 80 33 12 3e 78 c9 a0 3d 42 ba 59 3e
       0.17564762 0.14277458 0.07850927 0.21262458
0000e0 3a d6 4a 3e 8e 40 2a 3e 2c 94 b8 bd b4 08 9b be
       0.19808283 0.16626188 -0.090126365 -0.30280077
0000f0 1c f2 ee 3d 00 50 8e ba 8e 7d f0 bd 00 4b 1f bd
       0.116672724 -0.0010857582 -0.11742698 -0.038889885

fc2.weight f4 [32, 64]
000000 32 b7 df bd 88 26 c0 bc a0 36 51 3d 64 c7 43 bd
       -0.109236136 -0.023455873 0.051077485 -0.047797576
000010 20 f1 82 bd b4 ad fa 3d 80 d5 5d bc f0 e8 28 3c
       -0.06393647 0.122401625 -0.013539672 0.010309443
000020 ba 46 bf bd a6 81 82 3d 10 c1 e2 bc b8 c7 ca bd
       -0.09339662 0.06372385 -0.02767995 -0.099013746
000030 64 fc 94 bd ec ec ff 3d 20 16 a5 bd 7c 6e ec bd
       -0.07274702 0.12496361 -0.08060861 -0.11544511
000040 30 6a b7 3d dc ef ee bd 34 57 bf bd b4 ce c7 bd
       0.089558005 -0.11666843 -0.093428046 -0.09756222
000050 c8 2b e2 3c 54 d2 a7 bd 80 85 93 3c a4 27 24 bd
       0.027608767 -0.08194414 0.018007994 -0.040076867
000060 f0 e7 0f 3c 9c 64 3f bd 3c 97 22 3d aa ea f1 3d
       0.008783326 -0.046726808 0.03969501 0.11812337
000070 32 a6 dc 3d 18 90 45 bd 4c 76 43 bd 66 ce 9d bd
       0.10773887 -0.04823312 -0.04772024 -0.07705383
000080 50 cb 0f bd e4 65 6f bd 30 f3 c3 3d bc 08 e3 bd
       -0.035106003 -0.05844678 0.09567869 -0.1108565
000090 b0 39 b2 bd 7c 3d b8 bd 26 69 e0 3d 9e 2d d3 bd
       -0.08702409 -0.08996102 0.109575555 -0.10311435
0000a0 f0 2a e3 3c c4 77 4c 3d 20 42 11 bc 10 b6 ce bd
       0.027730435 0.049918905 -0.008865863 -0.100933194
0000b0 fe b4 a0 bd 98 3d b2 3d 34 b5 61 bd 70 34 a1 bd
       -0.078470215 0.08703154 -0.05510445 -0.0787133
0000c0 58 09 5c 3d 00 72 e7 3c e0 be 14 bc a4 dc 4b 3d
       0.05371985 0.028252602 -0.009078711 0.049770966
0000d0 48 c4 d8 3c 90 d8 2b bd a4 c3 ad 3d 4c 13 72 3d
       0.026460782 -0.041954577 0.08484581 0.059100434
0000e0 64 f4 ba 3d 18 78 b5 bc 80 9e cd 3c ca 49 bb bd
       0.09128645 -0.022151992 0.025099993 -0.091449335
0000f0 84 e7 d8 bd b0 66 14 3c 10 01 9c bd 9e 8b bf 3d
       -0.10591033 0.009057686 -0.0761739 0.09352802
000100 a8 1d fa bc da ef 81 bd b4 40 0e bd da fb 93 bd
       -0.03053172 -0.06344576 -0.034729674 -0.07225771
000110 40 b2 8c 3c 50 9f 35 3d e0 3d ac 3b 4c c7 3b 3d
       0.01717484 0.044341385 0.0052563995 0.04584436
000120 00 d0 f0 3b 40 2c 2a bb e4 1a a6 bd 9a 24 ee bd
       0.0073490143 -0.0025966316 -0.08110598 -0.11628075
000130 bc 24 81 3d 80 a9 16 bb b0 16 c5 3d 28 2c 1a 3d
       0.06305835 -0.0022989213 0.09623468 0.037639767
000140 00 6a 0d bc 3c 66 ad bd f0 3f 5e 3c da b1 e0 3d
       -0.008631229 -0.08466765 0.013565049 0.109714225
000150 20 b0 19 bc 00 af 89 3b dc 02 c0 3d 20 2e 7c 3d
       -0.00938037 0.00420177 0.093755454 0.061567426
000160 f0 73 98 3d 5e a8 a8 bd 0c 6f 84 bd 4c 6e f6 3d
       0.07443988 -0.082352385 -0.06466493 0.12032756
000170 ae 8a d1 bd f0 11 a8 bd 88 e6 99 bc d4 00 19 3d
       -0.10231529 -0.08206546 -0.018786684 0.037354305
000180 58 7a ee 3c 80 51 4e 3d 8c 11 7c 3d 70 45 4c 3d
       0.029111072 0.050370693 0.06154017 0.04987091
000190 1c a9 da 3d ec b2 e9 3d f6 3c a8 3d 40 fc 48 bb
       0.10676786 0.1141108 0.082147524 -0.003066793
0001a0 d4 ca ff bd 7a e1 8a bd ce 48 a6 3d bc 0a 8f bd
       -0.12489858 -0.067812875 0.08119355 -0.06984469
0001b0 88 2a d4 3d d2 c2 e7 bd 26 f8 9b 3d 70 c7 63 3d
       0.10359675 -0.11316456 0.0761569 0.05561012
0001c0 c0 0d e9 3c c8 a8 ab 3c 86 9a 89 3d 28 15 00 3d
       0.02844894 0.020954505 0.06718926 0.031270176
0001d0 e4 6c 7c bd 36 c9 90 3d c4 f8 df 3d 2a c3 a7 bd
       -0.061627284 0.07069628 0.1093612 -0.081915215
0001e0 86 73 8a bd 98 18 25 bd 96 8f 9b 3d dc b0 3d bd
       -0.067603156 -0.040306658 0.07595746 -0.046311244
0001f0 00 ab e5 3c b2 5a d2 3d f6 36 82 3d 90 98 8e 3c
       0.02803564 0.10271205 0.06358139 0.017406732
000200 3a 35 ff bd 2a d0 89 3d 64 fa 37 bd 5e 2c b5 bd
       -0.12461324 0.06729157 -0.044916525 -0.08846353
000210 c0 fc a8 3b 32 03 be bd bc 2f 19 bd 46 b3 a0 3d
       0.0051570833 -0.09277953 -0.03739904 0.07846694
000220 48 b3 d5 3d b0 85 80 bd 66 c5 82 3d e8 df c0 3c
       0.10434586 -0.06275499 0.06385307 0.023544267
000230 60 fd c1 bc 54 aa 98 3d c4 c0 bc 3d 44 71 4c 3d
       -0.023680389 0.074543625 0.092164546 0.049912706
000240 40 28 70 3b 00 80 fc 3d 90 4c 99 3c 72 30 99 3d
       0.0036645085 0.123291016 0.018713266 0.07479943
000250 ec 2b 5b 3d e6 96 9a bd ee 34 ee bd 58 6f 96 bd
       0.053508684 -0.07548313 -0.11631189 -0.07345456
000260 00 51 25 bd 80 3f f3 bc 88 51 a9 3c be 1e ec bd
       -0.04036045 -0.029693365 0.02066876 -0.11529301
000270 60 09 98 3d 78 10 db bd 98 d5 6d 3d f2 8d df 3d
       0.07423663 -0.106965005 0.058065027 0.10915746
000280 cc 6f 17 bd 28 6e aa bd 30 df aa bd 48 ab 9c 3d
       -0.036971852 -0.08321792 -0.08343351 0.07649857
000290 ec c0 2d bd 00 02 ef bb b6 d5 9e bd 8c 0c b6 3d
       -0.042420313 -0.0072939396 -0.07755606 0.08889112
0002a0 f6 65 c5 bd 20 a4 fc bc 68 ad bd bc 4e 93 88 3d
       -0.09638588 -0.03083998 -0.023153976 0.06668721
0002b0 80 de 4f bb f0 01 0f bc f0 01 f6 bd 2e 44 e9 3d
       -0.0031718314 -0.008728489 -0.12012088 0.11389957
0002c0 00 a0 99 3d d8 c4 cd bc d6 b3 f5 3d c4 c2 65 bd
       0.07501221 -0.025118276 0.119971916 -0.056093946
0002d0 e2 3c 81 3d 00 2c 7a ba c0 24 d9 bd c0 b0 16 3c
       0.063104406 -0.00095432997 -0.10602713 0.009197414
0002e0 ac 8a 68 3d a0 4b c6 3d 60 8e d8 3d 96 e1 a7 bd
       0.056772873 0.09682393 0.10574031 -0.08197324
0002f0 60 92 9f 3d 40 46 6f 3c 40 27 83 bb 16 83 c6 bd
       0.07791591 0.014604151 -0.0040024817 -0.096929714
000300 2a 6b a5 3d 38 80 bc bd 1e b7 bc 3d 42 39 c6 bd
       0.080770805 -0.09204143 0.09214614 -0.0967889
000310 50 8c e0 bd e8 39 8a bc f0 09 41 3c d0 76 97 3d
       -0.109642625 -0.016873315 0.011782154 0.073957086
000320 48 73 07 3d 40 59 0b bd 6a 99 dd 3d f0 d7 35 bc
       0.033068925 -0.034020662 0.10820277 -0.011098847
000330 98 bf 8f bc fe 4a fa 3d 54 80 e2 3d d8 ee 3a bd
       -0.017547414 0.12221335 0.11059633 -0.045637935
000340 00 a4 c2 3c 80 45 e8 ba 54 d2 40 bd 80 29 bc 3a
       0.023759842 -0.0017720908 -0.047075585 0.001435563
000350 08 9e 33 bd 34 8e d1 3d d6 66 fe bd 40 77 6d 3c
       -0.043851882 0.10232201 -0.12421958 0.014493763
000360 52 32 98 3d ac 7b d9 3d 22 03 99 3d 3c 24 9c 3d
       0.07431473 0.10619292 0.07471301 0.07624099
000370 78 1f da bc 00 2c 56 3a 02 af f9 bd b2 2d db 3d
       -0.026626334 0.00081700087 -0.12191583 0.10702075
000380 48 1e 8f bd ec 26 10 3d 3c f0 40 bd e8 42 e0 3d
       -0.069881976 0.03519337 -0.047104105 0.10950261
000390 12 12 9d bd 58 de 6d 3d b8 4b b7 bd 10 56 6d bc
       -0.07669462 0.05807337 -0.08949989 -0.014485851
0003a0 04 f3 39 3d c0 57 c3 3d 9c 4c 06 3d 50 6b cd 3c
       0.045397773 0.09538221 0.032787904 0.025075585
0003b0 2c f2 f7 bd c0 0c 42 bc e8 87 86 3c 8c 56 5f 3d
       -0.121067375 -0.01184386 0.016422227 0.054525897
0003c0 28 57 29 bd b0 c1 47 bc 46 05 f5 bd 48 a8 cb bc
       -0.041342884 -0.012192175 -0.119638965 -0.024860516
0003d0 ec 1d 82 bd 00 cd fe bb 74 12 8e bd 7c 5e 1a bd
       -0.063533634 -0.0077759027 -0.069371134 -0.037687764
0003e0 54 b8 19 bd b0 77 de bc 3e a2 b0 bd 20 c1 d8 3b
       -0.037529305 -0.02715668 -0.08624695 0.006614819
0003f0 62 dc fa 3d 0c ee 10 3d e2 22 a6 3d ea d0 c0 3d
       0.12249066 0.03538327 0.08112122 0.09414847

fc2.bias f4 [32]
000000 cc 62 ed bd 64 f6 25 bd 7c 41 e4 bd 34 e0 d3 bd
       -0.1159111 -0.04051818 -0.11145303 -0.10345498
000010 18 97 21 3d 58 13 d4 3c 40 c1 b3 3c d0 10 e9 bd
       0.039450735 0.02588813 0.021942735 -0.1138016
000020 54 1b 2a 3d 00 2c 01 bd 98 12 d7 bc c2 bb 8d 3d
       0.04152997 -0.031536102 -0.026253983 0.069205776
000030 70 6b b5 bc ea 36 c3 3d e0 71 3f 3c 60 ef 3f bc
       -0.022145957 0.095319584 0.011684865 -0.011714786
000040 e0 fd 32 3c 52 ac f7 3d e8 2f 7a bd 4a 12 9f bd
       0.010924786 0.12093414 -0.061080843 -0.0776716
000050 68 63 28 bd 90 c5 cb bc c8 32 ea 3d 64 f1 b6 bd
       -0.041110426 -0.024874479 0.11435467 -0.0893276
000060 b2 49 a6 bd 20 20 05 bd 64 85 16 bd bc 74 5c 3d
       -0.08119525 -0.03250134 -0.036748305 0.053822264
000070 90 ee 87 bc f4 14 cd 3d e0 78 db 3c a8 62 b0 3c
       -0.016593248 0.10013762 0.026791036 0.021531418

fc3.weight f4 [16, 32]
000000 78 60 81 3c 3e d1 81 3d 81 20 34 3e 90 78 74 bd
       0.01579307 0.06338738 0.17590524 -0.05968529
000010 e1 9d 16 be 40 47 93 bb 6e 9a b9 3d ac 9e 10 be
       -0.14708664 -0.0044945776 0.09062658 -0.14123029
000020 93 1f ff bd 42 e7 fc 3d fb 4f 13 3e 28 6d b2 bc
       -0.12457194 0.123487964 0.14385979 -0.021780565
000030 2b 9d 80 bd 10 bd e5 bd 0d f7 1e 3e 44 73 5e bd
       -0.062799774 -0.112177014 0.1552393 -0.054309145
000040 99 79 13 3e bc f7 22 bd 50 9d 48 bc f8 0c b6 3c
       0.14401855 -0.03978704 -0.0122445375 0.02222298
000050 73 93 00 3e 43 a1 0f 3e d8 cd 04 3d 98 31 e4 bd
       0.12556247 0.1402636 0.03242287 -0.11142272
000060 b3 9c d1 bd dc d8 31 bd 8f d8 1d 3e 5a cf eb bd
       -0.10234966 -0.043419704 0.15414642 -0.115141585
000070 2b 78 88 bd 62 e8 c3 3d ad 4c a4 bd 00 d5 6c bc
       -0.06663545 0.09565808 -0.08022437 -0.01445508
000080 3e 03 f2 3d 2e 2c 28 be f2 cc d3 3d c3 5c 2e 3e
       0.11817025 -0.16423103 0.103418246 0.17027573
000090 74 35 82 bd 7c 07 e0 bd 30 73 b4 3c f0 61 2c 3c
       -0.063578516 -0.109389275 0.022027582 0.010521397
0000a0 18 50 f8 3c 6d 1e 22 3e ac 78 57 bd d8 4c 04 3d
       0.03031163 0.15831919 -0.052605316 0.032299846
0000b0 3e 92 9b 3d 9a 86 c5 3d 6b f0 08 3e 16 f0 0b be
       0.07596253 0.09644814 0.13372962 -0.13665804
0000c0 78 de 9f 3c 01 06 2f 3e 1b 1a ea bd b8 eb 89 bd
       0.019515261 0.17092134 -0.114307605 -0.06734413
0000d0 5e 74 c8 3d b0 c1 1f bd 0a 39 e4 bd 31 c2 18 be
       0.0978782 -0.039003074 -0.11143692 -0.14917828
0000e0 79 02 31 be c0 4f 2d bc a3 f2 11 3e 50 53 19 bd
       -0.172861 -0.010578096 0.14252715 -0.03743297
0000f0 15 04 00 3e 51 44 2d be f1 5a 0d 3e 78 e9 db 3c
       0.12501557 -0.16920592 0.13804223 0.026844725
000100 ee e8 08 be 72 69 ae 3d 47 b8 19 be 08 c1 84 bd
       -0.13370106 0.08516206 -0.15011702 -0.0648213
000110 f2 07 84 3d 4b a2 18 3e 75 18 90 bd 2a ec b9 bd
       0.06446828 0.1490566 -0.07035915 -0.09078248
000120 40 77 c1 bd 1f c9 0c 3e 27 31 d7 bd 3e c6 b2 3d
       -0.09446573 0.13748597 -0.10507422 0.08729218
000130 70 d1 14 be de c6 1d be 94 87 02 be ae 0a e8 3d
       -0.14533019 -0.15407893 -0.12747031 0.11330162
000140 a0 2e 20 3c bc dd 88 3d 20 ca fb bc 30 f5 28 bc
       0.009776741 0.066829175 -0.03073603 -0.0103123635
000150 54 87 13 be df 0f 09 3e 6a 13 f4 3d c7 9d c7 bd
       -0.14407092 0.1338496 0.119177654 -0.097468905
000160 ec 2c 04 be a9 af 08 be 6f 3f 0a be f9 b5 08 3e
       -0.12907761 -0.13348259 -0.1350076 0.13350667
000170 8b 86 dc bd fa 5b c0 3d d6 b5 81 3d 3f 17 2d 3e
       -0.107678495 0.09392543 0.063335106 0.16903399
000180 38 5f 1e be 18 94 46 bd 57 f8 1f 3e db 27 14 3e
       -0.1546601 -0.048481077 0.15622078 0.14468329
000190 e1 c5 0e be 69 e4 1b 3e 81 7b d4 bd 00 49 e6 3c
       -0.13942672 0.1522385 -0.10375119 0.028110981
0001a0 37 78 a7 bd 14 50 1a be a9 11 1c 3e 35 fd 09 3e
       -0.08177226 -0.1506961 0.15241112 0.13475497
0001b0 21 e8 32 be 30 0c a7 3c d0 0a fb bd 1b 09 ac bd
       -0.17471363 0.020391554 -0.12257922 -0.08400174
0001c0 32 3b d7 bd 20 c8 32 bd e8 28 7b bd d1 13 1e 3e
       -0.105093375 -0.043647885 -0.061318308 0.15437247
0001d0 d6 74 e9 3d 9f 3c 2a 3e c6 2f 56 bd c0 5a c4 3b
       0.11399238 0.16624688 -0.052291654 0.0059922636
0001e0 60 b5 41 3c 94 cb 00 be ad 2b bf bd 48 10 22 3d
       0.011823028 -0.12577659 -0.09334502 0.03956631
0001f0 43 81 30 be 6c c9 ef bd 8c 42 02 be b1 98 19 3e
       -0.1723681 -0.1170834 -0.12720698 0.14999653
000200 d5 e7 f4 bd ba c4 fb bd fe ca d2 3d 59 ee ee bd
       -0.11958281 -0.12293382 0.10292624 -0.11666555
000210 ae 14 9e 3d f6 40 18 be 54 f4 6c 3d 27 e1 32 3e
       0.07718788 -0.1486853 0.057850197 0.17468701
000220 7c 1d 85 bd 45 81 26 3e 8c 24 41 bd 60 90 f1 bc
       -0.06499764 0.1626025 -0.047153994 -0.029487789
000230 90 ad ca bd 6b 83 b6 bd 27 89 a9 bd 0b 5f 15 be
       -0.09896386 -0.08911785 -0.08278113 -0.14587037
000240 b0 14 33 be 10 9f 04 be 40 a2 e3 bc 5f d1 14 3e
       -0.1748836 -0.12951303 -0.027787328 0.14532994
000250 3c b9 87 3d 00 2f 88 ba a0 3d 2b bc 10 6b aa bc
       0.066271275 -0.0010389984 -0.010451704 -0.020803005
000260 cc d3 0e be a1 ea 93 bd 36 dd f2 bd 56 e3 ec 3d
       -0.13947982 -0.07222486 -0.11858599 0.115667984
000270 d0 38 c4 3c f7 32 0c 3e 7d 33 bb bd 2a 54 c2 bd
       0.023952872 0.13691317 -0.0914068 -0.09488709
000280 bf 06 1f 3e b6 92 e2 3d 8c bb 6f 3d 3c ef 7e bd
       0.15529917 0.11063139 0.058528468 -0.06223987
000290 04 35 27 3d cf fb e5 bd 3a 86 ce 3d a8 4a 84 3c
       0.040822044 -0.11229669 0.100841954 0.01614888
0002a0 80 3d fe 3c 0a 0b a4 bd c2 64 0e be 2e 98 85 3d
       0.031035185 -0.08009918 -0.13905624 0.065231666
0002b0 26 f6 a1 3d 10 bf 57 3c 78 30 1a bd 6e 7d b7 3d
       0.07908277 0.013168111 -0.03764388 0.08959471
0002c0 29 56 00 3e 7a e1 fd 3d e6 21 ce bd 78 22 17 bd
       0.12532867 0.12396522 -0.10065059 -0.036898106
0002d0 e4 45 8f 3d d8 1a 3d 3d 08 74 a4 3c 43 bd a8 bd
       0.069957525 0.04616818 0.02007486 -0.08239224
0002e0 2d 75 12 3e ba 96 91 3d dd 83 f0 bd 22 ef 2d be
       0.14302512 0.07108827 -0.11743901 -0.16985753
0002f0 eb 97 0f be 60 88 bf 3c 8e 82 f6 3d e2 60 14 be
       -0.14022796 0.023380458 0.1203662 -0.14490083
000300 10 6c 13 be a5 25 e5 bd 11 8f 1f be 95 8e a2 bd
       -0.14396691 -0.11188821 -0.15581919 -0.079373516
000310 80 f7 8b bc 4e 6a dd 3d 00 d6 37 3c 10 b7 47 bd
       -0.01708579 0.10811292 0.011220455 -0.048758566
000320 28 32 f2 3c 60 0b c1 bc fe c7 c0 3d 69 e8 20 3e
       0.029564932 -0.023564994 0.094131455 0.15713657
000330 98 ce 1e be b8 3d 27 3d 30 a7 8f 3d fe cd 9c 3d
       -0.15508497 0.040830344 0.0701431 0.076564774
000340 23 53 fd bd 14 d7 3d bd 9a 22 9e 3d 80 b8 b3 bd
       -0.12369373 -0.046347693 0.077214435 -0.08775425
000350 3a 8b a2 3d b4 0f 53 3d 7e ae a7 3d 52 0a fa 3d
       0.079367116 0.051528648 0.081875786 0.12209
000360 3c 80 73 3d 16 b3 09 be 58 2b 87 3c 3b 41 a0 bd
       0.059448466 -0.13447222 0.01650016 -0.07824942
000370 32 ca a1 3d f2 c5 80 3d 97 7a 27 3e 70 7e 31 3c
       0.07899894 0.06287755 0.16355358 0.010833368
000380 82 8f c3 3d d4 ef 1b 3d 00 f0 b9 38 fc d7 26 3d
       0.09548856 0.038070515 8.866191e-05 0.040733323
000390 b6 02 ff 3d 39 e8 09 be 2e f6 9a bd 99 9f 2f 3e
       0.12451689 -0.13467492 -0.07566486 0.17150725
0003a0 b5 bd 10 3e 06 82 d8 bd a2 9d 79 bd 0c 41 84 bd
       0.14134867 -0.10571675 -0.060941346 -0.06457719
0003b0 78 0e 75 bd ee 7d c9 3d 0b cc 23 3e 5a a0 e8 3d
       -0.05982825 0.09838472 0.15995805 0.1135871
0003c0 0c c2 7f bd 34 3d 5c 3d 96 98 b5 3d 4e c0 e3 3d
       -0.062440917 0.053769305 0.08866994 0.111206636
0003d0 82 93 b2 3d d1 83 28 be c8 7d 8b 3c 04 d3 a0 bd
       0.08719541 -0.16456534 0.01702775 -0.07852748
0003e0 90 23 37 bd da f5 be 3d a0 06 12 bc 9f b5 33 be
       -0.04471165 0.09324236 -0.008912712 -0.17549752
0003f0 0a 9a e3 bd 06 b5 0c be 06 b1 dd 3d ba 5a 60 bd
       -0.11113365 -0.1374093 0.1082478 -0.054774024

fc3.bias f4 [16]
000000 8e cf 9d 3d 50 d0 3a 3c 83 0a 08 be 3f 2b 24 3e
       0.077056035 0.011402205 -0.1328526 0.16032122
000010 2c 18 32 bd e0 78 90 3c 64 f3 06 be 2d 59 2c 3e
       -0.043480083 0.017635763 -0.13178784 0.16830893
000020 28 04 4b bd 10 29 7b 3c db 78 2e 3e b4 50 03 bd
       -0.04956451 0.015329614 0.1703829 -0.032059386
000030 c0 50 54 3b 52 ea ab 3d a4 2a 15 3d f4 93 3c bd
       0.0032396764 0.083943024 0.03641762 -0.046039537

fc4.weight f4 [1, 16]
000000 4c 79 6f 3e 02 d9 5f 3e b8 61 63 be a0 90 67 bd
       0.23386115 0.21860126 -0.22205245 -0.05653441
000010 4c 81 c6 3d b8 e1 5d 3e 4a e0 0b be 1e ec 74 3e
       0.0969263 0.21668136 -0.13659778 0.23918197
000020 a0 fa 7f be 80 3d c1 3d 38 83 06 3e b4 78 59 3e
       -0.2499795 0.09435558 0.13135993 0.21237451
000030 90 9f b3 bc 0e 76 3f 3e 38 b0 22 be 82 b4 7d be
       -0.021926671 0.18697378 -0.15887535 -0.2477589
