obsolete/training/models/deep_agent_episode_200.pth (torch, 16692 bytes, 7 tensors)

fc1.weight f4 [64, 10]
0	0x3e17cfc2	0.14825347
1	0x3e6b02d2	0.22950295
2	0xbe7f9400	-0.24958801
3	0x3e4ee9de	0.20206401
4	0xbd52a5d0	-0.051427662
5	0xbe9ae921	-0.30255988
6	0x3e86495f	0.26227853
7	0x3dc6cde0	0.09707236
8	0x3e894ccb	0.268164
9	0xbd193cc0	-0.03741145
10	0x3bbddc40	0.005794078
11	0x3e163dec	0.14672059
12	0x3e0a298a	0.13492408
13	0x3e413512	0.18867901
14	0x3e3b20f6	0.18274292
15	0x3dcddd2c	0.10051951
16	0x3dbf9974	0.09355441
17	0x3d3fade8	0.04679671
18	0x3e5a43de	0.21314952
19	0xbc8e9740	-0.017406106
20	0xbdc65962	-0.09685017
21	0xbea11cfd	-0.3146743
22	0x3e1354ae	0.14387771
23	0x3dadd9f4	0.08488837
24	0xbe9be7d9	-0.30450323
25	0x3e6df2fa	0.2323722
26	0x3e6c6e5e	0.23088977
27	0xbe67895c	-0.22610992
28	0xbd240eb8	-0.0400531
29	0xbd702480	-0.05862856
30	0xbde0e532	-0.109812155
31	0x3e89b975	0.26899305
32	0xbe27bd43	-0.16380791
33	0xbe26dbae	-0.16294739
34	0x3e1a8de0	0.15093184
35	0xbdcd79fa	-0.10033031
36	0xbdfaf328	-0.122534096
37	0xbe9df8f2	-0.30853993
38	0x3e8efa1b	0.2792519
39	0x3d61d450	0.055134118
40	0x3e45459e	0.19264838
41	0x3e1c2e36	0.15252003
42	0x3dd0bfb0	0.101928115
43	0xbe07c007	-0.13256846
44	0xbe6c51e1	-0.2307811
45	0xbd83535c	-0.06412384
46	0xbdc3b5ce	-0.09556161
47	0x3e0d5888	0.13803303
48	0xbe92ae50	-0.28648615
49	0xbe2306a5	-0.15920503
50	0x3d9b6570	0.07587707
51	0xbe079530	-0.13240504
52	0x3dab521c	0.083652705
53	0x3e8aae73	0.2708622
54	0x3d255178	0.040360898
55	0x3e67666e	0.22597668
56	0xbba6b6c0	-0.0050877035
57	0xbd1ab868	-0.03777352
58	0x3e326aaa	0.17423502
59	0x3dd45a70	0.10368812
60	0x3e9c8099	0.30566862
61	0xbe03a312	-0.12855175
62	0xbe050ec3	-0.12993912
63	0x3e4a145e	0.19734332
64	0x3e092568	0.13393176
65	0x3e926ec9	0.28600147
66	0xbd977dc8	-0.07397038
67	0x3e95d3f9	0.29263285
68	0xbe52eeea	-0.20598951
69	0xbe683549	-0.22676577
70	0xbc16dbc0	-0.009207666
71	0x3e11c672	0.14235857
72	0x3ca74910	0.020420581
73	0xbea0be63	-0.31395254
74	0x3e78646a	0.24257055
75	0xbe65d029	-0.22442688
76	0xbdc4b3da	-0.096046165
77	0x3df1bedc	0.11803982
78	0x3e0d501a	0.13800088
79	0xbe4b4030	-0.19848704
80	0x3bf73280	0.007543862
81	0xbe813fa4	-0.25243866
82	0x3da06744	0.07832196
83	0x3b9cbc00	0.0047831535
84	0x3de437b0	0.11143434
85	0xbe797f7f	-0.24365042
86	0xbe6ca829	-0.23111023
87	0xbde03bc2	-0.10948898
88	0x3dce9dc4	0.10088685
89	0x3e9fab79	0.3118551
90	0xbd3510f0	-0.044205606
91	0xbd1eb8a8	-0.03875032
92	0xbe785ba0	-0.24253702
93	0xbd9e9df6	-0.077449724
94	0xbe6bf662	-0.23043206
95	0xbe6f01aa	-0.23340479
96	0xbe5c5886	-0.21518144
97	0xbe081958	-0.13290918
98	0xbcc88680	-0.024478197
99	0xbe8c1a2a	-0.27363712
100	0xbd549ea8	-0.05190912
101	0x3e0a29ce	0.1349251
102	0x3e9b7e31	0.30369714
103	0x3e8acba5	0.27108493
104	0xbe6a7c66	-0.22899017
105	0x3df3b938	0.11900562
106	0x3dc677dc	0.0969083
107	0xbe2112d8	-0.15729845
108	0xbe4efb1d	-0.2021298
109	0xbccb4380	-0.02481246
110	0xbe9d4c51	-0.30722287
111	0xbd857b10	-0.06517613
112	0x3e7cd8d6	0.24692091
113	0xbe2f6596	-0.17128596
114	0x3dbc932c	0.09207758
115	0xbe7c57c0	-0.24642849
116	0x3d952cec	0.07283959
117	0xbd62ee28	-0.055402905
118	0x3e5c49ee	0.21512577
119	0x3e5a2fea	0.2130734
120	0x3baab040	0.005208999
121	0xbe2274da	-0.15864888
122	0x3e5d20ce	0.21594545
123	0xbd247be8	-0.04015723
124	0xbe5ed2cc	-0.217601
125	0x3e760a86	0.24027452
126	0x3d07d0f0	0.033158243
127	0x3e968ca5	0.29404178
128	0x3e9d1e7b	0.30687317
129	0xbe183da9	-0.14867271
130	0x3b056f00	0.002036035
131	0x3e083510	0.13301492
132	0xbe966e18	-0.2938087
133	0x3e4504a2	0.19240049
134	0xbe6685bc	-0.22511953
135	0x3e04925e	0.1294646
136	0x3e1701e0	0.14746809
137	0x3e6ba502	0.23012164
138	0x3b2d4e00	0.0026444197
139	0xbe06c5af	-0.13161348
140	0xbe5916fe	-0.21200177
141	0x3e8ccae3	0.2749854
142	0x3cdc0f90	0.02686289
143	0xbe0650a6	-0.13116702
144	0xbe86030d	-0.26174203
145	0xbe04ed10	-0.12981057
146	0xbdd79df4	-0.10528174
147	0xbc913c00	-0.017728806
148	0xbda48720	-0.080335855
149	0xbe3d9e51	-0.18517424
150	0x3d988c90	0.07448685
151	0xbe39d9c8	-0.18149483
152	0x3dfa9138	0.122347295
153	0xbd013cc8	-0.031552106
154	0xbe8fe9c8	-0.28108048
155	0x3e480482	0.1953297
156	0x3e2ecfc8	0.1707145
157	0xbd0fd838	-0.03511831
158	0x3e9ba927	0.3040249
159	0xbe422c0a	-0.18962112
160	0x3d4ad4c8	0.04951933
161	0x3d96e520	0.07367921
162	0xbe462f4c	-0.1935398
163	0x3dd00530	0.101572394
164	0x3de0a5b0	0.109691024
165	0xbe7cfad3	-0.24705057
166	0x3e807147	0.25086424
167	0xbe80f4fa	-0.25186902
168	0xbe931019	-0.2872322
169	0xbda869ce	-0.08223306
170	0xbcbadb10	-0.022809535
171	0xbd0f0118	-0.034913152
172	0x3ddb648c	0.10712537
173	0x3d60d190	0.054887354
174	0xbce89fe0	-0.028396547
175	0xbe28c747	-0.16482268
176	0x3e43470a	0.19070068
177	0xbdbdde90	-0.09270966
178	0xbdd6e2e8	-0.10492498
179	0xbe3e02b8	-0.18555725
180	0xbdc909da	-0.09816332
181	0x3e91bc31	0.2846389
182	0xbe910dfb	-0.2833098
183	0x3e60e242	0.2196131
184	0x3da44138	0.08020252
185	0x3e8912c9	0.26772144
186	0xbe1194ce	-0.1421692
187	0xbe959c5c	-0.29220855
188	0x3dde7954	0.10862985
189	0x3e55e756	0.20889029
190	0xbe3a4075	-0.18188651
191	0x3d170600	0.036870956
192	0x3e8f769b	0.28020176
193	0xbde6a88a	-0.11262615
194	0xbdab0b36	-0.08351748
195	0xbe622efa	-0.22088233
196	0xbe9e837f	-0.309597
197	0xbe9112f2	-0.28334767
198	0x3dc91cf0	0.098199725
199	0x3cbac4e0	0.022798955
200	0x3e8ef785	0.27923217
201	0x3e9a5c41	0.3014851
202	0x3dddf75c	0.10838196
203	0xbe75839a	-0.23975983
204	0xbd56e428	-0.05246368
205	0x3e805699	0.2506607
206	0x3d8ea7dc	0.069656104
207	0xbddc7c2a	-0.1076587
208	0x3d4a7130	0.04942435
209	0xbe858c77	-0.2608373
210	0x3d936474	0.07196894
211	0x3cd70850	0.02624908
212	0xbe5663d6	-0.20936522
213	0x3d114d88	0.03547433
214	0xbdabc0ba	-0.08386369
215	0x3e938eed	0.2881998
216	0xbd94dda2	-0.072688356
217	0x3e43ffba	0.1914052
218	0x3c077500	0.008267641
219	0xbe94caab	-0.29060873
220	0x3db05b4c	0.086111635
221	0xbe7bfcc8	-0.24608147
222	0x3e8b63bb	0.27224526
223	0x3e99c40f	0.30032393
224	0x3d3f4218	0.04669389
225	0x3e7c7cea	0.24657026
226	0x3e8eea69	0.27913216
227	0x3d731630	0.05934733
228	0xbe517c12	-0.20457485
229	0x3df35eb4	0.118832976
230	0x3e341384	0.1758557
231	0x3e59a576	0.21254525
232	0xbe2f4217	-0.17115055
233	0xbe935692	-0.28776985
234	0xbe93cf0f	-0.2886891
235	0x3e38c57c	0.18044084
236	0x3d3354f8	0.043782204
237	0x3b293600	0.002581954
238	0xbdb2612a	-0.08709939
239	0x3e42e6ca	0.19033352
240	0xbe40b647	-0.18819533
241	0xbe97ccf9	-0.2964857
242	0x3d837454	0.06418672
243	0x3c98f570	0.018671721
244	0xbe357032	-0.1771858
245	0xbd846e90	-0.064664006
246	0x3d212238	0.039339274
247	0xbe0d1182	-0.1377621
248	0x3e66f4a2	0.22554258
249	0xbd991098	-0.07473868
250	0x3e522e6a	0.20525518
251	0xbe7979da	-0.24362889
252	0x3e8622d7	0.26198456
253	0x3c8f4960	0.017491043
254	0x3e5b2922	0.2140241
255	0x3e76347e	0.24043462

fc1.bias f4 [64]
0	0x3e84eda7	0.25962564
1	0xbe841a4b	-0.2580131
2	0xbe6dbf9e	-0.23217627
3	0xbdb6e546	-0.08930449
4	0xbcd6af30	-0.026206583
5	0xbd942c64	-0.07235029
6	0xbe400a70	-0.18753982
7	0x3dc156a0	0.094403505
8	0xbe61d736	-0.22054753
9	0x3c00e2a0	0.007866532
10	0x3d8b6a9c	0.068074435
11	0xba8df700	-0.0010831058
12	0xbd9bc9e0	-0.07606864
13	0xbd96420c	-0.07336816
14	0x3ea11bd3	0.3146654
15	0x3dcf5184	0.1012297
16	0xbdb552d2	-0.08853687
17	0xbdf7d56e	-0.12101255
18	0x3d0fde80	0.035124302
19	0x3c813880	0.015774012
20	0xbe6cfb12	-0.2314265
21	0x3e276700	0.16347885
22	0xbd9b1ed6	-0.07574241
23	0xbe28f9a8	-0.16501486
24	0x3e802a63	0.25032339
25	0xbdbbe0aa	-0.09173711
26	0xbe0177f8	-0.1264342
27	0x3e9b2ddd	0.30308428
28	0x3e48252e	0.19545433
29	0xbe87d59e	-0.26530164
30	0x3d2b7fb0	0.04186982
31	0x3e7c572e	0.24642631
32	0xbde0fcf4	-0.10985747
33	0xbe472efa	-0.19451514
34	0xbea158af	-0.31512973
35	0xbe0748b9	-0.13211335
36	0x3e9194eb	0.28433928
37	0x3d3dd680	0.04634714
38	0x3e798e16	0.24370608
39	0x3dae5eac	0.08514151
40	0x3e082274	0.13294393
41	0x3e1b9f14	0.15197402
42	0x3dcd9bac	0.10039458
43	0x3d4a6a08	0.049417526
44	0xbe171b25	-0.14756449
45	0x3d27c210	0.040956557
46	0xbe252a69	-0.1612946
47	0xbe304942	-0.17215446
48	0xbe9200ea	-0.28516322
49	0x3ddaab6c	0.106772274
50	0xbe742c8c	-0.23845118
51	0x3dc4582c	0.0958713
52	0x3e8b3435	0.27188268
53	0xbe891994	-0.26777327
54	0xbe8ddcda	-0.2770756
55	0x3e11a19c	0.14221805
56	0x3e958e75	0.2921025
57	0x3dc47330	0.09592283
58	0x3e68472e	0.22683403
59	0xbe4b0b77	-0.19828592
60	0xbe5dd964	-0.21664959
61	0x3e1c7500	0.15279007
62	0x3e4df44e	0.20112726
63	0x3ce5a740	0.028033853

fc2.weight f4 [32, 64]
0	0x3db7e99c	0.08980104
1	0xbd4e94c8	-0.050434858
2	0xbd8aa8fa	-0.06770511
3	0xbd8aedf0	-0.06783664
4	0x3d63bf88	0.05560258
5	0x3db41092	0.08792223
6	0xbd2cba8c	-0.042170092
7	0x3d77838c	0.060428187
8	0x3ddb858a	0.1071883
9	0xbc0bb2d0	-0.008526519
10	0x3d10eb6c	0.035380766
11	0x3d041adc	0.032252178
12	0x3dc84cd8	0.09780282
13	0x3dd8966a	0.10575564
14	0xbddbba4e	-0.10728894
15	0x3b826cc0	0.003980249
16	0x3deeb09e	0.11654781
17	0xbd9b0200	-0.07568741
18	0x3c8f8380	0.017518759
19	0xbc18d580	-0.009328246
20	0xbd585c6c	-0.052822515
21	0x3d77ed60	0.060529113
22	0xbdf64702	-0.120252624
23	0x3dd96bf4	0.106162935
24	0x3d8353f2	0.06412496
25	0xbcf2d770	-0.029643744
26	0x3d11a3d8	0.035556644
27	0x3ddee900	0.10884285
28	0x3dd1f370	0.1025151
29	0x3da1b886	0.07896523
30	0x3d15f074	0.036606267
31	0x3d862250	0.06549513
32	0xbc52c4a0	-0.012864262
33	0x3dd2fe7c	0.10302445
34	0x3db3245a	0.08747168
35	0xbd1a4600	-0.037664413
36	0xbdfd734e	-0.12375508
37	0x3cac32c8	0.021020308
38	0xbc836c30	-0.016042799
39	0x3dd37b9e	0.103263125
40	0xbbc03fc0	-0.0058669746
41	0xbc669920	-0.014074594
42	0xbd76c6fc	-0.06024836
43	0x3d91fb42	0.07128002
44	0x3df11b6e	0.1177281
45	0xbc84e228	-0.016221121
46	0x3cdc58a8	0.026897743
47	0x3d43a6cc	0.04776649
48	0xbdd999ac	-0.10625014
49	0x3dc0726c	0.09396824
50	0x3d7f2e84	0.06230022
51	0x3da79c06	0.08184056
52	0xbc3b91c0	-0.011448324
53	0x3d9258bc	0.07145831
54	0x3df9006e	0.12158285
55	0x3d346f8c	0.044051692
56	0xbdeff904	-0.11717418
57	0xbdd5ac32	-0.10433234
58	0xbdc8bcac	-0.09801611
59	0x3dead2a2	0.11465956
60	0x3dc11d24	0.09429386
61	0xbdc46cac	-0.0959104
62	0x3d861cd2	0.06548466
63	0x3c50d050	0.012744978
64	0x3d5c4ad0	0.053782284
65	0xbdc70050	-0.097168565
66	0xbd8af198	-0.067843616
67	0xbd8d7948	-0.06907898
68	0xbcb2aa50	-0.021809727
69	0x3d2244c0	0.039616346
70	0x3dfc7f42	0.1232896
71	0xbcb22788	-0.021747366
72	0x3bc18860	0.0059061497
73	0xbd457690	-0.048208773
74	0x3d764224	0.06012167
75	0x3d256b1c	0.04038535
76	0xbd3f1868	-0.046654135
77	0xbc9b4200	-0.01895237
78	0x3d5d3084	0.054001346
79	0x3d678fe0	0.056533694
80	0x3cf9d368	0.030496314
81	0x3de57e24	0.112057
82	0x3d0a6bf0	0.033794343
83	0x3d238ffc	0.039932236
84	0x3dc67338	0.09689945
85	0xbd5ebbac	-0.054378197
86	0x3cec21d0	0.028824717
87	0xbd08c700	-0.033392906
88	0x3d6127d4	0.054969624
89	0xbdffa74e	-0.12483083
90	0xbcd321d8	-0.025772974
91	0x3d4efcac	0.050533935
92	0x3d495f18	0.049162954
93	0xbce153b0	-0.027505726
94	0xbcb5c160	-0.022186935
95	0xbd8a8198	-0.06762999
96	0xbd203e74	-0.03912206
97	0xbd7a0230	-0.061037242
98	0x3df340f4	0.11877623
99	0xbda40786	-0.080092475
100	0xbd12edf8	-0.035871476
101	0xbcdac398	-0.026704594
102	0xbdfbf558	-0.12302655
103	0xbdaa8374	-0.08325854
104	0xbddd2424	-0.10797909
105	0x3df8e31a	0.12152691
106	0xbdfa934a	-0.122351244
107	0x3c660640	0.014039576
108	0xbd1a4e10	-0.037672102
109	0x3debe200	0.115177155
110	0xbd21c444	-0.039493814
111	0xbdd41ad0	-0.103566766
112	0xbdbd1f14	-0.09234443
113	0xbd4f4300	-0.050601006
114	0x3d9b705a	0.07589789
115	0xbd3707c8	-0.044685155
116	0xbd5c5d48	-0.053799897
117	0xbdb9df4a	-0.09075792
118	0xbdd9f08c	-0.10641584
119	0x3df90dcc	0.12160835
120	0xbdcd8958	-0.10035962
121	0xbdabbf1e	-0.08386062
122	0xbdd466cc	-0.103711694
123	0x3d8f0b58	0.069845855
124	0x3dcabd6a	0.09899409
125	0xbd891dae	-0.06695114
126	0xbdb90b82	-0.09035398
127	0xbd92dc46	-0.0717092
128	0xbd8dca0a	-0.069233015
129	0x3d8a90dc	0.06765911
130	0x3b82b2e0	0.0039886087
131	0x3ac10600	0.001472652
132	0x3d92d614	0.071697384
133	0xbd414540	-0.047185183
134	0x3c988c30	0.018621534
135	0x3dc5960c	0.0964776
136	0xbcd458d8	-0.02592127
137	0x3ceaafc8	0.028648272
138	0xbd0c2770	-0.034217298
139	0xbdea43f6	-0.11438744
140	0xbd192e58	-0.037397712
141	0x3d905076	0.07046597
142	0x3d3fa064	0.04678382
143	0xbd1512a4	-0.03639473
144	0x3a476500	0.0007606298
145	0xbdffd678	-0.124920785
146	0xbd7b6aa0	-0.061380982
147	0xbbabd620	-0.0052440315
148	0x3d8c584a	0.06852777
149	0xbdf460bc	-0.11932513
150	0xbb54e280	-0.0032483637
151	0xbdd73112	-0.10507406
152	0x3d18f448	0.03734234
153	0xbc8b1038	-0.016975507
154	0xbdc00d2e	-0.09377514
155	0xbd91b91c	-0.07115385
156	0x3dab167c	0.08353898
157	0x3d468f68	0.048476607
158	0xbd77ceec	-0.06050007
159	0xbd52676c	-0.051368162
160	0x3dbd8804	0.092544585
161	0x3d10e028	0.035370022
162	0xbc66b460	-0.014081091
163	0xbdd68c3e	-0.10475968
164	0xbd45c0cc	-0.04827957
165	0x3ce57238	0.028008565
166	0x3d87b7b8	0.066268384
167	0x3da3912a	0.07986672
168	0xbdcd1bc6	-0.10015063
169	0xbddd2cc0	-0.10799551
170	0xbd81be12	-0.06335081
171	0x3cb8d670	0.02256319
172	0xbdcd0d7c	-0.100123376
173	0xbd76e904	-0.060280815
174	0x3d8e4d9e	0.06948398
175	0xbdb85c24	-0.090019494
176	0x3cbf75e8	0.023371652
177	0xbd172c7c	-0.036907658
178	0xbd89defc	-0.06731984
179	0xbd5a95cc	-0.053365514
180	0xbddfb6ae	-0.10923515
181	0xbd7784c4	-0.06042935
182	0x3cfcb3f0	0.03084752
183	0x3c3c71b0	0.011501715
184	0x3db2dfe0	0.08734107
185	0x3dd2360e	0.10264216
186	0xbdbc29de	-0.09187673
187	0x3db233f8	0.087013185
188	0xbc789320	-0.015171796
189	0xbd9658fa	-0.0734119
190	0x3de277f4	0.110580355
191	0x3dfe1bd2	0.1240765
192	0x39b9ba00	0.0003542453
193	0x3de2b5ee	0.110698566
194	0x3d26f924	0.040764943
195	0x3da62776	0.08112995
196	0xbd0f2010	-0.034942687
197	0xbde56d44	-0.112024814
198	0x3baaa740	0.005207926
199	0x3ca5f220	0.020257056
200	0xbd8f5fac	-0.0700067
201	0x3d68645c	0.056736335
202	0x3d66ff9c	0.05639611
203	0x3b861440	0.0040917695
204	0xbd56a858	-0.05240664
205	0xbc6e4a80	-0.014544129
206	0xbdf02940	-0.11726618
207	0xbdda72cc	-0.10666427
208	0x3dae2c6c	0.085045666
209	0x3ce7cab0	0.028294891
210	0x3ba31940	0.0049773753
211	0x3df9a6ac	0.12189993
212	0xbcbfd4c0	-0.023416877
213	0x3d8d0a3c	0.06886718
214	0x3c2701f0	0.010193333
215	0x3d238c38	0.039928645
216	0xbc3368c0	-0.010950267
217	0xbd7fc520	-0.062443852
218	0xbdb8e7fc	-0.090286225
219	0x3d8358ce	0.064134225
220	0x3cc3eab8	0.023915634
221	0xbbd59260	-0.0065176934
222	0x3d1789b0	0.036996543
223	0xbdb8b67e	-0.090191826
224	0x3dfb67c2	0.122756496
225	0x3db2774e	0.08714162
226	0x3dbd4922	0.092424646
227	0x3d2f3e20	0.042783856
228	0xbbb45760	-0.00550358
229	0x3d238264	0.039919272
230	0x3d5ef5a8	0.054433495
231	0x3c980278	0.018555865
232	0x3d4e563c	0.05037521
233	0x3de782b8	0.113042295
234	0x3dd1daf2	0.10246839
235	0x3d8a17a2	0.06742789
236	0x3d5cc384	0.053897396
237	0x3d743058	0.059616417
238	0x3bbd6240	0.0057795346
239	0x3d9d0a30	0.07667959
240	0x3c623620	0.01380685
241	0x3de6ba72	0.1126603
242	0xbddd7f30	-0.10815275
243	0xbd44c704	-0.04804136
244	0x3d3b8768	0.04578343
245	0x3d8c7a48	0.06859261
246	0xbd566080	-0.052338123
247	0x3dd7284a	0.105057314
248	0x3d00a808	0.031410247
249	0x3c38d9d0	0.011282399
250	0x3c81db38	0.015851602
251	0xbd98e65a	-0.07465811
252	0x3dd42a02	0.10359575
253	0x3cf2c090	0.029632837
254	0x3d32b02c	0.04362504
255	0xbcd38ac0	-0.025822997

fc2.bias f4 [32]
0	0xbded59d6	-0.115894005
1	0xbd886236	-0.06659357
2	0xbd01bd54	-0.031674698
3	0x3d7c394c	0.06157808
4	0xbd2bcc80	-0.041943073
5	0xbddfc5ea	-0.10926421
6	0xbdbd8d2c	-0.09255442
7	0x3daae68a	0.08344753
8	0xbc60cff0	-0.013721451
9	0x3c3b5150	0.011432961
10	0xbd798c30	-0.06092471
11	0xbce05a20	-0.027386725
12	0xbd9dfcea	-0.07714255
13	0xbd32d248	-0.04365757
14	0x3dab0a5e	0.08351587
15	0x3cf3bf08	0.029754177
16	0x3d4fb318	0.050707906
17	0xbdde7106	-0.10861401
18	0x3ca72e50	0.020407826
19	0xbcc216a0	-0.023692429
20	0x3c78ea30	0.015192553
21	0x3da90a9e	0.08253978
22	0xbd89b498	-0.06723899
23	0x3d4a138c	0.049335048
24	0xbdca1702	-0.0986767
25	0x3cbc9598	0.02302055
26	0xbdd44c8a	-0.10366161
27	0x3d3de1ec	0.046358034
28	0x3da416de	0.08012174
29	0x3da5c40e	0.08094035
30	0xbd87bdac	-0.06627974
31	0x3dca6294	0.098820835

fc3.weight f4 [16, 32]
0	0xbd79ac8e	-0.060955577
1	0xbbc71080	-0.006074965
2	0x3b1195c0	0.0022214502
3	0x3e30afab	0.17254512
4	0x3e0e719d	0.13910528
5	0xbd022aac	-0.031778976
6	0x3d09a588	0.03360513
7	0x3e195f69	0.14977802
8	0x3e2c0cad	0.1680171
9	0xbdf094ea	-0.11747153
10	0x3c44ec80	0.012019277
11	0xbe06648e	-0.13124296
12	0xbdeea5b4	-0.11652699
13	0x3d9f2a52	0.07771744
14	0x3db02336	0.08600466
15	0xbd8e0ca5	-0.069360055
16	0xbe274e6b	-0.16338508
17	0x3e22a987	0.15884982
18	0xbe104c90	-0.14091706
19	0x3da70fea	0.08157332
20	0x3d2957b8	0.04134342
21	0xbe2d97ce	-0.1695244
22	0x3d40a3b4	0.04703112
23	0x3d8574ea	0.0651644
24	0xbd372494	-0.044712618
25	0x3e20f4a1	0.15718319
26	0x3db02036	0.08599894
27	0x3d7f577c	0.06233929
28	0x3d200b10	0.03907305
29	0xbdaf0531	-0.08545912
30	0xbcfee9e8	-0.031117395
31	0x3d944770	0.07240188
32	0x3e31c0e1	0.17358734
33	0xbdaf5603	-0.08561327
34	0x3db2a0f2	0.08722104
35	0x3e30f29f	0.17280053
36	0xbe016d13	-0.12639265
37	0xbc91ea28	-0.01781185
38	0xbdd84d93	-0.10561671
39	0xbd00713c	-0.03135799
40	0xbe097127	-0.1342207
41	0x3e020c53	0.12700014
42	0xbe33aaf1	-0.17545678
43	0x3d289490	0.041157305
44	0xbdb97342	-0.09055187
45	0xbe0c4f62	-0.13702157
46	0x3d5a4a3c	0.05329345
47	0xbd4dd1d8	-0.05024895
48	0xbe23b93f	-0.15988635
49	0x3e024f9f	0.12725686
50	0x3bc15940	0.005900532
51	0xbdc21d3b	-0.094782315
52	0xbc117180	-0.008877158
53	0x3dd1e77e	0.10249232
54	0x3d6db8b0	0.05803746
55	0x3e0ababf	0.135478
56	0x3c7e9ba0	0.015540034
57	0xbdad4a96	-0.08461492
58	0xbd656340	-0.056002855
59	0xbd958ea1	-0.07302595
60	0xbdc1ee8d	-0.09469328
61	0xbe2d4ea0	-0.16924524
62	0x3c13b4e0	0.009015292
63	0xbcab8350	-0.020936638
64	0x3e014539	0.12624063
65	0xbc583d30	-0.013198182
66	0x3c9dcd70	0.019263
67	0x3e1413bb	0.14460652
68	0xbbf66660	-0.0075195283
69	0x3c3cf3c0	0.011532724
70	0xbb832a00	-0.0040028095
71	0x3da69c8e	0.08135329
72	0xbccf07c8	-0.025272265
73	0xbe32a3a9	-0.17445244
74	0x3df09fd6	0.11749236
75	0xbce5dc88	-0.028059259
76	0x3d69ee98	0.057112306
77	0x3e187729	0.14889206
78	0xbc960b18	-0.018315837
79	0xbd10c6ac	-0.03534572
80	0x3e183e3b	0.14867489
81	0xbe2e6fd2	-0.17034844
82	0xbd322ef4	-0.04350181
83	0xbd83b1ec	-0.0643042
84	0xbe1d5be9	-0.15367092
85	0x3e282e29	0.16423859
86	0x3d99ea7e	0.07515429
87	0xbd8d80b4	-0.06909314
88	0x3d1949dc	0.037423953
89	0xbe2f81b4	-0.17139322
90	0xbd19caa0	-0.037546754
91	0xbdc0d8bc	-0.09416339
92	0xbd52966c	-0.051412985
93	0xbdbe5c35	-0.09294931
94	0x3e0b4855	0.13601811
95	0x3c4af0d0	0.012386516
96	0xbc8dce08	-0.017310157
97	0x3db5da82	0.08879568
98	0x3dec27a2	0.11530997
99	0x3d9a47c6	0.07533221
100	0xbe0b1d64	-0.1358543
101	0xbd5308ec	-0.05152218
102	0x3d9dc742	0.07704021
103	0x3da3151e	0.07963012
104	0xbe25f6d3	-0.16207437
105	0x3e020375	0.12696631
106	0x3dd31e6e	0.103085384
107	0xbdf71119	-0.12063808
108	0x3e035aeb	0.12827651
109	0xbc6fb530	-0.014630601
110	0xbda99d49	-0.08281953
111	0xbe0dce6a	-0.13848272
112	0x3d96c59a	0.07361908
113	0xbd742b1c	-0.059611425
114	0xbe1d2528	-0.15346205
115	0x3d922c96	0.0713741
116	0x3d358814	0.044319227
117	0xbe1cc7df	-0.1531062
118	0xbd056970	-0.032571256
119	0xbd2b31f4	-0.041795686
120	0x3da22bee	0.07918535
121	0x3e29042b	0.16505496
122	0x3dc2f99e	0.09520267
123	0xbe1073d5	-0.14106686
124	0xbe1f2bd4	-0.15544063
125	0xbe1f97c3	-0.15585236
126	0xbe1cff1f	-0.15331696
127	0xbdd6756d	-0.10471616
128	0x3d9eceba	0.07754274
129	0x3cf29ea8	0.029616669
130	0xbe143cb4	-0.14476281
131	0x3d0baefc	0.034102425
132	0x3cba5ee0	0.022750318
133	0xbd423e6c	-0.04742281
134	0xbcca3c60	-0.024686992
135	0xbe023cc9	-0.127185
136	0xbe2a746c	-0.16645974
137	0x3d2b4bb0	0.041820228
138	0x3ca1b8c0	0.019741416
139	0xbe2db3dd	-0.16963144
140	0xbc62efa0	-0.013851076
141	0x3d436658	0.047705024
142	0xbe096d30	-0.13420558
143	0x3b957560	0.0045611113
144	0xbd524fa0	-0.051345468
145	0xbe154441	-0.14576818
146	0x3d9e1b92	0.07720102
147	0x3e09fb0d	0.13474675
148	0x3d7bfc4c	0.061519906
149	0xbdc3000c	-0.09521493
150	0xbd859b3e	-0.06523751
151	0x3e0f118b	0.13971536
152	0xbe25795a	-0.16159573
153	0xbd56f0f8	-0.0524759
154	0xbdd775e6	-0.10520534
155	0xbd398424	-0.045292035
156	0xbdf180be	-0.11792134
157	0xbd0a7704	-0.03380491
158	0xbe2af0d5	-0.16693433
159	0x3d522c7c	0.051311955
160	0xbd4bc898	-0.049751848
161	0x3cbe5268	0.023232654
162	0xbe0bc5ea	-0.13649717
163	0xbde180a1	-0.11010862
164	0x3dd5b1ba	0.10434289
165	0xbda258f6	-0.07927124
166	0x3d7c994c	0.061669633
167	0x3e1df9a1	0.15427257
168	0xbd9dc3dd	-0.077033736
169	0xbe025749	-0.12728609
170	0x3e30101f	0.1719365
171	0x3e0d314d	0.13788338
172	0xbb418280	-0.0029527247
173	0x3d924224	0.071415216
174	0xbd20694c	-0.03916292
175	0xbdea18e4	-0.11430529
176	0x3c53d310	0.012928739
177	0x3b18a040	0.0023288876
178	0x3d153090	0.036423266
179	0xbd8937d4	-0.067001015
180	0xbe0c2dac	-0.13689297
181	0xbddd04df	-0.10791945
182	0x3d6b303c	0.057419047
183	0xbe154df0	-0.14580512
184	0x3e297487	0.16548358
185	0x3bb66c20	0.0055670887
186	0x3dfecd1a	0.12441464
187	0x3d32cda0	0.04365313
188	0xbdd57f30	-0.1042465
189	0xbc873908	-0.016506687
190	0xbc96f0d0	-0.018425375
191	0x3d8532aa	0.06503804
192	0xbe2dea77	-0.16983972
193	0xbc8b8008	-0.017028823
194	0x3e175ce3	0.14781527
195	0xbdee5b6d	-0.11638532
196	0x3d88d97c	0.06682107
197	0x3dbd898e	0.09254752
198	0xbd83ce24	-0.064358026
199	0x3d026114	0.031830862
200	0x3bde6420	0.006786838
201	0xbcc69e00	-0.024245262
202	0x3df8ff0a	0.1215802
203	0x3d6696d0	0.05629617
204	0x3dd597be	0.10429333
205	0xbd74e274	-0.059786275
206	0x3da0f59a	0.07859345
207	0x3cd04058	0.025421306
208	0x3bf500e0	0.007476911
209	0xbe2e607b	-0.17028992
210	0xbe1dc47a	-0.15406981
211	0x3e128dbd	0.14311881
212	0xbc860a50	-0.01636234
213	0xbd002588	-0.031285793
214	0xbb8c4340	-0.0042804778
215	0xbe1b6aff	-0.15177535
216	0xb9b86000	-0.0003516674
217	0x3d9f967a	0.07792373
218	0xb9edbe00	-0.00045345724
219	0x3d84d34e	0.06485616
220	0xbe2d5eb5	-0.16930659
221	0xbdd786d0	-0.1052376
222	0xbda07857	-0.07835453
223	0x3cbc3d10	0.022978336
224	0xbde78e57	-0.11306446
225	0xbc364ac0	-0.01112622
226	0x3e03885f	0.1284499
227	0x3e252f27	0.16131268
228	0x3e12412d	0.14282675
229	0x3de8daee	0.113698825
230	0xbd4bd000	-0.04975891
231	0xbca16540	-0.0197016
232	0x3d96fe3a	0.073727086
233	0xbdcbc687	-0.099499755
234	0x3cc29ef8	0.023757443
235	0x3e2c3c7d	0.1681995
236	0xbe2b0600	-0.16701508
237	0xbd7ecad2	-0.062205143
238	0x3daa3a96	0.08311956
239	0xbd342bb0	-0.043986976
240	0xbde9f463	-0.11423566
241	0x3d696308	0.05697921
242	0xbdab9140	-0.083773136
243	0x3d5fde9c	0.054655656
244	0x3de9e8d6	0.11421363
245	0xbdd1e7da	-0.102493
246	0xbd9db09b	-0.076997004
247	0x3e244001	0.1604004
248	0xbe216682	-0.1576176
249	0x3de93dfa	0.11388774
250	0x3ce244e8	0.027620748
251	0xbe194ffe	-0.14971921
252	0x3d833e90	0.06408417
253	0xbb96e180	-0.0046045184
254	0x3e27a1b3	0.16370277
255	0xbca705c8	-0.020388499

fc3.bias f4 [16]
0	0x3b7e7e40	0.0038832575
1	0xbd994a15	-0.07484833
2	0x3e055a95	0.13022836
3	0xbe1abd77	-0.15111338
4	0xbd855e2d	-0.06512103
5	0x3d92b44e	0.07163297
6	0xbde6996d	-0.112597324
7	0x3e12038d	0.14259167
8	0xbe28a645	-0.16469677
9	0x3e1fcf87	0.15606509
10	0xbd74dde0	-0.05978191
11	0x3d8885ca	0.06666143
12	0xbde25d39	-0.11052937
13	0x3c0a97a0	0.008459002
14	0xbd1b1698	-0.037863344
15	0xbd078200	-0.033082962

fc4.weight f4 [1, 16]
0	0xbc636aa0	-0.013880402
1	0x3cdbef50	0.026847512
2	0xbe1620de	-0.14660975
3	0x3e7ab594	0.24483329
4	0xbdad2d14	-0.084558636
5	0x3e7e8e22	0.24858907
6	0xbbb4fc00	-0.005523205
7	0xbcb2cce0	-0.021826208
8	0xbdcf8764	-0.101332456
9	0xbc5ca4e0	-0.013467044
10	0xbe6a507c	-0.22882265
11	0xbd2a5d68	-0.041592985
12	0x3e3d9848	0.18515122
13	0xbe0cd4b2	-0.13753012
14	0x3e7fd486	0.24983415
15	0x3e0c735c	0.13715881
