obsolete/training/models/deep_agent_episode_100.pth (torch, 16692 bytes, 7 tensors)

fc1.weight f4 [64, 10]
0	0x3e244196	0.16040644
1	0x3e19cf70	0.15020537
2	0x3e42a92a	0.19009843
3	0x3e45edd2	0.19329002
4	0xbc1d65e0	-0.009606808
5	0xbd0b6dd8	-0.034040302
6	0xbd8d83b0	-0.06909883
7	0xbbdf2540	-0.0068098605
8	0x3e554932	0.20828703
9	0x3ca7e470	0.02049467
10	0xbe0f8283	-0.1401463
11	0x3e717d32	0.23582914
12	0x3e104bca	0.14091411
13	0xbc634800	-0.013872147
14	0x3e447886	0.19186601
15	0xbe0fdac7	-0.140483
16	0x3e2bd5ae	0.16780731
17	0xbe1257ac	-0.14291257
18	0xbd464970	-0.04840988
19	0x3c0be0a0	0.0085374415
20	0xbd557398	-0.052112192
21	0x3e877335	0.26455083
22	0x3ce42d70	0.027853698
23	0xbd2a3108	-0.041550666
24	0xbdffcc0c	-0.12490091
25	0x3e8f3b31	0.27974847
26	0x3e5e67b2	0.21719244
27	0x3e9e3603	0.30900583
28	0xbe83bdc5	-0.2573072
29	0xbe9ff73e	-0.31243318
30	0x3d5c2940	0.053750277
31	0x3e64f44a	0.22358814
32	0x3e85ff73	0.26171455
33	0x3e1efd22	0.1552625
34	0x3e976521	0.29569343
35	0xbe36bd43	-0.17845635
36	0xbe81c674	-0.2534672
37	0xbc263740	-0.010145009
38	0xbd675188	-0.05647424
39	0x3c569440	0.013096869
40	0xb92d3000	-0.00016516447
41	0x3ca73ac0	0.020413756
42	0x3d6ed408	0.058307678
43	0x3dd63a98	0.104603946
44	0xbd679850	-0.05654174
45	0x3e0142e4	0.12623173
46	0xbe8cee7a	-0.27525693
47	0xbe6372e6	-0.22211799
48	0x3e34a3ba	0.17640582
49	0x3e4f91a2	0.20270398
50	0xbe0a70aa	-0.1351954
51	0xbd2de060	-0.04245031
52	0x3e4f9e4a	0.20275226
53	0xbe96e839	-0.29474047
54	0x3e55f532	0.20894316
55	0x3ddba7d8	0.10725373
56	0x3e498a7a	0.19681731
57	0xbdb59aa4	-0.08867386
58	0xbe0fd565	-0.14046247
59	0x3e0110d0	0.1260407
60	0x3d992378	0.07477468
61	0x3e10c996	0.14139399
62	0xbe3b6f62	-0.18304208
63	0xbe3e6db1	-0.18596531
64	0x3e6e560a	0.23275009
65	0x3e567f7a	0.20947066
66	0x3d81ffe4	0.063476354
67	0xbd2270f8	-0.039658517
68	0x3e7c1cfe	0.24620435
69	0xbd08efc0	-0.03343177
70	0xbe9649db	-0.29353222
71	0xbbee2540	-0.007267624
72	0xbdddab04	-0.10823634
73	0x3dfc4c40	0.12319231
74	0xbe79d93c	-0.24399275
75	0xbe46c167	-0.19409715
76	0x3e227f52	0.15868881
77	0xbe97573c	-0.29558742
78	0x3c5ae800	0.013360977
79	0xbe99a60d	-0.300095
80	0x3d838f98	0.06423873
81	0xbd9be1f8	-0.076114595
82	0x3e5f3a5e	0.21799609
83	0x3e7e64a2	0.24843076
84	0xbe45dac1	-0.19321729
85	0xbd931136	-0.07181017
86	0x3e886275	0.26637617
87	0x3e818aaf	0.2530112
88	0x3e6b2262	0.22962335
89	0x3d84c160	0.06482196
90	0x3e846f51	0.25866178
91	0xbddf7114	-0.1091024
92	0xbe97e3d6	-0.29666013
93	0xbd2581a8	-0.040406853
94	0xbdc2de14	-0.09515014
95	0x3e50b8b2	0.20382956
96	0xbe4e4d82	-0.20146754
97	0xbc49d860	-0.012319654
98	0x3e7bf69a	0.2460579
99	0xbe95d02b	-0.29260382
100	0xbd46fcd8	-0.048580974
101	0x39e6bc00	0.0004400909
102	0x3d0414b0	0.03224629
103	0xbe507ef2	-0.20360926
104	0xbe89fca7	-0.2695057
105	0x3e834ae3	0.25643072
106	0xbe801fc0	-0.25024223
107	0x3dd0ead0	0.10201037
108	0xbda9a4ec	-0.082834095
109	0xbdc71950	-0.09721625
110	0xbdcef648	-0.10105568
111	0xbe245001	-0.16046144
112	0x3d48fc70	0.04906887
113	0xbe9b7cc8	-0.30368638
114	0xbe92ad6a	-0.2864793
115	0xbe8eef68	-0.27917027
116	0xbc8bde20	-0.01707369
117	0x3d72cc98	0.059277147
118	0x3dff0940	0.12452936
119	0xbdd8769c	-0.10569498
120	0x3e05279e	0.13003394
121	0xbe7a0d67	-0.24419175
122	0xbcd43e20	-0.02590853
123	0xbcb37670	-0.021907061
124	0x3d9e6314	0.077337414
125	0xbe12b580	-0.1432705
126	0xbe8345fb	-0.25639328
127	0xbe6b4a88	-0.2297765
128	0x3e8504d3	0.25980243
129	0xbe369566	-0.17830428
130	0xbe47149a	-0.19441453
131	0xbe8c3235	-0.27382055
132	0xbe3dd5b4	-0.18538553
133	0x3e845239	0.2584398
134	0xbe77e188	-0.24207127
135	0x3da07570	0.078348994
136	0xbe2752bb	-0.16340153
137	0x3d320f08	0.043471366
138	0x3e97f1e1	0.29676726
139	0x3db4c474	0.08826533
140	0x3e4f1e92	0.20226505
141	0xbe374654	-0.17897922
142	0xbe16701d	-0.14691205
143	0xbe35c64d	-0.17751427
144	0x3e2af23a	0.16693965
145	0x3cde6210	0.02714637
146	0xbe4dae92	-0.20086125
147	0xbe1d40af	-0.15356706
148	0x3d853b4c	0.065054506
149	0x3d0b1530	0.033955753
150	0xbdb65b62	-0.08904149
151	0x3e821b19	0.254113
152	0xbe74a912	-0.2389262
153	0xbe95ca3e	-0.2925586
154	0x3e12294e	0.14273569
155	0x3de1bf88	0.1102286
156	0x3e84fcc1	0.25974086
157	0xbe0bfe24	-0.13671166
158	0x3d8276e0	0.0637033
159	0xbd3ddb50	-0.04635173
160	0x3e2c0a1a	0.16800728
161	0xbdc941fc	-0.09827039
162	0x3e7ef176	0.24896798
163	0xbd674c50	-0.05646926
164	0x3d9fc78c	0.078017324
165	0xbdf93cec	-0.12169823
166	0x3e1a6742	0.15078452
167	0x3e5f4866	0.21804962
168	0xbc3ea560	-0.011636108
169	0xbe577ac0	-0.21042919
170	0xbe9f9454	-0.31167853
171	0x3e6f1902	0.23349383
172	0x3d58a2c0	0.052889585
173	0x3e7c1d2e	0.24620506
174	0xbe515eba	-0.20446292
175	0x3dd772a0	0.1051991
176	0xbe900da6	-0.28135413
177	0x3e913445	0.2836019
178	0xbc6ba320	-0.014382154
179	0xbe7a20e4	-0.2442661
180	0x3e838c71	0.25693086
181	0xbe08cf87	-0.13360415
182	0x3e78b082	0.24286082
183	0xbd25f120	-0.040513158
184	0xbe0b0506	-0.13576135
185	0x3e8d47b5	0.2759377
186	0xbe3abae3	-0.18235354
187	0x3e8cd509	0.27506283
188	0x3e9fe2ef	0.31227824
189	0x3dce6c18	0.10079211
190	0xbdcf6816	-0.10127275
191	0x3e8efc1b	0.27926716
192	0x3e8bf345	0.27334037
193	0xbdfa6a30	-0.12227285
194	0xbe265a3c	-0.16245359
195	0x3e3f2ac6	0.1866866
196	0x3d8faca8	0.070153534
197	0x3e90e2c3	0.28298005
198	0x3e66f5fa	0.2255477
199	0xbe34c6ae	-0.17653915
200	0x3c904b80	0.017614126
201	0x3e29ce96	0.16582713
202	0x3e20b9a8	0.15695822
203	0x3ea096ff	0.313652
204	0x3e0b9126	0.13629588
205	0x3e236ece	0.15960237
206	0xbe32dcbc	-0.17467016
207	0xbd394e40	-0.04524064
208	0xbe02b26e	-0.12763378
209	0xbe3109b7	-0.17288862
210	0xbdc3f36e	-0.09567915
211	0x3ea13361	0.31484511
212	0xbce58320	-0.028016627
213	0xbd6ebbb0	-0.05828446
214	0xbced0420	-0.028932631
215	0x3e40829a	0.1879982
216	0xbe2214cf	-0.1582825
217	0xbe8513ef	-0.2599177
218	0xbe566124	-0.20935494
219	0x3e92eb0d	0.28694955
220	0x3df8ec14	0.12154403
221	0xbe48a41e	-0.19593856
222	0xbe3b4cd8	-0.18291032
223	0x3e1f1844	0.155366
224	0xbd9c6334	-0.07636109
225	0xbe548a21	-0.20755817
226	0xbe9891c0	-0.29798698
227	0x3e81c5f3	0.25346336
228	0xbe906637	-0.28202984
229	0xbc10b920	-0.0088332
230	0x3c8a3930	0.016872972
231	0x3e7759c2	0.24155334
232	0xbe702ec6	-0.23455343
233	0x3e9540b5	0.2915093
234	0x3e6daf5a	0.23211423
235	0xbdfd3dfe	-0.1236534
236	0xbe96f9a6	-0.29487342
237	0xbddf9b64	-0.1091831
238	0x3d5f8e60	0.05457914
239	0x3e351cec	0.17686814
240	0x3e95172d	0.29119244
241	0x3deb732c	0.11496577
242	0x3e9c67d9	0.3054798
243	0xbd1843f8	-0.037174195
244	0x3db7d1c8	0.089755595
245	0x3ea1dba3	0.31612882
246	0x3dfca76c	0.12336621
247	0x3ba7b880	0.0051184297
248	0x3e4b15d6	0.19832548
249	0x3e025e6a	0.12731329
250	0xbe3175e2	-0.17330125
251	0xbe2c2f95	-0.16815026
252	0x3e878e03	0.26475534
253	0xbdf7149c	-0.12064478
254	0x3d92a370	0.071600795
255	0x3e0d940a	0.13826004

fc1.bias f4 [64]
0	0xbe80423b	-0.2505053
1	0x3d36d3b0	0.044635475
2	0x3e8e7fa1	0.27831748
3	0xbe6f3f27	-0.23363934
4	0xbd289e70	-0.041166723
5	0xbe715d0e	-0.23570654
6	0x3e1b81d4	0.15186244
7	0xbe7c3f20	-0.24633455
8	0xbe54fe56	-0.20800146
9	0xbda22d0c	-0.07918748
10	0xbe999c90	-0.3000226
11	0xbdd5612a	-0.10418923
12	0x3d223d08	0.039608985
13	0x3e6a5c5e	0.22886798
14	0xbe50e27b	-0.20398895
15	0xbd8b8360	-0.06812167
16	0x3e62e2ba	0.22156802
17	0xbd02a730	-0.031897724
18	0xbda71474	-0.08158198
19	0x3e03fc76	0.12889275
20	0x3e402f6e	0.18768093
21	0x3e06afe0	0.13153028
22	0xbe3e975b	-0.18612425
23	0xbe217ae0	-0.1576953
24	0xbe0f1076	-0.13971123
25	0x3d4a9678	0.049459904
26	0x3ea19ec3	0.31566438
27	0x3e59a6ba	0.21255007
28	0x3e1f378c	0.15548533
29	0xbe5acc74	-0.21367055
30	0x3e8b708f	0.27234313
31	0x3d9ba934	0.07600632
32	0x3d127240	0.03575349
33	0x3e6d2522	0.23158696
34	0x3e8d73d9	0.27627447
35	0x3e5b86d2	0.21438149
36	0x3db2fb54	0.08739343
37	0x3e9c009f	0.30469224
38	0x3e6d3f6a	0.23168722
39	0xbe974746	-0.29546565
40	0xbe95441e	-0.29153532
41	0xbd8445b4	-0.06458607
42	0xbd467438	-0.04845068
43	0x3e2cfb12	0.1689265
44	0x3e973171	0.29529908
45	0x3e411dc6	0.18859014
46	0x3e865703	0.2623826
47	0x3dfdaf1c	0.12386915
48	0x3e3c1966	0.18369064
49	0x3d2a8418	0.04162988
50	0xbe8cafe4	-0.27477944
51	0x3e1b67a0	0.15176249
52	0x3e1a6d40	0.15080738
53	0x3e0466b0	0.12929797
54	0x3d373bb8	0.044734687
55	0x3e453626	0.19258937
56	0x3e13a7fe	0.14419553
57	0x3ddd5dc8	0.10808903
58	0xbd0f3108	-0.03495887
59	0x3de565f8	0.112010896
60	0xbd1bd770	-0.038047254
61	0xbc0147c0	-0.007890642
62	0x3e20cfb8	0.15704238
63	0x3e369382	0.17829707

fc2.weight f4 [32, 64]
0	0xbc173ef0	-0.009231314
1	0x3de52864	0.111893445
2	0xbda741c4	-0.08166841
3	0x3b7de840	0.0038743168
4	0xbde9b2e0	-0.11411071
5	0x3c883628	0.016627386
6	0x3c94f500	0.018183231
7	0xbc422f10	-0.011852041
8	0x3d19adb0	0.037519157
9	0xbdc58d70	-0.09646118
10	0xbdf1837e	-0.11792658
11	0xbd8d8f70	-0.06912124
12	0x3d04c644	0.032415643
13	0xbd01b450	-0.0316661
14	0x3d868622	0.065685526
15	0xbd2cb6d0	-0.04216653
16	0xbdbf355e	-0.09336351
17	0xbc02d2b0	-0.007984802
18	0x3c41a0d0	0.011818126
19	0xbdd4f38c	-0.103980154
20	0x3d44d6ac	0.04805629
21	0x3d12a888	0.035805255
22	0x3dc35604	0.095378906
23	0x3dee90b0	0.11648691
24	0x3dc7a18c	0.097476095
25	0xbdaa898c	-0.08327016
26	0x3c047920	0.008085519
27	0x3dca395e	0.09874223
28	0xbc6b4f40	-0.014362156
29	0xbd579b14	-0.05263813
30	0xbd6169ec	-0.055032656
31	0x3d639848	0.05556515
32	0x3c380ee0	0.011234015
33	0x3d9a13b0	0.07523286
34	0x3d802c22	0.06258418
35	0xbd5a2598	-0.05325851
36	0x3db524de	0.088449225
37	0xbd23647c	-0.03989075
38	0x3c0b8440	0.008515418
39	0xbce8f378	-0.028436407
40	0xbdd13b72	-0.102164164
41	0x3d576fc0	0.052596807
42	0xbda79218	-0.08182162
43	0xbcf9caa0	-0.030492127
44	0x3d065d88	0.032804042
45	0xbdcd34ee	-0.10019861
46	0x3d94445c	0.07239601
47	0xbdbc2e12	-0.09188475
48	0x3df0b8be	0.11753987
49	0xbd847f9c	-0.06469652
50	0x3d81a31c	0.06329939
51	0x3b7e7240	0.0038825423
52	0x3d8f53d6	0.06998412
53	0x3d96de50	0.073666215
54	0x3d068b70	0.03284782
55	0xbd411738	-0.047141284
56	0x3dcc1b86	0.09966187
57	0xbc53c5d0	-0.01292558
58	0x3d853a4c	0.0650526
59	0x3df5c746	0.12000899
60	0xbd7df928	-0.062005192
61	0x3d0718fc	0.03298281
62	0x3d5985cc	0.053106114
63	0xbdd12e30	-0.10213888
64	0xbcde1408	-0.027109161
65	0xbd3d829c	-0.046267137
66	0xbd8ee6ea	-0.06977637
67	0xbcfe1328	-0.031014994
68	0xbc9fd268	-0.01950951
69	0xbd7604dc	-0.060063228
70	0x3df598fa	0.119920686
71	0xbd884fcc	-0.06655845
72	0x3ddad23c	0.1068463
73	0xbd8e6574	-0.069529444
74	0xbddcab02	-0.10774805
75	0x3d6bd6c0	0.05757785
76	0xbcd9e698	-0.026599213
77	0x3d9b6038	0.07586712
78	0x3dd494ca	0.10379942
79	0xbb941e20	-0.0045201927
80	0x3dabe292	0.08392824
81	0x3d765c44	0.060146585
82	0xbcd8af38	-0.026450738
83	0xbd19834c	-0.03747873
84	0xbd496f34	-0.049178317
85	0x3d62f410	0.055408537
86	0x3c8fe3f0	0.017564744
87	0x3c740560	0.01489386
88	0x3a97eb00	0.0011590421
89	0x3dee992a	0.116503075
90	0xbda83a24	-0.082142144
91	0xbdbd6142	-0.09247066
92	0xbdf5d180	-0.120028496
93	0x3c16fe10	0.009215847
94	0x3d6a9978	0.057275265
95	0xbdbabac2	-0.091176525
96	0xbd9f4e7a	-0.0777864
97	0xbdab0356	-0.08350246
98	0xbd9f4976	-0.077776834
99	0xbd2e9264	-0.042620078
100	0x3db0a840	0.08625841
101	0xbc123c10	-0.008925453
102	0xbdbeef52	-0.093229905
103	0x3d6a4840	0.05719781
104	0xbccaf4d8	-0.024774954
105	0x3a8d2180	0.001076743
106	0xbde54f3c	-0.111967534
107	0xbd921666	-0.071331784
108	0xbc6a5d70	-0.014304504
109	0xbd5a0630	-0.053228557
110	0xbdba4edc	-0.090970725
111	0x3d8d3782	0.06895353
112	0x3cc2abe0	0.023763597
113	0xbde70a34	-0.11281243
114	0xbdd417b4	-0.103560835
115	0xbdc82078	-0.09771818
116	0xbc979b40	-0.018506646
117	0xba283600	-0.0006416738
118	0x3d57972c	0.052634403
119	0x3dcfa544	0.10138944
120	0x3d8c4a3c	0.068500966
121	0x3d64a198	0.05581817
122	0x3d5a83b4	0.05334826
123	0xbd565b5c	-0.05233322
124	0xbce8dbf0	-0.028425187
125	0xbdaf357c	-0.08555123
126	0x3de7a2ae	0.113103256
127	0xbb9b6ba0	-0.0047430545
128	0x3d535fd0	0.051605046
129	0x3df9a15a	0.121889785
130	0xbc6091e0	-0.013706654
131	0xbd0e7434	-0.03477879
132	0xbd218c24	-0.03944029
133	0x3c84fee0	0.016234815
134	0x3d9d77ae	0.07688843
135	0x3b382e80	0.0028103888
136	0x3dfa9a30	0.1223644
137	0xbde14ca8	-0.11000949
138	0xbd74f2a0	-0.059801698
139	0x3dd9a3e6	0.10626964
140	0xbde3f186	-0.11130051
141	0xbd24224c	-0.04007177
142	0xbc958388	-0.018251196
143	0x3d75bb68	0.059993178
144	0x3d8f4b96	0.06996839
145	0xba434000	-0.00074481964
146	0xbc416d50	-0.011805847
147	0x3a55be00	0.00081536174
148	0xbdae2570	-0.085032344
149	0xbc23bc40	-0.009993613
150	0xbdff56dc	-0.12467739
151	0xbcd43f58	-0.02590911
152	0x3bdc6420	0.006725803
153	0xbdadeec6	-0.08492808
154	0xbd2ad9d0	-0.04171163
155	0xbd6db734	-0.058036044
156	0x3dcc0b44	0.09963086
157	0xbcca9ab8	-0.024731979
158	0xbb0c0200	-0.0021363497
159	0xbdf15b86	-0.11785035
160	0x3db89d26	0.09014349
161	0xbdd6c558	-0.10486859
162	0xbda81b38	-0.082083166
163	0x3d9f7398	0.0778572
164	0xbdc5c5f2	-0.09656896
165	0x3d614a60	0.05500257
166	0xbd28b1f0	-0.04118532
167	0x3d8b92c4	0.06815103
168	0xbc9a07d8	-0.018802568
169	0x3d437a48	0.04772404
170	0xbc67b710	-0.014142767
171	0x3ddcc124	0.10779026
172	0x3ddfa7f0	0.109207034
173	0x3dfc3fc2	0.12316848
174	0xbc5bfdb0	-0.013427183
175	0x3b2a3580	0.002597183
176	0x3de808aa	0.113297775
177	0x3db9d62e	0.09074055
178	0xbde8a290	-0.11359131
179	0xbde3bb38	-0.111196935
180	0xbdab5844	-0.08366445
181	0x3d52fee4	0.051512614
182	0xbcbcf2a8	-0.023064926
183	0xbce10648	-0.027468815
184	0xbd89d0d2	-0.067292824
185	0x3d20c88c	0.039253756
186	0xbd8f165e	-0.06986688
187	0x3db9fd24	0.09081486
188	0xbb8d22e0	-0.004307136
189	0xbd02a2cc	-0.031893536
190	0xbd58c5c4	-0.05292298
191	0xbd9da836	-0.07698099
192	0x3ca76528	0.020433977
193	0x3da2471a	0.07923718
194	0x3cca3fb8	0.024688587
195	0x3cba06a0	0.022708237
196	0xbd644340	-0.055728197
197	0x3dcaef1a	0.09908886
198	0x3de28148	0.11059815
199	0x3d497990	0.049188197
200	0xbc542da0	-0.012950331
201	0xbd2aff4c	-0.041747376
202	0x3dfd491c	0.1236746
203	0x3c894390	0.01675585
204	0xbd107800	-0.03527069
205	0x3d4eb970	0.050469816
206	0xbdac82e6	-0.084234044
207	0x3de32114	0.110902935
208	0xbd8db366	-0.06918983
209	0x3dc960ba	0.09832902
210	0x3db9eec2	0.090787426
211	0xbda37486	-0.079812095
212	0x3df3b8ce	0.11900483
213	0x3d9cc8ce	0.07655488
214	0xbdbacf58	-0.09121579
215	0x3c998a08	0.018742576
216	0xbb80f0a0	-0.0039349347
217	0xbc3ccd00	-0.011523485
218	0x3dc87742	0.097883716
219	0x3c21a340	0.009865582
220	0xbd3f9ae4	-0.046778575
221	0x3d0b2818	0.033973783
222	0x3dfddb54	0.12395349
223	0x3cc58bc8	0.024114504
224	0x3d10a5a4	0.035314217
225	0x3df1b77c	0.11802575
226	0x3d578db8	0.052625388
227	0x3dd11540	0.10209131
228	0xbd20b9b4	-0.0392396
229	0x3df519ae	0.11967789
230	0x3cbcf9e8	0.023068383
231	0x3dcab2f4	0.09897414
232	0x3d2a2a90	0.041544497
233	0xbd06b7cc	-0.032890126
234	0xbde1c764	-0.11024359
235	0x3dd11516	0.102091
236	0xbd4ddc18	-0.050258726
237	0xbd6d0c64	-0.057873145
238	0xbde5253a	-0.11188741
239	0x3d033b6c	0.03203909
240	0x3d9e6358	0.07733792
241	0xbc5477d0	-0.012968019
242	0xbdb2be9c	-0.08727762
243	0xbdccca90	-0.09999573
244	0xbd41a6fc	-0.04727839
245	0x3da03e08	0.078243315
246	0x3dbe5130	0.09292829
247	0xbdf304ea	-0.11866172
248	0xbd2b1680	-0.041769505
249	0x3d556664	0.0520996
250	0xbc082650	-0.008309916
251	0x3ddb3a46	0.10704474
252	0x3db3eb28	0.08785087
253	0x3d95e806	0.073196456
254	0x3d31a4f8	0.043370217
255	0xbb5ff8c0	-0.0034175366

fc2.bias f4 [32]
0	0x3d1fbf1c	0.039000615
1	0xbc263aa0	-0.010145813
2	0x3dacf19a	0.08444519
3	0xbd853566	-0.065043256
4	0x3c826628	0.015917853
5	0xbdb2c6d8	-0.08729333
6	0xbdd033c6	-0.10166125
7	0x3d9305ea	0.071788624
8	0x3dc828fa	0.09773441
9	0xbd8d1c3e	-0.068901524
10	0x3cec2dd8	0.028830454
11	0x3dca3092	0.09872545
12	0xbd1c6b34	-0.038188174
13	0x3db3e818	0.08784503
14	0xbc40fab0	-0.011778519
15	0x3d3c43ec	0.045963213
16	0x3d5c0d38	0.053723544
17	0xbd08dac0	-0.03341174
18	0xbda779a8	-0.08177501
19	0x3d967b78	0.073477685
20	0x3cf52218	0.029923484
21	0x3cee2840	0.029071927
22	0x3df44066	0.119263455
23	0xbde1b0aa	-0.11020024
24	0x3dedf906	0.11619763
25	0x3d80dae2	0.062917486
26	0x3dadd564	0.08487967
27	0x3c18b090	0.0093194395
28	0x3d86382c	0.06553683
29	0xbdd1c510	-0.10242665
30	0xbdc7ce6c	-0.09756169
31	0xbb00fbc0	-0.0019681305

fc3.weight f4 [16, 32]
0	0xbd5b5a1c	-0.053552732
1	0xbc94b558	-0.018152878
2	0xbd56ce1a	-0.052442648
3	0x3e2ce49b	0.16884081
4	0x3b9d5d40	0.004802376
5	0xbd553bc2	-0.052058943
6	0x3dc82422	0.09772517
7	0xbd5a6d1e	-0.05332672
8	0xbdbb6a5b	-0.09151145
9	0x3db9c7a6	0.09071283
10	0xbd2ab93c	-0.04168056
11	0xbd862d75	-0.06551639
12	0x3db7ca62	0.08974148
13	0x3cbf8308	0.02337791
14	0xbd067284	-0.032824054
15	0x3d0e07d4	0.034675434
16	0x3d8c53fe	0.06851958
17	0xbdc2ebbe	-0.095176205
18	0x3ce2abc0	0.027669787
19	0x3de7086e	0.11280905
20	0x3dfe3276	0.124119684
21	0xbdf4247c	-0.11921021
22	0xbd4151f0	-0.047197282
23	0xbdd554fe	-0.104166016
24	0xbd96e9fc	-0.07368848
25	0xbcbdd6f8	-0.023173794
26	0xbe0c8a41	-0.13724615
27	0xbdcdbfc4	-0.10046342
28	0x3d343c54	0.044002846
29	0x3dd87372	0.105688944
30	0xbdc74c05	-0.097312964
31	0xbe143774	-0.14474279
32	0xbe09b928	-0.13449538
33	0xbd983006	-0.07431035
34	0xbdd00022	-0.10156275
35	0x3e24436f	0.16041349
36	0x3dd120de	0.10211347
37	0xbe16abbf	-0.14713953
38	0xbd51fee0	-0.05126846
39	0xb92a0800	-0.00016215444
40	0xbd55094a	-0.052010812
41	0xbd7717b2	-0.060325332
42	0x3e00c85d	0.12576433
43	0xbabe8780	-0.0014536232
44	0xbe29b9f6	-0.16574845
45	0x3dd0886a	0.10182269
46	0xb9b56600	-0.00034599006
47	0x3dd6c816	0.10487382
48	0xbd106944	-0.03525664
49	0xbd1c3380	-0.03813505
50	0xbd80309d	-0.06259272
51	0xbceec438	-0.029146299
52	0x3e1241c1	0.14282896
53	0xbd180044	-0.03710963
54	0xbdacf120	-0.084444284
55	0x3e22c43f	0.15895174
56	0x3ae74300	0.0017643869
57	0xbd73c6ae	-0.059515648
58	0x3d23777c	0.03990887
59	0x3da4721e	0.080295786
60	0x3c43a320	0.0119407475
61	0xbe0573f2	-0.13032511
62	0xbde6e106	-0.112733886
63	0xbd92ba7c	-0.07164475
64	0xbdbb092f	-0.09132611
65	0x3c51b650	0.012799814
66	0x3e203069	0.15643467
67	0xbce4abe8	-0.027914003
68	0x3e302449	0.17201342
69	0xbe12c04c	-0.14331168
70	0x3cd16810	0.025562316
71	0xbd08232c	-0.033236668
72	0xbe133826	-0.14376888
73	0xbe0e0af3	-0.13871364
74	0x3d966bf6	0.07344811
75	0x3d0a2a18	0.03373155
76	0x3e28747b	0.16450684
77	0xbc10db70	-0.0088413805
78	0x3e2b1a67	0.1670929
79	0x3e02f175	0.12787421
80	0x3dc9e736	0.09858553
81	0x3c99da48	0.018780842
82	0x3e33c265	0.17554624
83	0x3c9081e0	0.017640054
84	0x3e2f6fed	0.1713254
85	0x3daf258e	0.08552085
86	0x3df92b3a	0.12166448
87	0xbd7b95de	-0.06142222
88	0xbe2b58a5	-0.16733034
89	0x3d475d70	0.048673093
90	0x3dbcaad6	0.09212272
91	0x3cbeebf8	0.023305878
92	0x3e29a44d	0.16566582
93	0xbcfae240	-0.030625463
94	0x3d642a1c	0.05570422
95	0x3e28782f	0.16452096
96	0xbde58da5	-0.11208657
97	0xbd623a36	-0.055231296
98	0xbd9cafb7	-0.076507024
99	0x3da14a0a	0.0787545
100	0xbb05a4c0	-0.0020392388
101	0x3d02d19c	0.03193818
102	0x3db36cb6	0.08760969
103	0xbddbe10c	-0.10736284
104	0xbe282351	-0.16419722
105	0xbdeb03fb	-0.114753686
106	0xbcb5aed8	-0.022178099
107	0xbc94d368	-0.018167213
108	0x3db53d4a	0.088495806
109	0x3de730d2	0.112886086
110	0x3cae4180	0.021271467
111	0x3d82f934	0.06395188
112	0x3e24c771	0.16091706
113	0xbba24440	-0.0049519837
114	0x3d320090	0.043457568
115	0x3e10e299	0.1414894
116	0xbdab3538	-0.0835976
117	0xbd97d033	-0.07412758
118	0x3d6db3dc	0.058032855
119	0xbdb0dfa0	-0.08636403
120	0xbe2242e0	-0.15845823
121	0x3ccf4028	0.025299147
122	0xbcc252b8	-0.023721084
123	0x3df003d6	0.11719482
124	0x3dfd9f12	0.12383856
125	0xbd274974	-0.040841535
126	0xbda3300b	-0.07968148
127	0xbe2bd984	-0.16782194
128	0x3dac1ebe	0.08404301
129	0x3e02c18b	0.12769143
130	0xbe0612ad	-0.13093062
131	0xbe0dc52a	-0.13844743
132	0x3d70012c	0.058594868
133	0xbe142138	-0.14465797
134	0x3da4083a	0.080093816
135	0x3daddf3a	0.08489843
136	0x3da0850a	0.07837875
137	0xbd329208	-0.043596298
138	0x3e13d37f	0.14436148
139	0xbddfe5c7	-0.109324984
140	0xbe0f1108	-0.1397134
141	0xbd368750	-0.044562638
142	0x3d1d5888	0.038414508
143	0x3ddfa40a	0.1091996
144	0x3dcd1b4e	0.100149736
145	0x3e02ed5b	0.12785856
146	0x3e251e33	0.16124801
147	0xbcac4d68	-0.021033004
148	0x3d8cb602	0.06870653
149	0xbddc6741	-0.107618816
150	0x3dee3f32	0.11633147
151	0xbd0cbfec	-0.03436272
152	0xbddd4984	-0.108050376
153	0x3d9c13fe	0.07621001
154	0xbe133598	-0.14375913
155	0xbe1ae836	-0.15127644
156	0x3d82ed4e	0.063929185
157	0x3cc927d0	0.024555117
158	0xbd0c4474	-0.03424497
159	0x3dc66c56	0.09688632
160	0xbdb6abc7	-0.08919483
161	0x3dd8d5de	0.10587667
162	0x3d053d94	0.03252943
163	0x3d05d17c	0.032670483
164	0xbd6ce28a	-0.057833232
165	0x3cc93750	0.024562508
166	0x3d56cb90	0.052440226
167	0xbdb5cd70	-0.08877075
168	0xbe2bdd4f	-0.16783641
169	0x3d64a6d0	0.055823147
170	0xbd997288	-0.07492548
171	0xbc659d70	-0.014014587
172	0x3e0bfc57	0.13670479
173	0xbb5fac80	-0.0034129918
174	0xbdb532ec	-0.08847603
175	0x3e27d8cf	0.163913
176	0x3d97eefa	0.07418628
177	0x3dbb9f1e	0.091612086
178	0x3ccba6e8	0.02485986
179	0xbd159fc8	-0.036529332
180	0xbe07bd7b	-0.13255875
181	0xbdd9cad1	-0.10634387
182	0x3e2f1b2f	0.17100213
183	0xbdbec17d	-0.09314249
184	0x3e17f499	0.148394
185	0x3da2250a	0.07917221
186	0x3e220dc1	0.15825559
187	0x3daaa18e	0.08331595
188	0xbe20981f	-0.1568303
189	0x3da4bed6	0.080442116
190	0xbe34cc4b	-0.17656057
191	0xbdcad7e9	-0.09904463
192	0xbdea07b0	-0.114272475
193	0x3c6b18b0	0.014349148
194	0x3dc0f97e	0.09422587
195	0x3cef3ae8	0.029202893
196	0xbde22c99	-0.110436626
197	0x3da654d2	0.08121647
198	0xbd37df10	-0.044890463
199	0x3dc2feb6	0.095212385
200	0x3d503780	0.05083418
201	0xbe120b1c	-0.1426205
202	0xbdc12fe6	-0.09432964
203	0xbd5e401c	-0.05426036
204	0x3de33afa	0.11095233
205	0xbe07d2a4	-0.13263947
206	0xbde976a1	-0.1139958
207	0x3dcc0e62	0.09963681
208	0x3dc9d082	0.09854223
209	0x3dec9ad2	0.11552967
210	0xbc1b8d50	-0.009494141
211	0x3d07dee4	0.03317155
212	0xbe2d6a8d	-0.16935177
213	0x3dd01cde	0.10161756
214	0xbdcf2792	-0.10114969
215	0x3c3fa270	0.011696443
216	0xbdfeef78	-0.12448019
217	0x3cea2ed8	0.02858679
218	0x3e03f451	0.12886168
219	0x3e31b897	0.17355572
220	0x3d4597d4	0.048240498
221	0xbce5b798	-0.028041646
222	0xbdcacdd3	-0.09902539
223	0x3d44d760	0.04805696
224	0x3d069228	0.03285423
225	0x3c3d9d60	0.011573166
226	0xbceb1a10	-0.028698951
227	0x3d920b36	0.071310446
228	0x3da54c06	0.08071141
229	0xbdfb38e6	-0.12266712
230	0x3e04273d	0.12905593
231	0x3d4fb52c	0.05070989
232	0xbdb3ecde	-0.08785413
233	0x3da21832	0.07914771
234	0x3d30ecbc	0.043194517
235	0xbdfe67b4	-0.124221236
236	0xbd7be352	-0.061496086
237	0xbdaca33c	-0.08429572
238	0x3d2cd350	0.04219371
239	0x3dba9bb2	0.09111728
240	0xbd97ea93	-0.07417788
241	0xbc285900	-0.0102751255
242	0xbd328218	-0.0435811
243	0x3e01a6b1	0.12661244
244	0x3c3509e0	0.011049718
245	0xbe14b6e3	-0.14522891
246	0x3c2a7e70	0.010406122
247	0xbe0bcae1	-0.13651611
248	0x3d4f431c	0.05060111
249	0xbceeff70	-0.029174536
250	0x3d14ed80	0.03635931
251	0x3e09bc75	0.13450797
252	0xbdd084e5	-0.101815976
253	0xbe198841	-0.14993383
254	0x3ddb08fe	0.106950745
255	0xbd9bea74	-0.07613078

fc3.bias f4 [16]
0	0xbd32491c	-0.043526754
1	0xbd766708	-0.060156852
2	0xbd20685c	-0.039162025
3	0xbd43dfa8	-0.047820717
4	0xbe25b772	-0.1618326
5	0x3df6bdaa	0.12047894
6	0x3da63382	0.08115293
7	0xbcedc9c0	-0.029026866
8	0x3d14cd30	0.036328495
9	0x3e035585	0.12825592
10	0xbdff516d	-0.124667026
11	0xbd68f370	-0.056872785
12	0xbd018104	-0.03161718
13	0xbcab1ef0	-0.020888776
14	0x3dad754e	0.0846964
15	0x3e1e273f	0.15444659

fc4.weight f4 [1, 16]
0	0xbe20d0a4	-0.1570459
1	0x3e017a6e	0.1264436
2	0xbe4bc020	-0.19897509
3	0x3e43a5e2	0.19106248
4	0xbe3c9018	-0.18414342
5	0xbdb83988	-0.08995348
6	0xbe7c96b2	-0.2466686
7	0xbe7e03b8	-0.24806106
8	0xbe4e2a40	-0.20133305
9	0x3df47468	0.11936265
10	0x3e45a2ea	0.19300428
11	0xbe679eb0	-0.22619128
12	0xbe191f8a	-0.14953437
13	0x3e030a0c	0.12796801
14	0xbe70f06c	-0.23529214
15	0xbe1b0f5a	-0.15142575
