weights/best_weights_ep1_20250827_191630.pth (torch, 188801 bytes, 5 tensors)

linear1.weight f4 [256, 51]
000000 f2 5d 74 bd 60 21 87 3c 52 7d 0f be b6 36 fe bd
       -0.059659906 0.016495407 -0.1401265 -0.12412779
000010 c2 1f b2 bd fb 0b d7 bc 22 08 11 bd b2 e8 fa bd
       -0.086974636 -0.02625083 -0.035408147 -0.12251414
000020 82 b0 f9 bd 33 be 03 be f3 11 4e 3d 43 da b7 3d
       -0.12191869 -0.12865524 0.050310086 0.08977177
000030 e1 12 d3 bd 9c 48 7d 3d 32 c5 66 bd bf 01 66 3d
       -0.10306335 0.061836824 -0.056340404 0.05615401
000040 53 6e 97 bd 80 12 13 bd d6 70 15 be 17 22 c7 3d
       -0.073940895 -0.035906315 -0.14593825 0.09723299
000050 93 0e a4 bd 30 15 08 be 36 97 a1 3d 96 55 0f bd
       -0.08010592 -0.13289332 0.07890169 -0.03499373
000060 47 0c 17 bd 0c 89 52 3d 90 23 7f bd b2 f2 12 be
       -0.036876943 0.05140023 -0.062289774 -0.14350393
000070 96 5a 93 bc fc b1 ed bc 08 60 ea 3c 03 97 3c 3d
       -0.01798753 -0.029015534 0.028610244 0.046042453
000080 c7 e0 0a be 22 08 d3 3d 3a a1 ae bd 8e cf a2 3d
       -0.13562308 0.103042856 -0.08526845 0.07949744
000090 55 7a 2f bc 91 5a c1 3d b9 6b ea 3d 2a c9 e4 3d
       -0.010710319 0.09441102 0.11446328 0.111711815
0000a0 3a 4e a6 bd af df 4b 3d 72 53 2a bd d1 99 e4 3c
       -0.08120389 0.04977387 -0.041583486 0.027905377
0000b0 c4 30 0c be d1 68 db 3c e9 49 af 3c f6 b5 37 bd
       -0.13690478 0.026783379 0.021397548 -0.044851266
0000c0 d0 71 18 3d f0 48 d9 3a 65 7a 10 bd ee 8c 00 be
       0.037217915 0.0016577523 -0.035272975 -0.1255376
0000d0 47 1a 86 3d f9 06 95 3d e0 c2 57 3c 6a f0 b7 3d
       0.06547981 0.072767206 0.01316902 0.08981402
0000e0 e0 31 07 3e cc d2 c4 bc 54 13 02 3e 79 ac e7 3d
       0.1320262 -0.024026297 0.12702686 0.113121934
0000f0 2c 92 a4 bb b9 52 c6 bd 86 18 90 bb d3 a5 b7 bc
       -0.005022308 -0.09683747 -0.0043974547 -0.022417938
000100 da 40 12 3d 51 93 0b be 5b 8c ed 3d cf e8 91 3d
       0.03570638 -0.13630415 0.11599036 0.07124483
000110 02 51 c8 3c ff f7 cb bd c2 ef 54 3d 71 c5 b7 bd
       0.02445269 -0.09959411 0.051986463 -0.08973206
000120 8b 9a 6a 3d ef f7 ff bd fd 30 f1 bd a7 a1 2a bc
       0.05727629 -0.124984615 -0.11776922 -0.0104145175
000130 b7 c2 9d 3d 8a 60 9b bd 97 fb 6d bd 66 96 70 bc
       0.077031545 -0.07586773 -0.058101263 -0.014684295
000140 4f 7f 92 3d 1a 00 58 3d cf c6 ec bd 96 1a a5 3d
       0.071531884 0.05273447 -0.11561357 0.080617115
000150 90 01 02 3e a4 53 92 bd 8a af d7 3d 4b b8 ff bd
       0.12695909 -0.071448594 0.10531528 -0.12486323
000160 8d c9 42 3d f8 90 f1 3c ae 3f 0f 3d 2c a0 a1 3d
       0.047555495 0.029488072 0.03497284 0.078918785
000170 42 24 b8 bd e5 d0 e5 3d 6f 59 b6 bd 0b 0c 4f 3d
       -0.08991291 0.11221484 -0.08903777 0.050548594
000180 31 5e 01 be bb 28 a9 3d d5 ec f7 bd 63 93 b2 bc
       -0.12633587 0.08259722 -0.12105719 -0.021798795
000190 1d 31 db 3d 06 0c cd bc 81 a0 f7 bd 5e d1 bf 3d
       0.10702727 -0.025030147 -0.120911606 0.093661055
0001a0 56 d5 ee 3d 18 bf 22 bd 7a 40 d1 bd 62 3e 02 be
       0.11661784 -0.039733022 -0.10217376 -0.1271911
0001b0 e0 46 d6 bb f0 cf 1a bd 80 d9 62 3b dc df 8e 3d
       -0.0065392107 -0.03779596 0.0034614503 0.069762915
0001c0 6f f5 0b 3e e0 c6 40 bd 24 6d b1 3d f0 77 1f 3d
       0.13667844 -0.047064662 0.08663395 0.03893274
0001d0 3e 23 cb 3d 21 0b e2 bd 6a 51 b4 3d 12 8c 21 bd
       0.09918831 -0.11037279 0.08804591 -0.039440222
0001e0 b0 16 ab bd 44 21 3f 3d 9f 36 0c 3e 0e 21 cd bd
       -0.08353937 0.046662584 0.13692711 -0.1001607
0001f0 6b 5d 0f be 00 33 ca bd ba c4 e5 3d 78 cb 01 be
       -0.1400048 -0.09873009 0.11219163 -0.12675273
000200 e6 10 b5 bd 27 fb ea bd 92 63 0e bd 14 7e df bc
       -0.08841114 -0.11473685 -0.034762926 -0.027281798
000210 cd f5 98 bd 88 71 8d 3c 00 b2 01 3a a8 37 da bc
       -0.07468758 0.01726605 0.00049474835 -0.026637867
000220 08 1e 14 bd b4 49 37 3d 20 3e 1f bd 00 de 4e 3b
       -0.036161453 0.044748023 -0.038877606 0.0031565428
000230 7c 34 6b 3d c0 a9 37 bb a0 93 b1 bb 80 74 39 bd
       0.0574231 -0.0028024763 -0.0054192096 -0.04527712
000240 fa 33 36 bd 42 9b 4b bd 40 41 42 bd 9c c4 c0 bc
       -0.044483162 -0.049708612 -0.04742551 -0.02353125
000250 a0 0c 83 3c 40 b5 24 3d 50 fb 50 bc 6c f5 f4 bd
       0.015997231 0.040211916 -0.01275523 -0.11960873
000260 b8 4a ce 3d 09 bb 80 bd ad 2c 70 3d 0d 48 d7 bd
       0.10072845 -0.06285674 0.058636356 -0.105117895
000270 d6 77 a5 3d 30 56 f4 bc f8 f1 07 be fe 0d 0f be
       0.080794975 -0.029826254 -0.13275898 -0.13970181
000280 55 e4 03 be d9 e8 84 3d 21 88 9e bd ad 84 c2 3d
       -0.1288007 0.06489725 -0.07740808 0.09497962
000290 f2 df 25 3d 35 fb 8e bc c6 cc a4 3d 6a 5e e2 3d
       0.040496774 -0.01745377 0.0804687 0.11053164
0002a0 4d c7 af 3d 0a 32 49 3d d5 2c e5 3d b7 4a b0 bd
       0.085829355 0.049119987 0.11190192 -0.08608001
0002b0 a2 b2 f1 bc 0c b1 f9 bd 5d 97 ff bd 5c e5 d4 bd
       -0.029504124 -0.12191972 -0.12480042 -0.10395309
0002c0 9a c2 b3 bc e2 4f 5e 3d bd 4c 17 bd 7a cb 00 be
       -0.02194338 0.0542754 -0.036938418 -0.1257762
0002d0 31 7e 14 be 5b 56 16 be 08 37 c7 3d 74 1d e0 3c
       -0.14501263 -0.1468138 0.09727293 0.027357794
0002e0 3d c6 ec bc a3 ef c3 3c f9 f4 c1 3d fb a0 0b 3d
       -0.028903121 0.023917979 0.09470553 0.03408907
0002f0 a3 e5 e1 bd ad a1 f1 3d ac d5 7d 3c 0b 3a c2 3c
       -0.11030128 0.11798415 0.015492838 0.023709318
000300 ef 00 ce bd 57 2e 04 3e 27 db 18 be 5d fe 9f 3d
       -0.10058772 0.12908302 -0.1492735 0.07812188
000310 ce d4 84 bd 48 9d 35 3d ae 12 fa bd 32 3e dc bd
       -0.06485902 0.04433945 -0.12210594 -0.1075405
000320 e0 9b b1 bc 14 f3 22 bd 1e 07 a9 3b 42 ef 4a 3d
       -0.021680772 -0.0397826 0.005158319 0.04954458
000330 f8 ab 5c 3d 3a cc 65 bd 75 ff c5 3d 10 c3 8a 3c
       0.05387494 -0.05610297 0.09667865 0.016938716
000340 4d 24 b7 bd e8 45 83 bd a3 4b 88 3d 92 12 da bd
       -0.08942471 -0.06409818 0.066550516 -0.10648073
000350 62 b0 76 3d 37 f9 04 3c 5f 3b a7 bd eb d0 6f bd
       0.060226806 0.008116058 -0.08165621 -0.05854885
000360 cf 80 f2 3c b5 37 5e bd 5a f6 fb bc 7e d9 3b bd
       0.029602436 -0.054252345 -0.030757118 -0.045861714
000370 9c 15 42 bd 33 ec 9e 3d 41 e8 02 be 68 f2 c7 3d
       -0.04738389 0.07759895 -0.1278391 0.09763032
000380 e7 ff 8a 3d 5e e4 f0 bd fc cb 9d bd b8 b3 7c bd
       0.06787091 -0.117623076 -0.077049226 -0.06169483
000390 1b 17 6c bc 7b 3d e3 bd 7a d6 0c bd 37 ec 1d 3c
       -0.014409806 -0.11095711 -0.03438423 0.009638838
0003a0 3a 6f e9 bb c2 a7 94 3d 50 14 eb bc 26 b6 63 3d
       -0.007123855 0.0725856 -0.02869621 0.055593632
0003b0 78 08 e7 bd b5 78 eb 3d 1e 68 af bc 05 4e e3 3d
       -0.11280912 0.114976324 -0.021411952 0.110988654
0003c0 9f 0d 83 3d f4 b2 36 bd 0b 71 45 3d e1 0c c5 3d
       0.063990824 -0.044604257 0.04820351 0.09621597
0003d0 c7 41 ad 3d db bf 10 bd 10 06 e9 bd a4 ae 11 3e
       0.08459812 -0.035339218 -0.113781095 0.14226776
0003e0 64 b3 f4 bc 63 98 81 3d 0b 1e 2c 3d cb e7 65 bc
       -0.029870696 0.063278936 0.04202084 -0.0140323145
0003f0 f3 2c 1f 3d e6 3b ca 3d 0e 83 61 3d c0 4b 02 3e
       0.038861226 0.09874706 0.055056624 0.12724209

linear1.bias f4 [256]
000000 36 61 e9 3c 9b 1e cb 3d 3a 12 b2 bd 16 4e 95 bc
       0.028488737 0.09917947 -0.08694883 -0.01822571
000010 64 4e 09 bb d1 23 17 be af cf c8 3d a7 19 00 3c
       -0.0020951265 -0.14759757 0.098052375 0.007818616
000020 49 4c f6 3d bb f2 de 3d 24 e2 91 bc 79 59 63 3c
       0.12026269 0.10886141 -0.017808028 0.013876312
000030 df 6c f1 bd d6 7f 3a bd 05 bb bf bd 38 69 f1 bd
       -0.11788344 -0.04553207 -0.09361843 -0.11787647
000040 6e 3b 88 bd f1 df d4 3d 46 d3 ad bd 75 fa 9d 3d
       -0.0665196 0.10394276 -0.08487563 0.077137865
000050 79 f9 f9 3d ed cf 54 3d 1c 68 68 bd c7 2e 3c 3d
       0.12205786 0.051956106 -0.05673991 0.045943048
000060 40 22 21 3a 16 80 50 3d 45 46 83 bd 12 cc 79 bd
       0.0006146766 0.050903402 -0.06409887 -0.060985632
000070 37 21 fd bd dd 47 97 3d 26 e3 15 3d 74 7d 43 3d
       -0.12359851 0.07386754 0.03659358 0.047727063
000080 52 00 00 be d9 83 7c 3c 13 8d 20 3d 39 92 db 3d
       -0.12500122 0.015412294 0.03919704 0.10721249
000090 0e e4 eb bd 88 a5 15 bd 50 b0 16 3e 12 72 ee bd
       -0.11518107 -0.036534816 0.14715695 -0.11642851
0000a0 0f 15 cf 3d b0 05 c9 bb e0 41 4c bc cd 37 ca 3d
       0.101114385 -0.006134711 -0.012466878 0.098739244
0000b0 1b 66 8d bd d3 5d c1 bd 4c d3 9f 3c 90 e3 65 3a
       -0.06904241 -0.09441724 0.019509934 0.0008769566
0000c0 18 48 99 3d cc 62 4f bd 6b 29 d7 bd fd 69 c7 bc
       0.07484454 -0.05063133 -0.10505947 -0.024342531
0000d0 03 ed 2a 3d 3a 46 0f 3d 5a 8e 77 3c 2d ea 0b bd
       0.04172994 0.034979083 0.015109623 -0.034158874
0000e0 c1 4b 8b 3d 57 1f de 3d 87 13 88 bd 0b 84 da bd
       0.06801558 0.10845821 -0.066443495 -0.106697164
0000f0 b6 3e 78 3d 99 34 27 3d f2 5d d4 bd b9 68 16 3d
       0.06060668 0.040821645 -0.10369481 0.036720965
000100 90 17 9b ba 34 08 ba 3c 4a 3e f1 3b e8 9c 90 bd
       -0.0011832584 0.02270899 0.0073621618 -0.070611775
000110 7d 5b ff bd 6c 3b 79 bd 20 d1 08 bc 04 93 0c bc
       -0.12468622 -0.060847685 -0.008350641 -0.008579973
000120 cf 73 ac bd b6 b3 25 3d cd b2 a4 bc fe e6 45 3d
       -0.08420526 0.04045459 -0.02010479 0.048315994
000130 46 5b 7b 3c 94 a9 c1 3c 83 f9 fa bd 0c 9f d9 3d
       0.0153415855 0.023640431 -0.12254622 0.10626039
000140 ef 4b e6 3d 0f 48 a0 bd 9c 32 1b 3d 40 f8 f6 3d
       0.11244952 -0.07826244 0.03789006 0.12059069
000150 7e cb d6 bd cd ac 99 3d 8e 52 5e bd 7c 2f 11 bd
       -0.10488032 0.07503662 -0.05427795 -0.035445675
000160 92 ec fa bd f4 c4 01 3e f5 7a 8b 3c 7d 55 fc 3d
       -0.122521535 0.12672788 0.017026404 0.12320993
000170 75 8e e2 bd 1e 2b 4a bd 58 e6 3d bb cc 60 a2 3b
       -0.11062328 -0.049357526 -0.0028976407 0.0049553867
000180 92 b7 89 bd a7 2d 00 be 6f 49 ce 3d 4b ee de bd
       -0.067244664 -0.12517415 0.100726 -0.108852945
000190 3d ec ea 3d 79 66 b3 3d 85 12 fd 3c 0d c7 cc 3d
       0.1147084 0.087597795 0.03089262 0.099989034
0001a0 15 41 80 3d 9a 22 2e bd 81 4b b8 3d 7a 67 d0 bd
       0.062624134 -0.042513467 0.08998776 -0.101759866
0001b0 47 78 9a 3c 57 a9 de bd bd b9 e1 3d df 22 1d bd
       0.01885618 -0.10872143 0.11021755 -0.038363334
0001c0 d0 d0 13 3e c6 ca 10 bc 8e 04 ef 3b a5 13 a2 bd
       0.14435124 -0.008837407 0.007294244 -0.07913903
0001d0 d9 00 c2 bd 1d 30 fb 3c 8f b4 be bd 4f 47 58 3d
       -0.09472818 0.03066259 -0.093117826 0.05280238
0001e0 bf f0 ed 3d 11 24 12 bd e3 6a bf 3d 95 fb d4 3d
       0.11618184 -0.035678927 0.09346559 0.10399548
0001f0 ac 8b c6 bd 07 09 dd 3d e7 1e c6 3d ab 0f 92 3c
       -0.09694609 0.107927375 0.09673863 0.017829737
000200 fd 4e d6 3d 17 ca 98 3d 7e 70 02 be 94 25 b7 3b
       0.104642846 0.074604206 -0.12738225 0.0055891965
000210 53 a5 0c bd 54 bc 11 bd 0e 4a c3 3b 26 4b 47 3d
       -0.034337353 -0.035579994 0.0059597557 0.04865565
000220 17 14 66 3c b7 65 0b be 9d 8d 8f 3d e1 f0 ed 3d
       0.014042876 -0.1361302 0.070094325 0.1161821
000230 5f a5 84 3d 2a 7a 50 bd 4e b7 fd bd 36 a8 cf bd
       0.064768545 -0.050897755 -0.12388478 -0.101395056
000240 69 dc 1d bd 10 f6 90 bd a1 88 0a be 0d d7 a9 bd
       -0.038540278 -0.07078183 -0.13528682 -0.08292971
000250 80 89 7b 39 59 64 5c 3c d0 ae ac bd 8a 69 b0 bd
       0.00023988448 0.013451659 -0.0843178 -0.0861388
000260 1f 4f b5 3d 7e e2 36 3d 32 fe c9 bd 9c 05 e3 bb
       0.08852982 0.044649594 -0.09862937 -0.006928159
000270 56 13 03 3e 1d 26 bc 3d c2 d8 08 be c5 c8 ea bd
       0.12800345 0.09186957 -0.13363937 -0.11464075
000280 c5 e4 ad 3d b3 7d fe bd 8a 47 17 bd 08 b3 c1 bd
       0.084909 -0.12426319 -0.03693346 -0.094579756
000290 f5 fb ac bc 98 c6 04 be 14 ae f1 bd 7d ab 36 bd
       -0.021116236 -0.12966383 -0.11800781 -0.044597138
0002a0 8b 24 bf 3d 10 c7 58 bd ac 00 43 bd b8 f7 9f bd
       0.09333142 -0.052924216 -0.047608063 -0.078109205
0002b0 f6 9c 07 bd fc 03 4a bd ac 78 2d bd 94 a1 12 be
       -0.033108674 -0.049320206 -0.04235141 -0.1431945
0002c0 63 7c bf 3d d0 cf 64 3b 74 e9 dc 3c d9 e5 98 3d
       0.09349897 0.0034913905 0.026966788 0.07465715
0002d0 50 1b 0b be 16 ee c8 bd 15 0e 67 bd 6f b0 90 bd
       -0.13584638 -0.09811036 -0.056409914 -0.07064902
0002e0 bf 99 91 3d 4e 1a 1b bc 34 65 0b be 80 54 d0 38
       0.07109403 -0.009466721 -0.13612825 9.933952e-05
0002f0 12 dd 14 bc 01 85 a6 bd cf 45 04 be 7b dc d9 bc
       -0.00908591 -0.08130837 -0.12917255 -0.026594391
000300 36 55 45 bd a9 13 82 3d 18 bd 85 3d 71 8f f3 bd
       -0.048176967 0.06351406 0.065302074 -0.11892594
000310 04 db 11 bd d1 b2 76 bd 2e b4 08 3e 81 d6 94 3d
       -0.03560926 -0.060229126 0.13349983 0.07267476
000320 a0 0e 39 bd d9 8e 9c 3d 5d 65 be 3d 2a c7 53 3c
       -0.045179963 0.076444335 0.09296677 0.012925902
000330 c1 53 ef 3d 8e bc 11 be b7 19 fe 3d 7c ff d1 bb
       0.11685897 -0.14232084 0.124072485 -0.00640863
000340 91 9d ef 3d 5c 9d 58 bd cb 77 88 3c 35 fd 14 3c
       0.11699975 -0.052884445 0.016658684 0.009093572
000350 6a 80 47 3d 8f 22 0b be 84 e7 47 3d 7a 60 77 3d
       0.04870645 -0.13587402 0.048804775 0.06039474
000360 db a2 cc bd d2 39 b0 3c 3d 36 e9 3d 07 a8 fc bd
       -0.09992 0.021511946 0.11387298 -0.12336736
000370 ab bc ec bd 39 8b 62 bd f0 0e f8 3c f5 93 0f be
       -0.11559423 -0.055308554 0.03028056 -0.14021285
000380 93 b3 ff 3d e8 48 a0 3d 11 2b fc bd 95 5c c3 3c
       0.12485423 0.07826406 -0.12312902 0.023847857
000390 df 09 cc bc 27 be c4 3d 3b a4 cc 3d 43 01 a2 3d
       -0.02490705 0.09606581 0.09992262 0.07910397
0003a0 cf c9 d0 bd 9f 30 8f bd c2 97 cc bd e4 62 48 bd
       -0.10194742 -0.069916956 -0.09989883 -0.048922434
0003b0 15 dc b4 3d bb 29 e4 3d b4 cf ef bb 3c ee ae 3d
       0.0883104 0.11140772 -0.0073184613 0.08541533
0003c0 d2 bb c5 bd 57 8c 8b 3d c6 8e fc 3c 80 a2 2f bd
       -0.096549645 0.06813877 0.030829798 -0.04287958
0003d0 0f 1b 89 bc 1b f2 8f 3c 47 63 08 be e3 ef 9f bd
       -0.016736535 0.0175715 -0.13319121 -0.07809427
0003e0 ee 8d 08 3e 46 3e 33 3d 2f ef 0c 3d a2 c5 0a 3e
       0.13335392 0.04376056 0.03440779 0.13551953
0003f0 39 48 c6 3d 72 b0 8e bd e8 b6 9d bd 56 97 2d 3d
       0.09681744 -0.06967248 -0.07700902 0.042380653

linear2.weight f4 [128, 256]
000000 56 85 f8 bc 10 7a ba ba ee 5a 54 bd d9 5f 86 3c
       -0.030337017 -0.0014227051 -0.05184453 0.016403126
000010 e5 a2 1e bd 16 c3 0e bd 89 9f ba bc 94 0c 06 3d
       -0.038729567 -0.034854017 -0.02278115 0.03272684
000020 cb ad e6 3c f4 ff 8a 3c d0 7e 70 3c 89 1f 8c bd
       0.028159043 0.016967751 0.014678672 -0.06841952
000030 e1 ef 4a bc 80 60 82 3c c0 4b b2 ba a0 94 21 3d
       -0.012386293 0.015915155 -0.0013602898 0.03944838
000040 b6 24 13 bc 6d 2f db bc 04 a4 83 bb fd 81 0b 3c
       -0.008980921 -0.026756013 -0.004017355 0.008514878
000050 24 bf 20 3d d3 3a 0b bd 0b cb 28 3d 82 5c 56 3d
       0.039244786 -0.033991646 0.041209262 0.052334316
000060 7a f4 85 bb bd f9 8c bd 9c 30 d3 3c 9e c2 0d 3c
       -0.004087982 -0.06883571 0.025780015 0.008652357
000070 e4 70 85 bb 52 18 11 3d ce 73 8c bd 12 c5 e4 3c
       -0.0040722955 0.035423584 -0.068580255 0.027926002
000080 90 b6 43 bd d8 69 42 3b dc 61 54 3d 92 65 3e bd
       -0.047781527 0.0029665139 0.05185114 -0.046483584
000090 d6 bf 55 bd d2 1d 3d bd 94 2c 3f bd 7c 42 0b bd
       -0.052184902 -0.046171017 -0.046673372 -0.03399895
0000a0 4c eb 48 3d c0 76 6a bd fc 3b 3f bd f9 6d be bc
       0.04905252 -0.057242155 -0.046688065 -0.023245798
0000b0 8a 28 35 bd ec 8b 52 3d 18 a1 f8 ba d2 24 82 bc
       -0.044228114 0.05140297 -0.0018968908 -0.015886698
0000c0 c7 bf 48 bd 6b a0 06 bd 5b f7 ea 3c 44 40 ab bc
       -0.049011018 -0.03286783 0.028682401 -0.020904668
0000d0 00 61 88 b8 93 29 c1 3c c6 37 6b 3c ac 26 c9 bc
       -6.503053e-05 0.023579394 0.014356559 -0.024554573
0000e0 3c 4e 28 bd c8 3f 72 bd d4 9a ea bc 41 7a 88 bd
       -0.041090235 -0.059142858 -0.02863828 -0.06663943
0000f0 0d e9 36 bd 24 4d 0e 3d 1d 43 48 bd af 4c 0f 3d
       -0.04465585 0.034741536 -0.04889213 0.03498524
000100 24 50 56 bd 8d a6 22 3d c2 2c 60 bd 1d 0d cb bc
       -0.05232252 0.039709616 -0.054730184 -0.024786526
000110 eb 7b dd 3c 59 b9 7e 3c f6 83 27 3d e0 da 26 3d
       0.027036628 0.01554712 0.040897332 0.04073608
000120 96 da 7c 3d c8 94 7a bd dd 7d 1c 3d 4a f1 88 bb
       0.061731897 -0.061177045 0.03820597 -0.0041791545
000130 68 ac 6a bd c0 ac 53 b9 dc 2f c2 3c a6 f9 d4 3b
       -0.057293326 -0.00020186882 0.023704462 0.006499487
000140 96 dd 4d 3c 17 21 2c 3d c0 4c 93 bc 28 6e 3d bd
       0.012565037 0.042023744 -0.017980933 -0.04624763
000150 02 02 25 3d 8a 0e 71 bc c4 71 04 3d 84 2d 6f 3b
       0.040285118 -0.014712939 0.032335058 0.0036495635
000160 53 20 dd bc 7f 69 54 3d 32 b9 fd bc 4e a7 35 bd
       -0.026992952 0.05185842 -0.030972097 -0.044349007
000170 d6 38 61 3d 94 71 31 bd 7f 10 a4 3c 08 80 40 3d
       0.054985844 -0.043321207 0.020027397 0.0469971
000180 c3 0e 8e bd 30 06 9d bc 6c 2e 45 3d ba d3 92 3c
       -0.06936409 -0.01916799 0.048139974 0.017923225
000190 29 a5 9e bc 9d 01 9d bc 27 86 1d 3c 88 ba 50 bb
       -0.019365864 -0.019165808 0.009614504 -0.0031849463
0001a0 49 65 23 bc 58 bb 03 3d 2c bf d8 3b 8c 13 3b bd
       -0.009972879 0.032161087 0.0066145863 -0.04567294
0001b0 4d 70 8c bd 50 49 6c bd cc 0d 4e 3d ff 61 2c 3d
       -0.06857357 -0.057687104 0.050306126 0.042085644
0001c0 44 ed cc bc 11 ae 56 3d 45 4c 03 bd 38 a3 22 3b
       -0.02501548 0.052412096 -0.03205516 0.0024816524
0001d0 7d 4b 3f bd a8 8c cb bc 92 80 41 3d b0 48 e4 3c
       -0.04670285 -0.024847344 0.047241755 0.027866691
0001e0 1e ab 48 3c ad 0f 05 3d fd 1e 8e bc 3d b4 9e bc
       0.012247829 0.032485653 -0.01734876 -0.019373054
0001f0 f3 39 89 3d 40 b9 f3 bc e0 cf 8e bd 08 f8 c3 3c
       0.06700506 -0.02975142 -0.06973243 0.023921981
000200 a4 e4 46 3d 1e cb e3 3b b8 52 6f 3b 22 67 55 bd
       0.048557892 0.0069517037 0.003651781 -0.05210031
000210 26 6e 06 bd e6 ff 57 3d 70 1c b0 3a c3 23 0e bd
       -0.03281989 0.05273428 0.0013436209 -0.034702074
000220 0c 3b 11 bd 4f 21 fc 3c 57 6c f8 3c 35 a2 2b bd
       -0.035456702 0.030777602 0.030325098 -0.04190274
000230 36 fb 90 bd 1c 79 50 3b 5b df 24 bd 0a ba 38 bd
       -0.07079165 0.0031810468 -0.04025207 -0.045099296
000240 32 a3 b9 bb 3a e8 5d bd ba 0a 99 3c d4 e1 14 bd
       -0.0056652064 -0.054176547 0.018681873 -0.03634818
000250 55 f6 1b bd de 08 4d bd 0c b6 f0 3c 47 70 98 3c
       -0.038076717 -0.050057285 0.029383682 0.018608226
000260 02 51 b3 bc e4 e2 4d 3d 28 2b 26 3d 12 49 d0 bb
       -0.021889213 0.050265208 0.0405685 -0.006356367
000270 f2 7f 88 bb 82 d0 73 bc 1c ba 29 bd bf 6c f5 3c
       -0.004165643 -0.014881255 -0.041437253 0.02995908
000280 e8 37 35 3d a6 a6 d5 3c c7 7f 7c 3c 31 b0 eb 3c
       0.04424277 0.02608044 0.015411324 0.028770538
000290 92 53 00 3d a2 e1 9b bc 16 db 0f bd da fc fc bc
       0.0313297 -0.019028489 -0.035121046 -0.030882288
0002a0 9b 8a cb bc 5f 22 5b bc 3c 93 8c 3b 30 ae 44 bd
       -0.024846366 -0.013374894 0.0042900126 -0.04801768
0002b0 11 39 27 bc c5 7e 8e bc 90 5a 6c bd cc 4e 51 bd
       -0.010206477 -0.017394433 -0.057703555 -0.051100537
0002c0 58 f8 4f 3b b0 72 5e 3a 90 6c fc 3c af 0b 0b 3c
       0.0031733718 0.00084857177 0.030813485 0.008486672
0002d0 23 57 0f bc be 1f 5d bc 24 dc 09 bb f2 62 76 bc
       -0.008748802 -0.013496337 -0.0021035755 -0.015038239
0002e0 3a c0 50 bc 63 c1 12 3d 38 4f 55 3d 20 b2 ef 3c
       -0.012741143 0.03582896 0.052077502 0.029259741
0002f0 ce ff 46 3d e0 26 d9 bc 0d b3 e3 bc 80 84 ae 3c
       0.048583798 -0.026507795 -0.027795339 0.021303415
000300 d8 94 37 3d 96 5a 0e 3c 19 3f 1c 3d c0 fe 21 bd
       0.044819683 0.00868859 0.038146112 -0.03954959
000310 12 6a 7b bd e6 cf db bc f2 37 7a bd ec a0 5b bd
       -0.061380453 -0.026832532 -0.06108851 -0.053620264
000320 e1 89 93 bc 82 3a 62 bd 5e f3 03 3c 6e df c8 3b
       -0.018010082 -0.05523158 0.008053629 0.0061301505
000330 3b 19 94 3c 12 8c 70 bc 54 8b 33 bd 90 df 41 bd
       0.018078437 -0.014681833 -0.043834046 -0.047332346
000340 b8 1e 1c bd e8 00 ae bc 00 c4 71 b9 2a 97 74 bc
       -0.038115233 -0.021240667 -0.00023056567 -0.014928618
000350 fa a1 41 bd 08 7e 8b bc 8e 19 7d bd a3 78 56 bd
       -0.047273614 -0.01702787 -0.06179195 -0.052361142
000360 85 ee 66 bd 22 df f1 3b e5 8f 8e bc d0 87 22 3d
       -0.056379814 0.007381336 -0.017402599 0.039680302
000370 9c 9a 08 3d 58 17 6e bd 8a 47 1a bd e6 d8 89 3d
       0.033350572 -0.05812773 -0.03766588 0.06730823
000380 22 a3 51 3d 99 22 49 bd b0 64 03 3d ea f0 55 bd
       0.051180966 -0.04910526 0.032078445 -0.052231707
000390 0e 90 06 3c 70 5a 6b bd c0 2c d0 bc e6 b4 1c 3c
       0.008213056 -0.057459295 -0.025411963 0.009564614
0003a0 78 09 07 3b b4 2d 0c bd 82 07 75 bc 20 d4 68 bd
       0.002060501 -0.034223273 -0.014955403 -0.056842923
0003b0 4b 30 a9 3c e0 ab 45 3a 6b dc 1c 3d a8 70 e4 3c
       0.02065291 0.0007540565 0.038296144 0.02788575
0003c0 1a d3 50 3d a6 a9 b1 bc 51 99 ea 3c 7c 5f 97 bc
       0.050982572 -0.02168734 0.02863756 -0.018478148
0003d0 82 2f 65 bd 20 ef 12 bd bc 78 75 3b e3 21 2c 3d
       -0.05595351 -0.03587258 0.0037455996 0.042024504
0003e0 8e 1c 24 3d 5c 2e 5c bd a5 d4 8b 3d ec fc c7 bb
       0.040066294 -0.05375515 0.06827668 -0.0061031487
0003f0 c4 2b 01 bb 40 dd 4f 3c ef 89 63 bd 0a 35 3d 3d
       -0.0019709924 0.012687027 -0.055551466 0.04619316

linear2.bias f4 [128]
000000 6e 6f 6a 3c 6e 2f 8a bd 46 01 f2 bb 49 ba e6 3c
       0.0143087935 -0.06747328 -0.0073854057 0.028165
000010 99 c1 c1 bc 0c 47 f3 bc 1a 8e 32 3d a8 f0 ba 3c
       -0.023651885 -0.029696964 0.04359255 0.022819832
000020 90 86 2c bd 31 a7 00 bd ba 77 92 bd 5f 1e 1e bc
       -0.042120516 -0.031409446 -0.07151742 -0.009650796
000030 bb 60 6d 3d 6e 8c 28 3c 82 ba 47 bd c8 e4 a1 3a
       0.057953577 0.010287387 -0.048761852 0.0012351507
000040 77 c5 03 3c 70 f2 43 3d 1a 55 33 3d fd e4 be 3c
       0.008042685 0.04783863 0.04378233 0.02330255
000050 bd 57 ea 3c 70 a5 85 bd dc 3e 3b bd 1b 0e 59 3d
       0.02860629 -0.06525695 -0.045714244 0.052991968
000060 46 b4 1f 3c b8 a2 42 bb 8c 74 01 3d de 9b 61 bd
       0.00974757 -0.0029699039 0.03160529 -0.055080287
000070 18 7b 9d 3c c0 a6 b6 3c 8c 6f 8e bd c2 d7 04 3d
       0.019223735 0.02229631 -0.0695487 0.032432325
000080 fb 9c 2f bc 1f af 50 3c ae 1e 11 3d f6 13 50 3c
       -0.010718579 0.012737065 0.03542965 0.012700072
000090 ce 82 f3 3c 81 c2 c2 bc 92 a2 75 3d 9e ca 7a bd
       0.029725458 -0.023774387 0.059969492 -0.061228387
0000a0 cd 1f 53 bd d1 84 a0 bc 6a 0d 1b 3d 5d 4a 32 bc
       -0.051544 -0.019594582 0.03785459 -0.010881987
0000b0 d6 f7 37 3d 00 68 2f bb e0 f6 53 3d 88 52 36 bd
       0.04491409 -0.002676487 0.05174911 -0.0445123
0000c0 17 c0 34 bc ed 0f d1 3c f8 17 64 3d b2 f1 62 bc
       -0.011032126 0.02552029 0.05568692 -0.01385157
0000d0 ac 99 c0 bc 1c 9d 3f bb d6 68 5e bd 8a 3a 35 bd
       -0.023510776 -0.0029237932 -0.054299198 -0.04424528
0000e0 31 24 08 3d 66 b0 18 bd e8 3a 09 3d 74 7e ae bb
       0.03323764 -0.0372776 0.033503443 -0.005325133
0000f0 e7 a7 ba 3c ba 57 6c bc ae d4 4d 3c db 30 cc bc
       0.02278514 -0.0144252125 0.012562914 -0.02492564
000100 c9 64 9e bc b8 b9 13 bd 3e 48 34 3c a2 68 28 3c
       -0.019335167 -0.036065787 0.011003552 0.010278853
000110 77 a8 a5 3c 59 f1 19 bc c0 46 f1 39 34 98 4d 3d
       0.020221932 -0.009395921 0.00046019815 0.05019398
000120 14 87 54 3d 5f ef 7b bc 1c ee e2 3b 1b ad b1 bc
       0.051886633 -0.015376895 0.0069253575 -0.021688988
000130 ab f3 e9 bc 19 4a 86 bd d2 c5 67 3d e5 f7 d7 3c
       -0.028558573 -0.06557102 0.05658514 0.026363323
000140 2a 56 32 bd c2 ab 5b 3d 86 4e 12 3d ce 92 4f bd
       -0.043539204 0.053630598 0.035719417 -0.050677113
000150 99 a0 95 bc 15 42 ea 3c 4c d6 d0 3c 9d 16 11 3d
       -0.018265055 0.028595963 0.02549281 0.035421956
000160 88 85 fb bc ef 95 18 bd cf 94 8e 3d d8 c9 d3 3a
       -0.030703321 -0.037252363 0.06961977 0.0016158177
000170 bf a7 40 3c 5c a9 25 bd 6d 25 db bc 7e 0e 24 bd
       0.011758744 -0.040444717 -0.026751244 -0.040052883
000180 94 5b 56 3b 1a 82 63 bc 1c 58 5e 3d 9b 97 08 3d
       0.0032708393 -0.013885999 0.054283246 0.033347707
000190 70 68 be 3a 84 c9 89 bd 18 90 59 3d c7 47 b2 3c
       0.0014526974 -0.06727889 0.053115934 0.021762742
0001a0 a9 cc 07 bc 1b 42 f5 3c b7 74 53 3d bc 33 db 3c
       -0.008288541 0.029938748 0.05162498 0.026758067
0001b0 88 f0 60 bb b7 6d f2 bc 32 b5 b4 3b 49 66 80 bd
       -0.0034323055 -0.029593332 0.005514764 -0.06269509
0001c0 83 84 fa bc 5e be 50 3d 01 9e 81 bc 16 fc 18 3c
       -0.030580765 0.0509628 -0.015822412 0.009337446
0001d0 a0 0f 40 bd 18 29 87 3d e8 7f 8f bc 46 eb 72 bc
       -0.0468899 0.06599635 -0.017517045 -0.014826601
0001e0 92 8f 01 3d c5 20 9d 3c 44 05 47 bd d6 d8 14 bd
       0.03163106 0.019180665 -0.048589006 -0.036339603
0001f0 30 7a e4 ba 30 8c 27 bd dd af 9e 3c 4e e5 05 3d
       -0.0017431434 -0.040905178 0.019370968 0.032689385

linear3.weight f4 [1, 128]
000000 c8 b3 4d bd ba 33 d9 bb e7 50 f8 bc 4e 0b ad 3d
       -0.05022028 -0.0066284807 -0.030312015 0.08449422
000010 ec 03 28 3d 04 b8 9c bd 89 f9 63 bd da 94 99 3d
       0.041019365 -0.07652286 -0.055657897 0.07499094
000020 6e 04 a1 3d b8 91 67 3d b1 45 5d bd ba 55 2b 3d
       0.07862173 0.056535453 -0.05402154 0.041829802
000030 30 22 71 bd 7e b5 4c bd a5 9e 1e 3d fc 6a b9 3d
       -0.058870494 -0.049977772 0.038725514 0.09053609
000040 a0 72 72 3a 72 30 2e 3d db ad 99 bd 76 c5 8f 3d
       0.0009248648 0.04252667 -0.075038634 0.070200846
000050 84 26 be 3d 08 66 4c 3b 9c 74 97 3d 0a b8 9f 3d
       0.0928469 0.0031188745 0.07395288 0.077987745
000060 36 16 b3 3b aa fb a9 3d 76 5e 81 3d 99 f5 da bc
       0.0054652942 0.08299954 0.06316845 -0.026728438
000070 fd 3d ae 3c 43 99 99 bd 39 0a 9b bd d6 3b b0 3d
       0.021269793 -0.074999355 -0.07570309 0.08605163
000080 10 42 dc 3a d0 92 d7 3c 7b a6 9d bd 57 bc 97 bd
       0.0016804356 0.026315123 -0.07697769 -0.0740897
000090 c6 4d 10 3d d5 94 91 bd 30 f6 3e 3d b4 10 90 3b
       0.03523042 -0.071084656 0.0466215 0.0043965224
0000a0 5e 87 17 3d 26 e7 63 bd 84 76 6b bd 8a f0 05 3d
       0.03699433 -0.055640362 -0.057486072 0.0327001
0000b0 06 d4 b7 3d b3 2b 5f bd 3f e0 84 bd 3e b3 9d bd
       0.08975987 -0.054485034 -0.06488084 -0.07700203
0000c0 91 30 e5 3c 16 68 95 3d dd 93 f8 3c e2 01 7d bd
       0.02797726 0.072952434 0.030343944 -0.061769374
0000d0 d1 0a f7 bc 41 8a f4 3c 54 0b 70 bd 8e a0 b9 3d
       -0.030156525 0.02985108 -0.058604553 0.090638265
0000e0 06 77 00 bd 6a 1f d8 3c a4 9c 4a 3d d4 d1 96 3b
       -0.03136351 0.026382167 0.04946579 0.00460265
0000f0 c8 3f 74 3b 08 56 4c bd e3 b1 01 3c fc 41 99 3c
       0.0037269462 -0.049886733 0.007915947 0.018708222
000100 06 00 36 bd b9 30 a6 3c 99 04 9e bd d8 eb b2 3d
       -0.044433616 0.020286905 -0.07715721 0.0873639
000110 32 90 cc 3b 83 98 82 bd 43 8f 11 bd f8 18 3e 3d
       0.0062427754 -0.063767456 -0.035537016 0.04641053
000120 1c 51 39 3d b8 d4 b6 3d 13 41 3d bd ca 58 96 3d
       0.045243368 0.08927292 -0.046204638 0.07341154
000130 6d da 6a 3d 9c ba 23 bd b7 21 a0 3d 86 5a 86 3d
       0.057337213 -0.039972886 0.078189306 0.06560235
000140 c6 a6 8e 3d 46 76 c4 3d 40 ba 04 3d fb d3 40 bd
       0.06965403 0.09592871 0.032404184 -0.04707716
000150 57 5b 63 bd 99 e3 f4 3c bd 82 5a bc 18 94 19 bd
       -0.05550703 0.029893683 -0.0133368345 -0.03749475
000160 a6 60 83 3d 58 00 6f bd b5 f5 68 3d 59 c2 32 bd
       0.064149186 -0.058349937 0.05687495 -0.043642376
000170 b7 99 df bc 20 20 72 bd 06 37 47 bd c6 84 1e bd
       -0.027294977 -0.059112668 -0.04863646 -0.03870084
000180 24 56 25 3d f2 81 95 bd 9e 91 ae 3d 40 68 9a 3c
       0.040365353 -0.07300176 0.08523868 0.018848538
000190 3e 30 60 bd 21 5f 05 3c f0 96 5e 3d 16 e9 85 bd
       -0.054733507 0.008140356 0.054343164 -0.06538598
0001a0 9a 53 19 bd eb 96 9e bd 15 50 94 bc 94 d8 be 3d
       -0.037433244 -0.07743629 -0.018104592 0.09318653
0001b0 02 23 ed 3b e8 c7 00 3d 58 7f 9d 3d d6 91 96 bd
       0.0072368393 0.031440645 0.076903045 -0.07352035
0001c0 64 00 1a 3d 0c 94 38 3d c4 15 3c bd 1a fc fd bb
       0.03759803 0.045063064 -0.045919195 -0.007751
0001d0 8f e3 76 bc f8 66 06 3d 38 cb 24 3d 44 33 58 3d
       -0.015068903 0.032813042 0.040232867 0.052783266
0001e0 e6 43 b4 3d 0f 94 3a bd 04 e1 45 3d 84 ee 1b 3d
       0.08802013 -0.045551356 0.048310295 0.038069263
0001f0 e0 98 32 3d 24 f1 17 bd 56 04 00 3d b4 81 7b bd
       0.043602824 -0.037095204 0.031254135 -0.06140299
