weights/best_weights_ep3_20250827_191733.pth (torch, 188801 bytes, 5 tensors)

linear1.weight f4 [256, 51]
0	0xbd745df2	-0.059659906
1	0x3c872160	0.016495407
2	0xbe0f7d52	-0.1401265
3	0xbdfe36b6	-0.12412779
4	0xbdb21fc2	-0.086974636
5	0xbcd70bfb	-0.02625083
6	0xbd110822	-0.035408147
7	0xbdfae8b2	-0.12251414
8	0xbdf9b082	-0.12191869
9	0xbe03be33	-0.12865524
10	0x3d4e11f3	0.050310086
11	0x3db7da43	0.08977177
12	0xbdd312e1	-0.10306335
13	0x3d7d489c	0.061836824
14	0xbd66c532	-0.056340404
15	0x3d6601bf	0.05615401
16	0xbd976e53	-0.073940895
17	0xbd131280	-0.035906315
18	0xbe1570d6	-0.14593825
19	0x3dc72217	0.09723299
20	0xbda40e93	-0.08010592
21	0xbe081530	-0.13289332
22	0x3da19736	0.07890169
23	0xbd0f5596	-0.03499373
24	0xbd170c47	-0.036876943
25	0x3d52890c	0.05140023
26	0xbd7f2390	-0.062289774
27	0xbe12f2b2	-0.14350393
28	0xbc935a96	-0.01798753
29	0xbcedb1fc	-0.029015534
30	0x3cea6008	0.028610244
31	0x3d3c9703	0.046042453
32	0xbe0ae0c7	-0.13562308
33	0x3dd30822	0.103042856
34	0xbdaea13a	-0.08526845
35	0x3da2cf8e	0.07949744
36	0xbc2f7a55	-0.010710319
37	0x3dc15a91	0.09441102
38	0x3dea6bb9	0.11446328
39	0x3de4c92a	0.111711815
40	0xbda64e3a	-0.08120389
41	0x3d4bdfaf	0.04977387
42	0xbd2a5372	-0.041583486
43	0x3ce499d1	0.027905377
44	0xbe0c30c4	-0.13690478
45	0x3cdb68d1	0.026783379
46	0x3caf49e9	0.021397548
47	0xbd37b5f6	-0.044851266
48	0x3d1871d0	0.037217915
49	0x3ad948f0	0.0016577523
50	0xbd107a65	-0.035272975
51	0xbdd8241a	-0.10553761
52	0x3daf1009	0.0854798
53	0x3dbdfcbb	0.0927672
54	0x3c57c2e0	0.01316902
55	0x3de0e62c	0.10981402
56	0x3e1bacc2	0.1520262
57	0xbb83ef0a	-0.0040262984
58	0x3e168e36	0.14702687
59	0x3e08511e	0.13312194
60	0x3c7564fe	0.014977692
61	0xbd9d5cf7	-0.07683747
62	0xbb901888	-0.0043974556
63	0xbc4b749c	-0.012417939
64	0x3d642c5e	0.055706374
65	0xbdee30df	-0.11630415
66	0x3e0b410f	0.13599037
67	0x3dbade91	0.091244824
68	0x3d361405	0.044452686
69	0xbda3023d	-0.07959411
70	0x3d54f046	0.051986955
71	0xbdb7c54a	-0.08973177
72	0x3d9e4308	0.07727629
73	0xbdfff7b1	-0.12498415
74	0xbdf130d1	-0.11776889
75	0x3c1d0c6d	0.009585482
76	0x3dc6b876	0.09703152
77	0xbd64d595	-0.05586775
78	0xbd1c1012	-0.038101263
79	0xbc709666	-0.014684295
80	0x3d927f4f	0.071531884
81	0x3d94f5cf	0.07273447
82	0xbdecc69e	-0.11561321
83	0x3da51ab9	0.080617376
84	0x3e167c72	0.1469591
85	0xbd52bbe8	-0.051448733
86	0x3e0052a1	0.1253152
87	0xbdd6c289	-0.104863234
88	0x3d8a5a79	0.067555375
89	0x3d4ab3f0	0.049488008
90	0x3d612b32	0.054972835
91	0x3d715526	0.058919095
92	0xbde119e9	-0.1099127
93	0x3e076354	0.13221484
94	0xbda1de8e	-0.07903777
95	0x3d7801ce	0.060548596
96	0xbdd9c6a0	-0.10633588
97	0x3da928bc	0.082597226
98	0xbdf7ecd3	-0.121057175
99	0xbaebc598	-0.0017987965
100	0x3dc6b6bf	0.09702825
101	0xbd0f7afa	-0.03502939
102	0xbdf7a081	-0.120911606
103	0x3dbfd15e	0.093661055
104	0x3deed556	0.11661784
105	0xbd22bf18	-0.039733022
106	0xbdd1407a	-0.10217376
107	0xbe023e62	-0.1271911
108	0xbbd646e0	-0.0065392107
109	0xbd1acff0	-0.03779596
110	0x3b62d980	0.0034614503
111	0x3d8edfdc	0.069762915
112	0x3e0bf56f	0.13667844
113	0xbd40c6e0	-0.047064662
114	0x3db16d24	0.08663395
115	0x3d1f77f0	0.03893274
116	0x3dcb233e	0.09918831
117	0xbde20b21	-0.11037279
118	0x3db4516a	0.08804591
119	0xbd218c12	-0.039440222
120	0xbdab16b0	-0.08353937
121	0x3d3f2144	0.046662584
122	0x3e0c369f	0.13692711
123	0xbdcd210e	-0.1001607
124	0xbe0f5d6b	-0.1400048
125	0xbdca3300	-0.09873009
126	0x3de5c4ba	0.11219163
127	0xbe01cb78	-0.12675273
128	0xbdb510e6	-0.08841114
129	0xbdeafb27	-0.11473685
130	0xbd0e6392	-0.034762926
131	0xbcdf7e14	-0.027281798
132	0xbd98f5cd	-0.07468758
133	0x3c8d7188	0.01726605
134	0x3a01b200	0.00049474835
135	0xbcda37a8	-0.026637867
136	0xbd141e08	-0.036161453
137	0x3d3749b4	0.044748023
138	0xbd1f3e20	-0.038877606
139	0x3b4ede00	0.0031565428
140	0x3d6b347c	0.0574231
141	0xbb37a9c0	-0.0028024763
142	0xbbb193a0	-0.0054192096
143	0xbd397480	-0.04527712
144	0xbd3633fa	-0.044483162
145	0xbd4b9b42	-0.049708612
146	0xbd424140	-0.04742551
147	0xbcc0c49c	-0.02353125
148	0x3c830ca0	0.015997231
149	0x3d24b540	0.040211916
150	0xbc50fb50	-0.01275523
151	0xbdf4f56c	-0.11960873
152	0x3dce4ab8	0.10072845
153	0xbda9b0cb	-0.08285674
154	0x3d1e4128	0.038636357
155	0xbe001ee8	-0.1251179
156	0x3da577d6	0.080794975
157	0xbd4c169e	-0.049826257
158	0xbe122f69	-0.14275898
159	0xbe0f0dfe	-0.13970181
160	0xbe0e21c6	-0.13880071
161	0x3d37e62d	0.044897247
162	0xbdc77de3	-0.09740808
163	0x3d998eeb	0.074979626
164	0x3d25dff2	0.040496774
165	0xbc8efb35	-0.01745377
166	0x3d9051e5	0.0704687
167	0x3dcde389	0.100531645
168	0x3d86d18b	0.06582936
169	0x3cee8d0b	0.029119989
170	0x3dbc3713	0.09190192
171	0xbdd94079	-0.10608
172	0xbcf537ba	-0.029933799
173	0xbdfa9252	-0.1223494
174	0xbe144690	-0.14480042
175	0xbdc06b3c	-0.09395453
176	0xbc43b2e6	-0.011944508
177	0x3d0c645c	0.034275398
178	0xbd404277	-0.046938386
179	0xbe0b08e8	-0.13577616
180	0xbe28f913	-0.16501264
181	0xbe16565a	-0.14681378
182	0x3dc73708	0.09727293
183	0x3bf119a4	0.007357793
184	0xbced5c66	-0.028974723
185	0x3cc3597d	0.023846382
186	0x3d98ff37	0.07470553
187	0x3d0b9d2e	0.034085445
188	0xbde1e68a	-0.110303
189	0x3dc8abeb	0.09798416
190	0x3cd0d272	0.025490973
191	0x3d0a11b1	0.033708278
192	0xbde27bd0	-0.110587716
193	0x3e0e6bc8	0.13908303
194	0xbe0e9db6	-0.1392735
195	0x3d8b837c	0.06812188
196	0xbd84d4ce	-0.06485902
197	0x3d359d48	0.04433945
198	0xbe0746c8	-0.13210595
199	0xbdc7c351	-0.097540505
200	0xbc3f60bb	-0.011680777
201	0xbd4be8d6	-0.049782597
202	0x3ba9071e	0.005158319
203	0x3d4aef42	0.04954458
204	0x3d974bbe	0.073874936
205	0xbd13e0b6	-0.036102973
206	0x3deef537	0.11667865
207	0x3c8ac310	0.016938716
208	0xbda2a96c	-0.07942471
209	0xbd5d960e	-0.05409818
210	0x3db14165	0.08655051
211	0xbded69e4	-0.11592463
212	0x3da44df3	0.0802268
213	0x3ce64652	0.028109703
214	0xbdbbb419	-0.0916521
215	0xbd8c6357	-0.06854885
216	0x3cf5eea2	0.030021016
217	0xbd3541f3	-0.044252347
218	0xbcaa0ad5	-0.020757118
219	0xbcd3dbf1	-0.025861712
220	0xbce0542f	-0.027383892
221	0x3dc7e1f5	0.09759895
222	0xbddcdac0	-0.10783911
223	0x3dc7edd2	0.097621575
224	0x3d8afdc9	0.06786687
225	0xbdc7ee9c	-0.09762308
226	0xbd9dced7	-0.07705467
227	0xbd7cb78e	-0.06169849
228	0x3bb72df2	0.005590194
229	0xbdba4cca	-0.090966776
230	0xbc6bc0ce	-0.01438923
231	0x3cf2cd25	0.029638836
232	0xbbe96f36	-0.007123853
233	0x3d94a7c2	0.0725856
234	0xbc0e7a8c	-0.00869621
235	0x3d63b389	0.05559114
236	0xbde70937	-0.112810545
237	0x3e0a373c	0.13497633
238	0xbaba3900	-0.0014207661
239	0x3e06209b	0.13098375
240	0x3dac0361	0.08399082
241	0xbcc99e55	-0.024611631
242	0x3d8bac38	0.068199575
243	0x3dee02a3	0.11621597
244	0x3d844c59	0.06459875
245	0xbd62aaf1	-0.055338804
246	0xbdc0104e	-0.0937811
247	0x3e1bec15	0.15226777
248	0xbca2c7df	-0.019870697
249	0x3daa8e25	0.08327893
250	0x3d2c1e10	0.042020857
251	0xbc65e7b6	-0.014032295
252	0x3d711878	0.058861226
253	0x3db5c20c	0.08874902
254	0x3d388ee6	0.045058154
255	0x3ddba660	0.10725093

linear1.bias f4 [256]
0	0x3ce96136	0.028488737
1	0x3df4145d	0.119179465
2	0xbdb2123a	-0.08694883
3	0xbd1c9290	-0.03822571
4	0x3c92ad3d	0.017904872
5	0xbe1723d1	-0.14759757
6	0x3df1c571	0.11805237
7	0x3bffbc18	0.007804405
8	0x3e0fa106	0.1402627
9	0x3e03f43f	0.12886141
10	0xbc91e224	-0.017808028
11	0x3d0ac1e3	0.03387631
12	0xbddd360c	-0.10801324
13	0xbcd128a4	-0.025532074
14	0xbd96c543	-0.073618434
15	0xbe0d2eb6	-0.1378735
16	0xbd3e8b56	-0.0465196
17	0x3dfdd5b3	0.123942755
18	0xbd84dd84	-0.06487563
19	0x3dc6f037	0.09713786
20	0x3e11779e	0.14205787
21	0x3d53c406	0.051700614
22	0xbd167c98	-0.036739916
23	0x3d870d26	0.06594305
24	0xbc9ebbfe	-0.019376751
25	0x3d9135cd	0.0709034
26	0xbd834645	-0.06409887
27	0xbd27e08e	-0.040985636
28	0xbdd42b75	-0.10359851
29	0x3d5ca436	0.05386754
30	0x3d67ceaa	0.056593575
31	0x3d437d74	0.047727063
32	0xbdd70ae2	-0.105001226
33	0x3d110c7b	0.035412293
34	0x3c9d4aed	0.019200766
35	0x3e0243fe	0.1272125
36	0xbdc2ee4c	-0.09518108
37	0xbc877406	-0.016534816
38	0x3e2b2b32	0.16715696
39	0xbdee7212	-0.11642851
40	0x3dcf150f	0.101114385
41	0x3c631d5b	0.013861979
42	0x3bf6d866	0.007533121
43	0x3df32d8f	0.11873924
44	0xbd48e0b2	-0.04904241
45	0xbd986811	-0.07441724
46	0x3d21d52b	0.039509933
47	0x3cab0626	0.020876955
48	0x3d60a4ae	0.05484455
49	0xbcfaee90	-0.030631334
50	0xbdae33d8	-0.08505982
51	0xbb8e4bce	-0.0043425327
52	0x3d7cd887	0.061729934
53	0x3d6131bf	0.054979082
54	0x3d0fcf1c	0.035109624
55	0xbd0bea2e	-0.034158878
56	0x3db44183	0.08801558
57	0x3e038a8d	0.12845822
58	0xbdb10949	-0.08644349
59	0xbdb18e49	-0.08669717
60	0x3da5151d	0.08060668
61	0x3d79201e	0.060821645
62	0xbdfd524f	-0.12369215
63	0x3d68543e	0.056720965
64	0xba9b1790	-0.0011832584
65	0x3d2eef9f	0.04270899
66	0x3ce0269c	0.02736216
67	0xbd4f4e4b	-0.050611775
68	0xbdd665bb	-0.10468622
69	0xbd8ca012	-0.068664685
70	0xbc08d120	-0.008350641
71	0xbcea19f6	-0.028576832
72	0xbdac73cf	-0.08420526
73	0x3d779f3a	0.060454585
74	0xb8dbc300	-0.00010479055
75	0x3d5ba805	0.053627033
76	0x3d10c256	0.035341583
77	0x3d32c050	0.043640435
78	0xbe07b466	-0.1325241
79	0x3db0a9e7	0.08626156
80	0x3e07a0d9	0.13244952
81	0xbdc93dd1	-0.09826244
82	0x3c928e30	0.017890066
83	0x3df6d4b9	0.120522924
84	0xbdadd5bc	-0.08488032
85	0x3dc2a28f	0.09503662
86	0xbd981e6b	-0.07427677
87	0xbc7d10b7	-0.01544588
88	0xbde6723c	-0.11252257
89	0x3e163fd6	0.14672789
90	0x3c8b7af5	0.017026404
91	0x3dfc557d	0.12320993
92	0xbde28e75	-0.11062328
93	0xbcf07f33	-0.029357528
94	0x3c8c1a40	0.01710236
95	0x3ba260ca	0.004955386
96	0xbd41839f	-0.047244664
97	0xbe002d46	-0.1251727
98	0x3df73f31	0.120726
99	0xbe03ed70	-0.12883544
100	0x3e09f100	0.1347084
101	0x3db36679	0.087597795
102	0x3d5074c8	0.05089262
103	0x3dccc70d	0.099989034
104	0x3da936d7	0.08262413
105	0xbd2e229a	-0.042513467
106	0x3de14143	0.10998776
107	0xbda771b8	-0.08175987
108	0x3c9a7a89	0.018857257
109	0xbdb5b395	-0.08872143
110	0x3e0557c0	0.13021755
111	0xbd6efc5f	-0.05834615
112	0x3e284bb2	0.16435125
113	0x3c36e34d	0.011162591
114	0x3cdf982d	0.027294243
115	0xbd723bc6	-0.059139036
116	0xbdadf14c	-0.08493289
117	0x3cfb301c	0.030662589
118	0xbd95becd	-0.07311783
119	0x3d58474e	0.052802376
120	0x3e0b7341	0.13618185
121	0xbd3b19d4	-0.04567893
122	0x3de860a5	0.113465585
123	0x3dfdf157	0.123995475
124	0xbdef816e	-0.11694609
125	0x3e02ff65	0.12792738
126	0x3dc61ee7	0.09673863
127	0x3d1af35a	0.037829734
128	0x3dff44bf	0.12464284
129	0x3d98ca17	0.074604206
130	0xbe02707e	-0.12738225
131	0x3cd1a070	0.025589198
132	0xbc6ae73a	-0.014337355
133	0xbd3ab216	-0.045579992
134	0x3cd4a98e	0.025959756
135	0x3d8c9b55	0.06865565
136	0x3d0b708b	0.034042876
137	0xbdedd5ab	-0.116130196
138	0x3db8835f	0.09009432
139	0x3e0b7352	0.1361821
140	0x3dad9b21	0.08476854
141	0xbcfd1d4a	-0.030897755
142	0xbdd4c18c	-0.10388479
143	0xbda6b274	-0.08139506
144	0xbc97e1c7	-0.018540276
145	0xbd50009c	-0.05078183
146	0xbe004c40	-0.12529087
147	0xbda9d70d	-0.08292971
148	0x3ca5ce1e	0.020239886
149	0x3d09049b	0.033451658
150	0xbdacaed0	-0.0843178
151	0xbd8773c8	-0.066138804
152	0x3dde44e1	0.10852981
153	0x3d846701	0.06464959
154	0xbdc9fe32	-0.09862937
155	0x3c562b46	0.013071841
156	0x3e031356	0.12800345
157	0x3dbc261d	0.09186957
158	0xbde8bbc2	-0.11363937
159	0xbdc1d303	-0.094640754
160	0x3dd6da87	0.104908995
161	0xbe13b88c	-0.14425868
162	0xbc8ab80a	-0.01693346
163	0xbdad3827	-0.08457976
164	0xba924eb0	-0.0011162367
165	0xbdf518a6	-0.11967592
166	0xbdf1ae15	-0.11800782
167	0xbd36ab7c	-0.044597134
168	0x3d962ec9	0.07333142
169	0xbd80de69	-0.06292421
170	0xbce22a4f	-0.027608065
171	0xbd6e03ec	-0.05810921
172	0xbc56c5c7	-0.013108677
173	0xbcf030ef	-0.029320208
174	0xbcb71a50	-0.022351414
175	0xbe0864cb	-0.133197
176	0x3de87225	0.11349896
177	0x3cc07103	0.023491388
178	0x3d40603e	0.046966784
179	0x3dc1db9b	0.094657145
180	0xbe1f92e0	-0.15583372
181	0xbdb52831	-0.088455565
182	0xbd3e1853	-0.046409916
183	0xbd4f755a	-0.050649025
184	0x3dba8f81	0.091094024
185	0x3c2c93c7	0.01053328
186	0xbdedd4a5	-0.11612824
187	0x3ca4a75e	0.020099338
188	0xbc14f27f	-0.009091019
189	0xbd7b1e7e	-0.061308376
190	0xbe0e8340	-0.13917255
191	0xbbd815c6	-0.0065943925
192	0xbce6d363	-0.028176969
193	0x3dab096b	0.08351406
194	0x3d85bd18	0.065302074
195	0xbdca99af	-0.09892594
196	0xbc7fbdfd	-0.015609262
197	0xbd24c74d	-0.04022913
198	0x3e1d2f10	0.15349984
199	0x3dbdcc43	0.092674755
200	0xbcce4637	-0.025179965
201	0x3dc5849b	0.09644433
202	0x3d965cb0	0.073418975
203	0x3d06dd4f	0.0329259
204	0x3e0c24c2	0.13685897
205	0xbe1bf9fe	-0.15232083
206	0x3e1387bd	0.14407249
207	0x3c5eae56	0.01359137
208	0x3e0c49aa	0.13699976
209	0xbd06b1d8	-0.03288445
210	0x3c8877ca	0.016658682
211	0x3cee55a4	0.029093571
212	0x3d8cb5f7	0.068706445
213	0xbe0b228f	-0.13587402
214	0x3d47e784	0.048804775
215	0x3da4a5ff	0.08039474
216	0xbda3ad19	-0.07992
217	0x3ac644c0	0.001512669
218	0x3e091600	0.13387299
219	0xbe089174	-0.13336736
220	0xbdc3c6e9	-0.095594235
221	0xbd628b39	-0.055308554
222	0x3cf80ef0	0.03028056
223	0xbe0f93f5	-0.14021285
224	0x3e1454ab	0.14485423
225	0x3dc93eaa	0.09826405
226	0xbdd3354f	-0.10312902
227	0x3cc35c94	0.023847856
228	0xbba0cb52	-0.00490705
229	0x3dedb3e9	0.11606581
230	0x3df599fd	0.119922616
231	0x3dcaf705	0.099103965
232	0xbdd0c9cf	-0.10194742
233	0xbd4c75ba	-0.04991696
234	0xbdcc9732	-0.09989776
235	0xbceceec0	-0.028922439
236	0x3dddd1d7	0.108310394
237	0x3e068fbf	0.13140772
238	0x3c4fc639	0.012681537
239	0x3d9a735b	0.075415336
240	0xbdc5bbd2	-0.096549645
241	0x3d455251	0.048174206
242	0x3d5032e7	0.050829794
243	0xbcbb6df7	-0.022879584
244	0x3b55dfd0	0.0032634623
245	0x3d19e492	0.037571497
246	0xbde7d0cc	-0.11319122
247	0xbd8b7d2c	-0.06810984
248	0x3e1d08d0	0.15335393
249	0x3d8294e5	0.06376056
250	0x3d35e0ff	0.044404026
251	0x3dec9cb9	0.1155333
252	0x3dc64839	0.09681744
253	0xbd8eb072	-0.06967248
254	0xbd69824c	-0.057009026
255	0x3d2d9756	0.042380653

linear2.weight f4 [128, 256]
0	0xbcf88556	-0.030337017
1	0xbaba7a10	-0.0014227051
2	0xbd545aee	-0.05184453
3	0x3c865fd9	0.016403126
4	0xbd1ea2e5	-0.038729567
5	0xbd0ec316	-0.034854017
6	0xbcba9f89	-0.02278115
7	0x3d060c94	0.03272684
8	0x3ce6adcb	0.028159043
9	0x3c8afff4	0.016967751
10	0x3c707ed0	0.014678672
11	0xbd8c1f89	-0.06841952
12	0xbc4aefe1	-0.012386293
13	0x3c826080	0.015915155
14	0xbab24bc0	-0.0013602898
15	0x3d2194a0	0.03944838
16	0xbc1324b6	-0.008980921
17	0xbcdb2f6d	-0.026756013
18	0xbb83a404	-0.004017355
19	0x3c0b81fd	0.008514878
20	0x3d20bf24	0.039244786
21	0xbd0b3ad3	-0.033991646
22	0x3d28cb0b	0.041209262
23	0x3d565c82	0.052334316
24	0xbb85f47a	-0.004087982
25	0xbd8cf9bd	-0.06883571
26	0x3cd3309c	0.025780015
27	0x3c0dc29e	0.008652357
28	0xbb8570e4	-0.0040722955
29	0x3d111852	0.035423584
30	0xbd8c73ce	-0.068580255
31	0x3ce4c512	0.027926002
32	0xbd43b690	-0.047781527
33	0x3b4269d8	0.0029665139
34	0x3d5461dc	0.05185114
35	0xbd3e6592	-0.046483584
36	0xbd55bfd6	-0.052184902
37	0xbd3d1dd2	-0.046171017
38	0xbd3f2c94	-0.046673372
39	0xbd0b427c	-0.03399895
40	0x3d48eb4c	0.04905252
41	0xbd6a76c0	-0.057242155
42	0xbd3f3bfc	-0.046688065
43	0xbcbe6df9	-0.023245798
44	0xbd35288a	-0.044228114
45	0x3d528bec	0.05140297
46	0xbaf8a118	-0.0018968908
47	0xbc8224d2	-0.015886698
48	0xbd48bfc7	-0.049011018
49	0xbd06a06b	-0.03286783
50	0x3ceaf75b	0.028682401
51	0xbcab4044	-0.020904668
52	0xb8886100	-6.503053e-05
53	0x3cc12993	0.023579394
54	0x3c6b37c6	0.014356559
55	0xbcc926ac	-0.024554573
56	0xbd284e3c	-0.041090235
57	0xbd723fc8	-0.059142858
58	0xbcea9ad4	-0.02863828
59	0xbd887a41	-0.06663943
60	0xbd36e90d	-0.04465585
61	0x3d0e4d24	0.034741536
62	0xbd48431d	-0.04889213
63	0x3d0f4caf	0.03498524
64	0xbd565024	-0.05232252
65	0x3d22a68d	0.039709616
66	0xbd602cc2	-0.054730184
67	0xbccb0d1d	-0.024786526
68	0x3cdd7beb	0.027036628
69	0x3c7eb959	0.01554712
70	0x3d2783f6	0.040897332
71	0x3d26dae0	0.04073608
72	0x3d7cda96	0.061731897
73	0xbd7a94c8	-0.061177045
74	0x3d1c7ddd	0.03820597
75	0xbb88f14a	-0.0041791545
76	0xbd6aac68	-0.057293326
77	0xb953acc0	-0.00020186882
78	0x3cc22fdc	0.023704462
79	0x3bd4f9a6	0.006499487
80	0x3c4ddd96	0.012565037
81	0x3d2c2117	0.042023744
82	0xbc934cc0	-0.017980933
83	0xbd3d6e28	-0.04624763
84	0x3d250202	0.040285118
85	0xbc710e8a	-0.014712939
86	0x3d0471c4	0.032335058
87	0x3b6f2d84	0.0036495635
88	0xbcdd2053	-0.026992952
89	0x3d54697f	0.05185842
90	0xbcfdb932	-0.030972097
91	0xbd35a74e	-0.044349007
92	0x3d6138d6	0.054985844
93	0xbd317194	-0.043321207
94	0x3ca4107f	0.020027397
95	0x3d408008	0.0469971
96	0xbd8e0ec3	-0.06936409
97	0xbc9d0630	-0.01916799
98	0x3d452e6c	0.048139974
99	0x3c92d3ba	0.017923225
100	0xbc9ea529	-0.019365864
101	0xbc9d019d	-0.019165808
102	0x3c1d8627	0.009614504
103	0xbb50ba88	-0.0031849463
104	0xbc236549	-0.009972879
105	0x3d03bb58	0.032161087
106	0x3bd8bf2c	0.0066145863
107	0xbd3b138c	-0.04567294
108	0xbd8c704d	-0.06857357
109	0xbd6c4950	-0.057687104
110	0x3d4e0dcc	0.050306126
111	0x3d2c61ff	0.042085644
112	0xbccced44	-0.02501548
113	0x3d56ae11	0.052412096
114	0xbd034c45	-0.03205516
115	0x3b22a338	0.0024816524
116	0xbd3f4b7d	-0.04670285
117	0xbccb8ca8	-0.024847344
118	0x3d418092	0.047241755
119	0x3ce448b0	0.027866691
120	0x3c48ab1e	0.012247829
121	0x3d050fad	0.032485653
122	0xbc8e1efd	-0.01734876
123	0xbc9eb43d	-0.019373054
124	0x3d8939f3	0.06700506
125	0xbcf3b940	-0.02975142
126	0xbd8ecfe0	-0.06973243
127	0x3cc3f808	0.023921981
128	0x3d46e4a4	0.048557892
129	0x3be3cb1e	0.0069517037
130	0x3b6f52b8	0.003651781
131	0xbd556722	-0.05210031
132	0xbd066e26	-0.03281989
133	0x3d57ffe6	0.05273428
134	0x3ab01c70	0.0013436209
135	0xbd0e23c3	-0.034702074
136	0xbd113b0c	-0.035456702
137	0x3cfc214f	0.030777602
138	0x3cf86c57	0.030325098
139	0xbd2ba235	-0.04190274
140	0xbd90fb36	-0.07079165
141	0x3b50791c	0.0031810468
142	0xbd24df5b	-0.04025207
143	0xbd38ba0a	-0.045099296
144	0xbbb9a332	-0.0056652064
145	0xbd5de83a	-0.054176547
146	0x3c990aba	0.018681873
147	0xbd14e1d4	-0.03634818
148	0xbd1bf655	-0.038076717
149	0xbd4d08de	-0.050057285
150	0x3cf0b60c	0.029383682
151	0x3c987047	0.018608226
152	0xbcb35102	-0.021889213
153	0x3d4de2e4	0.050265208
154	0x3d262b28	0.0405685
155	0xbbd04912	-0.006356367
156	0xbb887ff2	-0.004165643
157	0xbc73d082	-0.014881255
158	0xbd29ba1c	-0.041437253
159	0x3cf56cbf	0.02995908
160	0x3d3537e8	0.04424277
161	0x3cd5a6a6	0.02608044
162	0x3c7c7fc7	0.015411324
163	0x3cebb031	0.028770538
164	0x3d005392	0.0313297
165	0xbc9be1a2	-0.019028489
166	0xbd0fdb16	-0.035121046
167	0xbcfcfcda	-0.030882288
168	0xbccb8a9b	-0.024846366
169	0xbc5b225f	-0.013374894
170	0x3b8c933c	0.0042900126
171	0xbd44ae30	-0.04801768
172	0xbc273911	-0.010206477
173	0xbc8e7ec5	-0.017394433
174	0xbd6c5a90	-0.057703555
175	0xbd514ecc	-0.051100537
176	0x3b4ff858	0.0031733718
177	0x3a5e72b0	0.00084857177
178	0x3cfc6c90	0.030813485
179	0x3c0b0baf	0.008486672
180	0xbc0f5723	-0.008748802
181	0xbc5d1fbe	-0.013496337
182	0xbb09dc24	-0.0021035755
183	0xbc7662f2	-0.015038239
184	0xbc50c03a	-0.012741143
185	0x3d12c163	0.03582896
186	0x3d554f38	0.052077502
187	0x3cefb220	0.029259741
188	0x3d46ffce	0.048583798
189	0xbcd926e0	-0.026507795
190	0xbce3b30d	-0.027795339
191	0x3cae8480	0.021303415
192	0x3d3794d8	0.044819683
193	0x3c0e5a96	0.00868859
194	0x3d1c3f19	0.038146112
195	0xbd21fec0	-0.03954959
196	0xbd7b6a12	-0.061380453
197	0xbcdbcfe6	-0.026832532
198	0xbd7a37f2	-0.06108851
199	0xbd5ba0ec	-0.053620264
200	0xbc9389e1	-0.018010082
201	0xbd623a82	-0.05523158
202	0x3c03f35e	0.008053629
203	0x3bc8df6e	0.0061301505
204	0x3c94193b	0.018078437
205	0xbc708c12	-0.014681833
206	0xbd338b54	-0.043834046
207	0xbd41df90	-0.047332346
208	0xbd1c1eb8	-0.038115233
209	0xbcae00e8	-0.021240667
210	0xb971c400	-0.00023056567
211	0xbc74972a	-0.014928618
212	0xbd41a1fa	-0.047273614
213	0xbc8b7e08	-0.01702787
214	0xbd7d198e	-0.06179195
215	0xbd5678a3	-0.052361142
216	0xbd66ee85	-0.056379814
217	0x3bf1df22	0.007381336
218	0xbc8e8fe5	-0.017402599
219	0x3d2287d0	0.039680302
220	0x3d089a9c	0.033350572
221	0xbd6e1758	-0.05812773
222	0xbd1a478a	-0.03766588
223	0x3d89d8e6	0.06730823
224	0x3d51a322	0.051180966
225	0xbd492299	-0.04910526
226	0x3d0364b0	0.032078445
227	0xbd55f0ea	-0.052231707
228	0x3c06900e	0.008213056
229	0xbd6b5a70	-0.057459295
230	0xbcd02cc0	-0.025411963
231	0x3c1cb4e6	0.009564614
232	0x3b070978	0.002060501
233	0xbd0c2db4	-0.034223273
234	0xbc750782	-0.014955403
235	0xbd68d420	-0.056842923
236	0x3ca9304b	0.02065291
237	0x3a45abe0	0.0007540565
238	0x3d1cdc6b	0.038296144
239	0x3ce470a8	0.02788575
240	0x3d50d31a	0.050982572
241	0xbcb1a9a6	-0.02168734
242	0x3cea9951	0.02863756
243	0xbc975f7c	-0.018478148
244	0xbd652f82	-0.05595351
245	0xbd12ef20	-0.03587258
246	0x3b7578bc	0.0037455996
247	0x3d2c21e3	0.042024504
248	0x3d241c8e	0.040066294
249	0xbd5c2e5c	-0.05375515
250	0x3d8bd4a5	0.06827668
251	0xbbc7fcec	-0.0061031487
252	0xbb012bc4	-0.0019709924
253	0x3c4fdd40	0.012687027
254	0xbd6389ef	-0.055551466
255	0x3d3d350a	0.04619316

linear2.bias f4 [128]
0	0x3c6a6f6e	0.0143087935
1	0xbd9eaa4f	-0.077473275
2	0xbbf20146	-0.0073854057
3	0x3d4548aa	0.048165
4	0xbb6fd51c	-0.003659553
5	0xbd229646	-0.039694093
6	0x3d09989b	0.0335928
7	0x3d2f63d8	0.042819828
8	0xbcb53617	-0.022120519
9	0xbc3aeeb0	-0.011409447
10	0xbda6f29b	-0.08151742
11	0x3c298fb6	0.010349205
12	0x3d1b7536	0.037953578
13	0x399fc7a0	0.00030475575
14	0xbceb9dfa	-0.028761853
15	0x3cadf556	0.02123515
16	0x3c02ccbe	0.007983385
17	0x3d8aeefa	0.067838624
18	0x3d0a6060	0.033783317
19	0x3d315e04	0.04330255
20	0x3d471764	0.04860629
21	0xbd39b804	-0.045341507
22	0xbcd2a6ae	-0.025714245
23	0x3d957cd0	0.07299197
24	0x3cf3b12c	0.029747568
25	0x3c8b82b4	0.017030098
26	0x3d536010	0.051605284
27	0xbd619bde	-0.055080287
28	0x3d20a911	0.039223734
29	0x3cb6a6c0	0.02229631
30	0xbda2ea6d	-0.079548694
31	0x3d56c346	0.05243232
32	0x3c13aea6	0.009013807
33	0x3d06174c	0.03273706
34	0x3cd051d8	0.025429651
35	0x3b30fc7c	0.0027005961
36	0x3d4bacec	0.049725458
37	0xbd0a56b4	-0.033774093
38	0x3da3c70b	0.07996949
39	0xbd28df1a	-0.04122839
40	0xbd013447	-0.031543996
41	0xbca084d1	-0.019594582
42	0x3ce43030	0.027855009
43	0x3c1563b8	0.009118013
44	0x3d84f1ad	0.064914085
45	0xbb2f6800	-0.002676487
46	0x3d4ec484	0.05048038
47	0xbd365288	-0.0445123
48	0x3c12edfb	0.008967872
49	0x3d3a737c	0.04552029
50	0x3d9b01be	0.07568692
51	0xbcbb8ccc	-0.022894286
52	0xbd094171	-0.033509675
53	0x3c8be366	0.017076205
54	0xbd83af37	-0.06429904
55	0xbcc69e0b	-0.024245283
56	0x3d082431	0.03323764
57	0xbc8d89c2	-0.017277602
58	0x3d5b266c	0.05350344
59	0xbbae7e74	-0.005325133
60	0x3d2f3f78	0.042785138
61	0xbc6c57ba	-0.0144252125
62	0x3d055e18	0.032560438
63	0xbba16748	-0.004925642
64	0xbcf0504e	-0.029335167
65	0xbc839c66	-0.016065788
66	0x3a8389b0	0.0010035541
67	0x3cf80b5a	0.03027885
68	0x3d24b4f2	0.040211625
69	0xbc9ee3f0	-0.019395798
70	0xbc1c4cd4	-0.009539802
71	0x3d8fc1dc	0.070193976
72	0x3d93394c	0.07188663
73	0x3b977d6c	0.0046231057
74	0xbb4904d0	-0.0030673034
75	0xbadd6118	-0.0016889898
76	0xbc0c3942	-0.008558573
77	0xbd864a19	-0.06557102
78	0x3d9cd8ab	0.07658514
79	0x3d3de778	0.046363324
80	0xbcc0d54c	-0.023539208
81	0x3d96cba3	0.07363059
82	0x3d643a0a	0.055719413
83	0xbd90bf29	-0.07067711
84	0xbce78bf1	-0.028264971
85	0x3d470c8f	0.04859596
86	0x3d0f2c18	0.03495416
87	0x3cd042cd	0.025422478
88	0xbc2f5cfe	-0.010703323
89	0xbd418aae	-0.047251396
90	0x3db78a91	0.08961976
91	0x3ad2c088	0.0016079107
92	0x3ae68df8	0.0017589917
93	0xbd4e9f1e	-0.050444715
94	0xbd168848	-0.03675106
95	0xbd4d0392	-0.050052233
96	0x3cbea27c	0.023270838
97	0xbcc3aafb	-0.02388524
98	0x3d9821d0	0.07428324
99	0x3d5a8320	0.053347707
100	0xbc0bfea3	-0.008544597
101	0xbd41a784	-0.047278896
102	0x3d95bdce	0.07311593
103	0x3c40bc0e	0.011763586
104	0xbc95a796	-0.018268388
105	0x3ca35856	0.019939583
106	0x3d2a7ef4	0.04162498
107	0x3d3f8562	0.046758063
108	0x3c87b8f8	0.016567692
109	0xbc1d2d5a	-0.009593332
110	0x3cd10456	0.025514763
111	0xbd94e0fa	-0.072694734
112	0xbc2d5af3	-0.010580766
113	0x3d9154f1	0.070962794
114	0xbc81b498	-0.015833184
115	0x3c18fc16	0.009337446
116	0xbd400fa0	-0.0468899
117	0x3db01eda	0.085996345
118	0x3b22b90c	0.0024829535
119	0x3ba9859c	0.005173398
120	0x3d537b16	0.051631056
121	0x3c92ca65	0.017918775
122	0xbcea337f	-0.028589008
123	0xbc85daa2	-0.016339604
124	0x3c958f67	0.018256856
125	0xbcfe98de	-0.031078752
126	0x3d214373	0.039370965
127	0x3cb9e1c0	0.022690654

linear3.weight f4 [1, 128]
0	0xbd4db3c8	-0.05022028
1	0x3b5cf4b4	0.003371519
2	0xbcf850e7	-0.030312015
3	0x3dd60110	0.104494214
4	0x3d79eaad	0.06101482
5	0xbd883ef7	-0.066526346
6	0xbd3b03f9	-0.045658085
7	0x3dc28a9c	0.09499094
8	0x3dc9fa30	0.098621726
9	0x3d9cbe9e	0.07653545
10	0xbd344fee	-0.04402154
11	0x3d7d413e	0.061829798
12	0xbd1f36ac	-0.0388705
13	0xbd759db7	-0.05996486
14	0x3d708a2a	0.058725514
15	0x3de260be	0.11053608
16	0x3a72a670	0.00092563685
17	0x3d800dfb	0.062526666
18	0xbd8533e8	-0.06504041
19	0x3db8bb38	0.09020084
20	0x3de71c46	0.112846896
21	0x3cbd52a2	0.023110691
22	0x3dc06a5e	0.09395288
23	0x3dc8adcc	0.09798774
24	0x3cd09c97	0.025465293
25	0x3dd2f16c	0.10299954
26	0x3daa5438	0.08316845
27	0xbcdaf599	-0.026728438
28	0x3d290a84	0.041269794
29	0xbd999943	-0.074999355
30	0xbd868f58	-0.065703094
31	0x3dd93198	0.106051624
32	0x3cb17fc0	0.021667361
33	0x3d3db4ee	0.046315126
34	0xbd892b9a	-0.066977695
35	0xbd8341da	-0.064090446
36	0x3d62394a	0.055230416
37	0xbd7a3457	-0.06108507
38	0x3d8870db	0.066621505
39	0x3cc7db36	0.02439652
40	0x3d6972e2	0.056994326
41	0xbd63e726	-0.055640362
42	0xbd428157	-0.04748663
43	0x3d57dc0e	0.052700095
44	0x3de0c9c8	0.10975987
45	0xbd5f2bb3	-0.054485034
46	0xbd82d248	-0.06387764
47	0xbd9db33e	-0.07700203
48	0x3d4483cd	0.047977258
49	0x3dbe5dd8	0.09295243
50	0x3d4e3574	0.050343946
51	0xbd909318	-0.07059306
52	0xbca520bc	-0.02015721
53	0x3d4c30a5	0.04985108
54	0xbd4715af	-0.048604663
55	0x3de29650	0.11063826
56	0xbd007706	-0.03136351
57	0x3d3dfb3a	0.046382166
58	0x3d8e4414	0.069465786
59	0x3b96d1d4	0.00460265
60	0x3cc25f03	0.023726946
61	0xbd4c5608	-0.049886733
62	0x3ce4af48	0.027915612
63	0x3d1e8c83	0.03870822
64	0xbd0d0a44	-0.03443362
65	0x3d2503e2	0.040286906
66	0xbd8989b8	-0.06715721
67	0x3ddbe19a	0.107363895
68	0x3cd6f7e9	0.02624126
69	0xbd5c3b5f	-0.05376756
70	0xbcd13301	-0.025537016
71	0x3d88023e	0.06641053
72	0x3d859e50	0.06524336
73	0x3ddfca7a	0.10927291
74	0xbd144ee8	-0.036208063
75	0x3dbf4e8c	0.093411535
76	0x3d9e62f9	0.07733721
77	0xbd23ba9c	-0.039972886
78	0x3dc91779	0.0981893
79	0x3daf5048	0.08560234
80	0x3db79c88	0.08965403
81	0x3ded6c08	0.11592871
82	0x3d56a5c4	0.05240418
83	0xbcddd0ee	-0.027077165
84	0xbd3a65a0	-0.045507073
85	0x3d4c5d51	0.04989368
86	0xbb65a254	-0.0035039382
87	0xbce13d7d	-0.02749514
88	0x3dac5668	0.08414918
89	0xbd460c42	-0.048351534
90	0x3d9d709d	0.07687495
91	0xbd32bedc	-0.04363905
92	0xbc8dae5d	-0.017295057
93	0xbd492a5e	-0.04911267
94	0xbd1e4160	-0.038636565
95	0xbceb1eee	-0.028701272
96	0x3d7741a8	0.06036535
97	0xbd8107da	-0.06300326
98	0x3dd78760	0.105238676
99	0x3d1f1fa5	0.038848538
100	0xbd373dc3	-0.044736635
101	0x3ce6869b	0.028140357
102	0x3d98413a	0.07434316
103	0xbd62e030	-0.055389583
104	0xbce0d3ee	-0.027444806
105	0xbd8a1c9e	-0.067437395
106	0xbc04c91f	-0.008104592
107	0x3de7ce56	0.11318652
108	0x3cdf1fca	0.027236838
109	0x3d52b36c	0.05144064
110	0x3dc6751a	0.09690304
111	0xbd821746	-0.06352095
112	0x3d6bebe9	0.05759803
113	0x3d853fc8	0.06506306
114	0xbd3c10d4	-0.045914486
115	0xbbfdfc1a	-0.007751
116	0xbc76e38f	-0.015068903
117	0x3d58527c	0.05281304
118	0x3d76b6bc	0.060232863
119	0x3d950f64	0.07278326
120	0x3ddd39a8	0.10802013
121	0xbd3849c3	-0.04499222
122	0x3d8be644	0.06831029
123	0x3d6dda08	0.05806926
124	0x3d824232	0.06360282
125	0xbd4057a4	-0.04695858
126	0x3d51efda	0.05125413
127	0xbd528e88	-0.05140546
