weights/best_weights_ep11_20250827_193300.pth (torch, 188813 bytes, 5 tensors)

linear1.weight f4 [256, 51]
000000 a9 5a 50 bd f2 20 bd 3c 03 d8 0d be b6 36 fe bd
       -0.05086771 0.023086999 -0.13851933 -0.12412779
000010 c2 1f b2 bd fb 0b d7 bc 30 7e d4 bc b2 e8 fa bd
       -0.086974636 -0.02625083 -0.025939077 -0.12251414
000020 82 b0 f9 bd 33 be 03 be f3 11 4e 3d 43 da b7 3d
       -0.12191869 -0.12865524 0.050310086 0.08977177
000030 e1 12 d3 bd 9c 48 7d 3d 32 c5 66 bd f3 77 75 3d
       -0.10306335 0.061836824 -0.056340404 0.059928846
000040 35 10 84 bd 9e 32 d6 bc 92 34 0c be d9 59 da 3d
       -0.06448404 -0.026147183 -0.13691929 0.10661668
000050 f0 7a 90 bd 0c d8 03 be ea 47 b5 3d ee b1 ce bc
       -0.070546985 -0.12875384 0.08851607 -0.025231328
000060 be 17 e3 bc 92 a9 78 3d d8 43 58 bd ce e6 09 be
       -0.027721282 0.06070859 -0.052799076 -0.13466951
000070 5e b9 0b bc a7 4f 9e bc 9a e2 1a 3d c8 d3 61 3d
       -0.008528082 -0.01932509 0.03781376 0.05513361
000080 80 43 01 be c4 28 e6 3d 24 b0 9c bd f8 e4 b5 3d
       -0.12623405 0.11238244 -0.07650784 0.08881563
000090 b0 02 06 bc 83 42 d5 3d bb 6f fe 3d e4 21 f8 3d
       -0.008179352 0.10413077 0.12423655 0.12115839
0000a0 05 66 96 bd 02 b8 6f 3d e6 a6 04 bd dd 9b 17 3d
       -0.073436774 0.058525093 -0.03238573 0.037013877
0000b0 ab 8d 02 be d1 68 db 3c e9 49 af 3c f6 b5 37 bd
       -0.12749355 0.026783379 0.021397548 -0.044851266
0000c0 d0 71 18 3d f0 48 d9 3a 65 7a 10 bd 42 35 af bd
       0.037217915 0.0016577523 -0.035272975 -0.0855508
0000d0 82 05 d8 3d 80 f1 e6 3d e0 c2 57 3c e3 ed 04 3e
       0.105479255 0.11276531 0.01316902 0.12981372
0000e0 95 27 30 3e 18 b5 bb 3b aa 9c 20 3e 81 89 12 3e
       0.172026 0.005728375 0.15684763 0.14310266
0000f0 a9 48 cc 3c ba d2 68 bd 36 0e b7 3b 68 76 1e bb
       0.02493699 -0.05684159 0.005586411 -0.0024179462
000100 53 89 86 3d fe b5 d9 bd eb bb 1f 3e 1c d4 e3 3d
       0.06569161 -0.106304154 0.15599029 0.11124441
000110 8f ff 83 3d 0c 19 74 bd 05 00 28 3d 66 98 cf bd
       0.06445228 -0.0595942 0.041015644 -0.101364896
000120 bf 38 c7 3d 35 73 ed bd bf ab df bd 15 5d f2 3c
       0.0972762 -0.115942396 -0.1092143 0.0295854
000130 77 0f b0 3d cb 01 8a bd 48 49 94 bc 1c 6f ad bb
       0.085967 -0.06738623 -0.01810135 -0.0052927863
000140 f7 db a4 3d 86 eb bd 3d e7 44 01 be 8c 18 8e 3d
       0.080497675 0.09273438 -0.1262394 0.06938276
000150 4e f7 2a 3e 50 4a 2d bd 2a 0a 09 3e d2 cc ad bd
       0.16695902 -0.042307198 0.13382784 -0.08486332
000160 28 16 68 3d 6a 68 1a 3d 3d 8b 99 3d 65 96 8a 3d
       0.056661755 0.037697233 0.07497261 0.06766967
000170 13 7d d0 bd 26 de 1b 3e 2f 86 b9 bd e2 d3 45 3d
       -0.10180106 0.15221462 -0.090587966 0.04829777
000180 2d 68 c6 bd c9 0f a6 3d 50 73 fc bd 71 3b f1 3b
       -0.09687839 0.081084795 -0.123266816 0.0073618223
000190 97 d7 c4 3d 8b 97 15 bd 81 a0 f7 bd 5e d1 bf 3d
       0.09611433 -0.036521476 -0.120911606 0.093661055
0001a0 56 d5 ee 3d 18 bf 22 bd 7a 40 d1 bd 62 3e 02 be
       0.11661784 -0.039733022 -0.10217376 -0.1271911
0001b0 e0 46 d6 bb f0 cf 1a bd 80 d9 62 3b dc df 8e 3d
       -0.0065392107 -0.03779596 0.0034614503 0.069762915
0001c0 6f f5 0b 3e e0 c6 40 bd 24 6d b1 3d f0 77 1f 3d
       0.13667844 -0.047064662 0.08663395 0.03893274
0001d0 3e 23 cb 3d 21 0b e2 bd 6a 51 b4 3d 12 8c 21 bd
       0.09918831 -0.11037279 0.08804591 -0.039440222
0001e0 b0 16 ab bd 44 21 3f 3d 9f 36 0c 3e 0e 21 cd bd
       -0.08353937 0.046662584 0.13692711 -0.1001607
0001f0 6b 5d 0f be 00 33 ca bd ba c4 e5 3d 78 cb 01 be
       -0.1400048 -0.09873009 0.11219163 -0.12675273
000200 e6 10 b5 bd 27 fb ea bd 92 63 0e bd 14 7e df bc
       -0.08841114 -0.11473685 -0.034762926 -0.027281798
000210 cd f5 98 bd 88 71 8d 3c 00 b2 01 3a a8 37 da bc
       -0.07468758 0.01726605 0.00049474835 -0.026637867
000220 08 1e 14 bd b4 49 37 3d 20 3e 1f bd 00 de 4e 3b
       -0.036161453 0.044748023 -0.038877606 0.0031565428
000230 7c 34 6b 3d c0 a9 37 bb a0 93 b1 bb 80 74 39 bd
       0.0574231 -0.0028024763 -0.0054192096 -0.04527712
000240 fa 33 36 bd 42 9b 4b bd 40 41 42 bd 9c c4 c0 bc
       -0.044483162 -0.049708612 -0.04742551 -0.02353125
000250 a0 0c 83 3c 40 b5 24 3d 50 fb 50 bc 6c f5 f4 bd
       0.015997231 0.040211916 -0.01275523 -0.11960873
000260 b8 4a ce 3d c3 87 81 bd cf d7 6f 3d 28 b9 d8 bd
       0.10072845 -0.063247226 0.05855542 -0.10582191
000270 d6 77 a5 3d 9e 16 4c bd 69 2f 12 be fe 0d 0f be
       0.080794975 -0.049826257 -0.14275898 -0.13970181
000280 c6 21 0e be f0 db 60 3d e3 7d c7 bd 1f 08 ae 3d
       -0.13880071 0.05489725 -0.09740808 0.08497643
000290 f2 df 25 3d 35 fb 8e bc e5 51 90 3d 89 e3 cd 3d
       0.040496774 -0.01745377 0.0704687 0.100531645
0002a0 8e c5 af 3d e8 25 49 3d 3d 26 e5 3d 64 4c b0 bd
       0.085826024 0.049108416 0.11188934 -0.0860832
0002b0 ba 37 f5 bc 52 92 fa bd 0a 99 ff bd 6b 98 b4 bd
       -0.029933799 -0.1223494 -0.12480362 -0.08818134
0002c0 bc 38 ca bb 86 4c 5e 3d 77 42 40 bd e8 08 0b be
       -0.006171314 0.054272197 -0.046938386 -0.13577616
0002d0 08 7f 14 be ea 18 0c be e9 b1 db 3d be 16 e0 3c
       -0.14501584 -0.13681379 0.10727293 0.027354594
0002e0 66 5c ed bc 7d 59 c3 3c 4c f3 c1 3d ee 92 34 3d
       -0.028974723 0.023846382 0.09470233 0.044085436
0002f0 aa 6b cd bd 00 a0 f1 3d 72 d2 d0 3c b1 11 0a 3d
       -0.10030301 0.11798096 0.025490973 0.033708278
000300 d0 7b e2 bd c8 6b 0e 3e b6 9d 0e be 7c 83 8b 3d
       -0.110587716 0.13908303 -0.1392735 0.06812188
000310 ce d4 84 bd 48 9d 35 3d c8 46 07 be 51 c3 c7 bd
       -0.06485902 0.04433945 -0.13210595 -0.097540505
000320 bb 60 3f bc d6 e8 4b bd 1e 07 a9 3b 42 ef 4a 3d
       -0.011680777 -0.049782597 0.005158319 0.04954458
000330 3b 3b c0 3d 8c eb 83 bc f9 f4 0b 3e 10 c3 8a 3c
       0.09386297 -0.016103528 0.13667668 0.016938716
000340 c1 67 73 bd b4 aa 0b bd 5f 7c c5 3d 6c 36 d9 bd
       -0.05942512 -0.034098342 0.096428625 -0.10606083
000350 d4 c8 b8 3d 9b 04 1c 3d ed d5 b9 bd d6 a9 6f bd
       0.0902268 0.03809033 -0.09074006 -0.058511578
000360 10 ed 23 3d 01 5e 0c bd a2 3e 30 bc 5c 14 c0 bb
       0.040021002 -0.034269337 -0.01075712 -0.005861802
000370 c4 f7 f1 bb 86 d7 f0 3d 09 e5 b3 bd 6e ba b1 3d
       -0.0073842723 0.11759858 -0.08783919 0.08678137
000380 d4 09 67 3d e5 f8 9e bd e9 18 8b bd 4a 3e 59 bd
       0.056405857 -0.077623166 -0.067918606 -0.05303792
000390 5a a2 d1 3c 59 c8 d0 bd 70 32 d3 bc 01 52 4b 3d
       0.02559011 -0.10194463 -0.025780886 0.049638752
0003a0 5e f1 08 3b 45 c4 a6 3d 2e 33 39 3c 05 9e 38 3d
       0.002089582 0.08142904 0.011303706 0.045072574
0003b0 36 cf fd bd 18 b2 1e 3e a4 f8 fd 3b b1 fc 0e 3e
       -0.12393038 0.15497625 0.0077505875 0.13963582
0003c0 18 f9 d4 3d 80 ee 10 bd bf fa 67 3d 21 7c 0b 3e
       0.10399073 -0.0353837 0.056635614 0.1362157
0003d0 0f b1 96 3d 20 f2 3f bd b0 1a 97 bd 0c 9c 10 3e
       0.0735799 -0.046861768 -0.07378137 0.14122027
0003e0 f8 c6 00 bd 1a 8c be 3d da a1 26 3d 32 f8 82 bc
       -0.03143975 0.09304066 0.040681697 -0.01598749
0003f0 be ca 8b 3d 3b 42 b4 3d e6 95 33 3d 94 66 d3 3d
       0.068257794 0.08801695 0.043844126 0.103222996

linear1.bias f4 [256]
000000 a5 79 1b 3d 0a 85 0e 3e 3a 12 b2 bd cc 54 95 bc
       0.037957806 0.13917938 -0.08694883 -0.01822891
000010 0d 42 1b 3d 2b 3a 1f be 91 5d 0d 3e 77 6e 0e bb
       0.037904788 -0.15549533 0.13805224 -0.0021733323
000020 e3 1b 24 3e 1c 6f 18 3e 24 e2 91 bc 57 ad 5c 3d
       0.16026263 0.14886135 -0.017808028 0.053876247
000030 a7 da d8 bd 34 47 b5 bb 17 9f 5b bd f1 74 04 be
       -0.105885796 -0.0055321697 -0.053618517 -0.12935235
000040 d0 3f d9 bc b0 65 13 3e 9e cf 37 bd ee e5 ef 3d
       -0.026519686 0.1439426 -0.044875734 0.117137775
000050 79 f2 25 3e 35 2a 7f 3d 4e 22 89 bc dd 02 b0 3d
       0.16205777 0.06229611 -0.01673999 0.08594296
000060 da c3 23 bc 7f 2b ba 3d 45 46 83 bd 3d ea ab bc
       -0.009995425 0.090903275 -0.06409887 -0.020985717
000070 bd 35 ab bd bc 47 97 3d 0c dd 9c 3d 74 7d 43 3d
       -0.08359859 0.07386729 0.07659349 0.047727063
000080 29 15 ae bd ef f7 62 3d 99 fc a0 3c d8 be 16 3e
       -0.0850013 0.05541223 0.019651698 0.14721239
000090 a1 f8 99 bd a0 16 63 3b 0e a6 3f 3e 31 f7 d9 bd
       -0.07518125 0.0034650937 0.18715689 -0.10642851
0000a0 0f 15 cf 3d c6 b2 0a 3d e2 8c e1 3c a5 11 0e 3e
       0.101114385 0.033861898 0.027532998 0.13873918
0000b0 81 ea ed bc ba e4 5e bd 98 c0 73 3d 78 6e 27 3d
       -0.029042484 -0.05441735 0.059509844 0.040876836
0000c0 ff b5 85 3d 78 2f 2e bc 3f 3e 85 bd ea 43 80 3c
       0.065288536 -0.010631435 -0.06506013 0.015657384
0000d0 f7 61 a7 3d 96 8e 99 3d 90 ba 61 3d 6e fb 67 bc
       0.08172982 0.07497899 0.05510956 -0.014159067
0000e0 39 37 dd 3d 68 05 18 3e aa 13 88 bd 91 98 88 bd
       0.108015485 0.14845812 -0.066443756 -0.06669725
0000f0 d3 0a ce 3d c3 85 a5 3d c3 3f e9 bd d6 1f 9d 3d
       0.10060658 0.08082154 -0.11389115 0.07672088
000100 c9 72 0f 3c 89 6d 80 3d bb fe 41 3d ce c5 fa bc
       0.008755394 0.06270892 0.04736207 -0.030611899
000110 02 70 ad bd 12 a0 8c bd 20 d1 08 bc bc 0b 97 bc
       -0.084686294 -0.068664685 -0.008350641 -0.018438213
000120 cf 73 ac bd 52 c5 a4 3d 20 fb a2 3c d2 68 5f 3d
       -0.08420526 0.08045448 0.019895136 0.054543324
000130 ca ad 62 3d db 55 82 3d 66 b4 07 be 22 bd c2 3d
       0.05534152 0.06364032 -0.1325241 0.095087305
000140 b5 1b 1c 3e d1 3d c9 bd 5d e8 02 3c 7c 57 e2 3d
       0.15244944 -0.09826244 0.00798997 0.110518426
000150 05 e0 84 bd 46 98 eb 3d 5f f7 82 bd 12 39 95 3b
       -0.06488041 0.11503653 -0.063948385 0.0045539225
000160 86 f3 f9 bd b0 ba 2a 3e ea a5 17 3d 94 a5 12 3e
       -0.122046515 0.16672778 0.037023462 0.14320976
000170 85 8d e2 bd ae 50 19 bc 85 f8 17 3d f0 6e cc 3c
       -0.11062149 -0.009357614 0.03710224 0.024955243
000180 a0 30 df bc 55 ef 09 be 75 1a 10 3e 6b d6 f3 bd
       -0.027244866 -0.13470204 0.14072593 -0.11906131
000190 dc 6b 1e 3e 34 6c b3 3d 1d 30 91 3d c0 bc f5 3d
       0.15470833 0.087608725 0.07089255 0.11998892
0001a0 8b 2c d2 3d 9a 22 2e bd 7e 1b 05 3e 0a f8 7c bd
       0.10262402 -0.042513467 0.12998769 -0.061759986
0001b0 e2 37 12 3c db bd 8c bd 9b d2 19 3e f7 b2 69 bd
       0.008924456 -0.068721496 0.15021746 -0.05705544
0001c0 8b c6 3c 3e 7c 48 ff 3c 82 b7 41 3d 56 50 20 bd
       0.18435113 0.031162493 0.047294147 -0.039139114
0001d0 5f 79 98 bd 70 83 4f 3d 3b 92 59 bd 5c 19 95 3d
       -0.07445025 0.050662458 -0.053117972 0.072802275
0001e0 1d ee 1f 3e b5 96 40 bd 2c ab 08 3e 86 73 13 3e
       0.15618177 -0.047018725 0.13346547 0.14399537
0001f0 d4 8b c6 bd 42 7a 17 3e 43 14 ef 3d b5 de 6c 3d
       -0.09694639 0.14792731 0.116737865 0.057829577
000200 3b 1d 14 3e bb bf c1 3d 5f eb db bd aa bb 3a 3d
       0.14464276 0.09460398 -0.10738253 0.045589127
000210 a8 8c b9 3b 54 bc 11 bd 3b 40 3c 3d 0c 91 b5 3d
       0.0056625195 -0.035579994 0.045959692 0.08865556
000220 f6 5b 5d 3d f6 df c4 bd 16 79 e1 3d 29 ee 1f 3e
       0.05404278 -0.0961303 0.110094234 0.15618195
000230 d9 90 d6 3d e1 8c 32 bc db cb ab bd 7d 79 7b bd
       0.10476846 -0.010897846 -0.08388492 -0.061395157
000240 20 51 bf 3a 5c 2a fc bc 77 de fc bd 5d e1 80 bd
       0.0014596321 -0.030781917 -0.12347119 -0.06292985
000250 7d d2 24 3d 07 f0 5a 3d d0 ae ac bd 2a fc 3c bd
       0.0402398 0.053451564 -0.0843178 -0.04613892
000260 4b 9d 03 3e bc 5c ad 3d 32 fe c9 bd 3c 76 07 3d
       0.12852971 0.08464953 -0.09862937 0.03307174
000270 5f 51 0d 3e d0 1b e5 3d 10 c6 bf bd 4d dd 98 bd
       0.13800572 0.111869454 -0.09363949 -0.07464085
000280 3a d0 ff 3d 35 41 09 be 4c f6 48 3b 74 42 84 bd
       0.12490888 -0.13403781 0.0030664383 -0.064579874
000290 d2 b1 9a 3c 67 48 04 be 7c b8 c8 bd 4f 80 c9 bc
       0.01888362 -0.12918244 -0.098008126 -0.024597315
0002a0 30 24 bf 3d 69 de 80 bd b8 4d f9 bb 9c 18 1c bd
       0.09333074 -0.06292421 -0.0076081418 -0.038109407
0002b0 b0 cf e1 3b 1f b4 18 bc 60 1b 1a bb e8 73 12 be
       0.0068912134 -0.009320288 -0.0023514852 -0.14302027
0002c0 ec b3 08 3e 95 23 32 3d d6 25 89 3d 52 d1 ea 3d
       0.13349885 0.043490965 0.0669667 0.11465706
0002d0 c0 e7 17 be ec 9d c9 bd 02 5a d8 bc 08 14 fb bc
       -0.148345 -0.09844574 -0.026410107 -0.0306492
0002e0 36 85 e3 3d c4 20 fa 3c ee de c4 bd 14 3f 24 3d
       0.11109392 0.030533202 -0.09612833 0.04009922
0002f0 ac 8a 9b bc 12 33 29 bd 40 83 0e be de a2 5b 3c
       -0.018987022 -0.04130847 -0.13917255 0.01340553
000300 0a f9 05 bc 20 ff d3 3d 91 b2 ae 3d f6 a3 a1 bd
       -0.008177051 0.103513956 0.085301526 -0.07892601
000310 76 df 8f 3b b8 b7 a5 bc ee a9 31 3e f9 c1 e6 3d
       0.0043906523 -0.020229205 0.1734998 0.11267466
000320 aa bd a9 bb 52 7a ee 3d 26 03 82 3d bf c8 58 3d
       -0.0051800804 0.116444245 0.06348257 0.05292582
000330 9c 9f 20 3e bd c3 25 be 99 02 28 3e 00 97 09 3d
       0.15685886 -0.1618795 0.16407241 0.03359127
000340 87 c4 20 3e a9 19 53 bc 29 27 16 3d 28 16 49 3d
       0.15699969 -0.012884536 0.03665844 0.049093395
000350 af ab b5 3d 6f 4f ed bd 84 e7 47 3d b4 9b cd 3d
       0.08870637 -0.115874164 0.048804775 0.10039464
000360 ca 6e 75 bd c1 71 42 3c dd 90 1d 3e 6f 91 08 be
       -0.05992011 0.011867941 0.15387292 -0.13336729
000370 33 d1 9a bd ca 96 39 bd f0 0e f8 3c f5 93 0f be
       -0.07559433 -0.04530982 0.03028056 -0.14021285
000380 88 cf 28 3e 62 34 f2 3d 96 3f aa bd b4 99 33 3d
       0.16485417 0.118263975 -0.08312909 0.043847755
000390 c8 47 77 3c d2 54 0b 3e db 47 0f 3e bd ec f3 3d
       0.015092798 0.13606575 0.13992254 0.119103886
0003a0 cf c9 d0 bd 96 14 f5 bc d9 47 e0 bd 09 30 12 bc
       -0.10194742 -0.029917043 -0.10951204 -0.008922585
0003b0 c8 63 03 3e 9b 0a 1b 3e 02 dd 05 3d 5b 73 9a 3d
       0.12831032 0.15140764 0.032681473 0.075415336
0003c0 d2 bb c5 bd d2 49 61 3d 2e 0f 91 3d 88 b8 3c bb
       -0.096549645 0.05500204 0.070829734 -0.0028796513
0003d0 e4 92 be 3c 05 d0 6b 3d 14 db be bd 80 4b 8c bd
       0.023263402 0.05757143 -0.093191296 -0.06850338
0003e0 ad 83 31 3e 9e 8a ab 3d 21 36 0e 3d d4 78 fd 3d
       0.17335387 0.083760485 0.03471959 0.12376562
0003f0 e2 3d ef 3d 84 75 4b bd 10 97 17 bd b2 82 7f 3d
       0.11681725 -0.04967262 -0.0370093 0.0623805

linear2.weight f4 [128, 256]
000000 56 85 f8 bc 10 7a ba ba ee 5a 54 bd d9 5f 86 3c
       -0.030337017 -0.0014227051 -0.05184453 0.016403126
000010 e5 a2 1e bd 16 c3 0e bd 89 9f ba bc 94 0c 06 3d
       -0.038729567 -0.034854017 -0.02278115 0.03272684
000020 cb ad e6 3c f4 ff 8a 3c d0 7e 70 3c 89 1f 8c bd
       0.028159043 0.016967751 0.014678672 -0.06841952
000030 e1 ef 4a bc 80 60 82 3c c0 4b b2 ba a0 94 21 3d
       -0.012386293 0.015915155 -0.0013602898 0.03944838
000040 b6 24 13 bc 6d 2f db bc 04 a4 83 bb fd 81 0b 3c
       -0.008980921 -0.026756013 -0.004017355 0.008514878
000050 24 bf 20 3d d3 3a 0b bd 0b cb 28 3d 82 5c 56 3d
       0.039244786 -0.033991646 0.041209262 0.052334316
000060 7a f4 85 bb bd f9 8c bd 9c 30 d3 3c 9e c2 0d 3c
       -0.004087982 -0.06883571 0.025780015 0.008652357
000070 e4 70 85 bb 52 18 11 3d ce 73 8c bd 12 c5 e4 3c
       -0.0040722955 0.035423584 -0.068580255 0.027926002
000080 90 b6 43 bd d8 69 42 3b dc 61 54 3d 92 65 3e bd
       -0.047781527 0.0029665139 0.05185114 -0.046483584
000090 d6 bf 55 bd d2 1d 3d bd 94 2c 3f bd 7c 42 0b bd
       -0.052184902 -0.046171017 -0.046673372 -0.03399895
0000a0 4c eb 48 3d c0 76 6a bd fc 3b 3f bd f9 6d be bc
       0.04905252 -0.057242155 -0.046688065 -0.023245798
0000b0 8a 28 35 bd ec 8b 52 3d 18 a1 f8 ba d2 24 82 bc
       -0.044228114 0.05140297 -0.0018968908 -0.015886698
0000c0 c7 bf 48 bd 6b a0 06 bd 5b f7 ea 3c 44 40 ab bc
       -0.049011018 -0.03286783 0.028682401 -0.020904668
0000d0 00 61 88 b8 93 29 c1 3c c6 37 6b 3c ac 26 c9 bc
       -6.503053e-05 0.023579394 0.014356559 -0.024554573
0000e0 3c 4e 28 bd c8 3f 72 bd d4 9a ea bc 41 7a 88 bd
       -0.041090235 -0.059142858 -0.02863828 -0.06663943
0000f0 0d e9 36 bd 24 4d 0e 3d 1d 43 48 bd af 4c 0f 3d
       -0.04465585 0.034741536 -0.04889213 0.03498524
000100 24 50 56 bd 8d a6 22 3d c2 2c 60 bd 1d 0d cb bc
       -0.05232252 0.039709616 -0.054730184 -0.024786526
000110 eb 7b dd 3c 59 b9 7e 3c f6 83 27 3d e0 da 26 3d
       0.027036628 0.01554712 0.040897332 0.04073608
000120 96 da 7c 3d c8 94 7a bd dd 7d 1c 3d 4a f1 88 bb
       0.061731897 -0.061177045 0.03820597 -0.0041791545
000130 68 ac 6a bd c0 ac 53 b9 dc 2f c2 3c a6 f9 d4 3b
       -0.057293326 -0.00020186882 0.023704462 0.006499487
000140 96 dd 4d 3c 17 21 2c 3d c0 4c 93 bc 28 6e 3d bd
       0.012565037 0.042023744 -0.017980933 -0.04624763
000150 02 02 25 3d 8a 0e 71 bc c4 71 04 3d 84 2d 6f 3b
       0.040285118 -0.014712939 0.032335058 0.0036495635
000160 53 20 dd bc 7f 69 54 3d 32 b9 fd bc 4e a7 35 bd
       -0.026992952 0.05185842 -0.030972097 -0.044349007
000170 d6 38 61 3d 94 71 31 bd 7f 10 a4 3c 08 80 40 3d
       0.054985844 -0.043321207 0.020027397 0.0469971
000180 c3 0e 8e bd 30 06 9d bc 6c 2e 45 3d ba d3 92 3c
       -0.06936409 -0.01916799 0.048139974 0.017923225
000190 29 a5 9e bc 9d 01 9d bc 27 86 1d 3c 88 ba 50 bb
       -0.019365864 -0.019165808 0.009614504 -0.0031849463
0001a0 49 65 23 bc 58 bb 03 3d 2c bf d8 3b 8c 13 3b bd
       -0.009972879 0.032161087 0.0066145863 -0.04567294
0001b0 4d 70 8c bd 50 49 6c bd cc 0d 4e 3d ff 61 2c 3d
       -0.06857357 -0.057687104 0.050306126 0.042085644
0001c0 44 ed cc bc 11 ae 56 3d 45 4c 03 bd 38 a3 22 3b
       -0.02501548 0.052412096 -0.03205516 0.0024816524
0001d0 7d 4b 3f bd a8 8c cb bc 92 80 41 3d b0 48 e4 3c
       -0.04670285 -0.024847344 0.047241755 0.027866691
0001e0 1e ab 48 3c ad 0f 05 3d fd 1e 8e bc 3d b4 9e bc
       0.012247829 0.032485653 -0.01734876 -0.019373054
0001f0 f3 39 89 3d 40 b9 f3 bc e0 cf 8e bd 08 f8 c3 3c
       0.06700506 -0.02975142 -0.06973243 0.023921981
000200 a4 e4 46 3d 1e cb e3 3b b8 52 6f 3b 22 67 55 bd
       0.048557892 0.0069517037 0.003651781 -0.05210031
000210 26 6e 06 bd e6 ff 57 3d 70 1c b0 3a c3 23 0e bd
       -0.03281989 0.05273428 0.0013436209 -0.034702074
000220 0c 3b 11 bd 4f 21 fc 3c 57 6c f8 3c 35 a2 2b bd
       -0.035456702 0.030777602 0.030325098 -0.04190274
000230 36 fb 90 bd 1c 79 50 3b 5b df 24 bd 0a ba 38 bd
       -0.07079165 0.0031810468 -0.04025207 -0.045099296
000240 32 a3 b9 bb 3a e8 5d bd ba 0a 99 3c d4 e1 14 bd
       -0.0056652064 -0.054176547 0.018681873 -0.03634818
000250 55 f6 1b bd de 08 4d bd 0c b6 f0 3c 47 70 98 3c
       -0.038076717 -0.050057285 0.029383682 0.018608226
000260 02 51 b3 bc e4 e2 4d 3d 28 2b 26 3d 12 49 d0 bb
       -0.021889213 0.050265208 0.0405685 -0.006356367
000270 f2 7f 88 bb 82 d0 73 bc 1c ba 29 bd bf 6c f5 3c
       -0.004165643 -0.014881255 -0.041437253 0.02995908
000280 e8 37 35 3d a6 a6 d5 3c c7 7f 7c 3c 31 b0 eb 3c
       0.04424277 0.02608044 0.015411324 0.028770538
000290 92 53 00 3d a2 e1 9b bc 16 db 0f bd da fc fc bc
       0.0313297 -0.019028489 -0.035121046 -0.030882288
0002a0 9b 8a cb bc 5f 22 5b bc 3c 93 8c 3b 30 ae 44 bd
       -0.024846366 -0.013374894 0.0042900126 -0.04801768
0002b0 11 39 27 bc c5 7e 8e bc 90 5a 6c bd cc 4e 51 bd
       -0.010206477 -0.017394433 -0.057703555 -0.051100537
0002c0 58 f8 4f 3b b0 72 5e 3a 90 6c fc 3c af 0b 0b 3c
       0.0031733718 0.00084857177 0.030813485 0.008486672
0002d0 23 57 0f bc be 1f 5d bc 24 dc 09 bb f2 62 76 bc
       -0.008748802 -0.013496337 -0.0021035755 -0.015038239
0002e0 3a c0 50 bc 63 c1 12 3d 38 4f 55 3d 20 b2 ef 3c
       -0.012741143 0.03582896 0.052077502 0.029259741
0002f0 ce ff 46 3d e0 26 d9 bc 0d b3 e3 bc 80 84 ae 3c
       0.048583798 -0.026507795 -0.027795339 0.021303415
000300 d8 94 37 3d 96 5a 0e 3c 19 3f 1c 3d c0 fe 21 bd
       0.044819683 0.00868859 0.038146112 -0.03954959
000310 12 6a 7b bd e6 cf db bc f2 37 7a bd ec a0 5b bd
       -0.061380453 -0.026832532 -0.06108851 -0.053620264
000320 e1 89 93 bc 82 3a 62 bd 5e f3 03 3c 6e df c8 3b
       -0.018010082 -0.05523158 0.008053629 0.0061301505
000330 3b 19 94 3c 12 8c 70 bc 54 8b 33 bd 90 df 41 bd
       0.018078437 -0.014681833 -0.043834046 -0.047332346
000340 b8 1e 1c bd e8 00 ae bc 00 c4 71 b9 2a 97 74 bc
       -0.038115233 -0.021240667 -0.00023056567 -0.014928618
000350 fa a1 41 bd 08 7e 8b bc 8e 19 7d bd a3 78 56 bd
       -0.047273614 -0.01702787 -0.06179195 -0.052361142
000360 85 ee 66 bd 22 df f1 3b e5 8f 8e bc d0 87 22 3d
       -0.056379814 0.007381336 -0.017402599 0.039680302
000370 9c 9a 08 3d 58 17 6e bd 8a 47 1a bd e6 d8 89 3d
       0.033350572 -0.05812773 -0.03766588 0.06730823
000380 22 a3 51 3d 99 22 49 bd b0 64 03 3d ea f0 55 bd
       0.051180966 -0.04910526 0.032078445 -0.052231707
000390 0e 90 06 3c 70 5a 6b bd c0 2c d0 bc e6 b4 1c 3c
       0.008213056 -0.057459295 -0.025411963 0.009564614
0003a0 78 09 07 3b b4 2d 0c bd 82 07 75 bc 20 d4 68 bd
       0.002060501 -0.034223273 -0.014955403 -0.056842923
0003b0 4b 30 a9 3c e0 ab 45 3a 6b dc 1c 3d a8 70 e4 3c
       0.02065291 0.0007540565 0.038296144 0.02788575
0003c0 1a d3 50 3d a6 a9 b1 bc 51 99 ea 3c 7c 5f 97 bc
       0.050982572 -0.02168734 0.02863756 -0.018478148
0003d0 82 2f 65 bd 20 ef 12 bd bc 78 75 3b e3 21 2c 3d
       -0.05595351 -0.03587258 0.0037455996 0.042024504
0003e0 8e 1c 24 3d 5c 2e 5c bd a5 d4 8b 3d ec fc c7 bb
       0.040066294 -0.05375515 0.06827668 -0.0061031487
0003f0 c4 2b 01 bb 40 dd 4f 3c ef 89 63 bd 0a 35 3d 3d
       -0.0019709924 0.012687027 -0.055551466 0.04619316

linear2.bias f4 [128]
000000 6e 6f 6a 3c 4f aa 9e bd 46 01 f2 bb 05 9a 8b 3d
       0.0143087935 -0.077473275 -0.0073854057 0.06816486
000010 eb db 85 3c 46 96 22 bd 9b 98 09 3d 98 a7 80 3d
       0.016340217 -0.039694093 0.0335928 0.06281966
000020 e4 fe 0a bb aa be 0c 3c 63 f3 a6 bd 4f 9e f8 3c
       -0.0021209056 0.00859038 -0.08151891 0.030348925
000030 36 75 1b 3d a0 c7 9f 39 e7 8e 0f bc 10 e6 28 3d
       0.037953578 0.00030475575 -0.008762098 0.04123503
000040 be cc 02 3c 9e e4 b3 3d 60 60 0a 3d ad a4 81 3d
       0.007983385 0.0878384 0.033783317 0.063302375
000050 59 81 8c 3d 02 9a cf bc b0 3f bb bb 7a 72 be 3d
       0.068606086 -0.025341991 -0.0057143793 0.092991784
000060 9e c3 4b 3d bb ac 17 3d af a5 92 3d de 9b 61 bd
       0.049747102 0.037029963 0.07160508 -0.055080287
000070 31 94 72 3d c0 a6 b6 3c 6d ea a2 bd 48 57 94 3d
       0.059223358 0.02229631 -0.079548694 0.0724321
000080 48 ad ed 3c 7e 02 58 3d d8 51 d0 3c 7c fc 30 3b
       0.029013291 0.05273675 0.025429651 0.0027005961
000090 0f cc 8e 3d b4 56 0a bd b3 bc cc 3d 31 e8 ad bc
       0.06972515 -0.033774093 0.09996929 -0.021228882
0000a0 1a 24 3d bc d1 84 a0 bc 30 30 e4 3c 5a 88 ee 3c
       -0.011544252 -0.019594582 0.027855009 0.029117752
0000b0 5a e7 ad 3d 00 68 2f bb f3 10 4f 3d 88 52 36 bd
       0.084913924 -0.002676487 0.050553273 -0.0445123
0000c0 5a 4d ed 3c 6d 2f 86 3d 5c f7 c3 3d cc 8c bb bc
       0.028967548 0.065520145 0.095686644 -0.022894286
0000d0 71 41 09 bd eb dc 17 3d 37 af 83 bd 26 1d 8b bb
       -0.033509675 0.03707592 -0.06429904 -0.004245418
0000e0 31 24 08 3d 24 65 32 3b df 88 96 3d c1 90 ae bb
       0.03323764 0.002722093 0.07350325 -0.0053273146
0000f0 3a 95 80 3d ba 57 6c bc 32 49 57 3d 27 f9 76 3c
       0.06278463 -0.0144252125 0.05256004 0.015074051
000100 4e 50 f0 bc 5e e7 80 3b b0 89 83 3a 04 f1 4d 3d
       -0.029335167 0.003933831 0.0010035541 0.05027868
000110 eb 9f 76 3d f0 e3 9e bc d4 4c 1c bc 7f b7 b8 3d
       0.060211103 -0.019395798 -0.009539802 0.09019374
000120 f5 2e bc 3d fe b5 c9 3c d0 04 49 bb ac 00 96 3c
       0.09188644 0.024622913 -0.0030673034 0.018310867
000130 e1 73 3b 3c 19 4a 86 bd 5b ce c5 3d 5b e9 87 3d
       0.011441202 -0.06557102 0.096585 0.06636306
000140 1c f5 67 bb 54 c1 bf 3d a7 12 9b 3d 29 bf 90 bd
       -0.00353939 0.09363046 0.07571917 -0.07067711
000150 f1 8b e7 bc e9 7b 8c 3d 18 2c 0f 3d cd 42 d0 3c
       -0.028264971 0.068595715 0.03495416 0.025422478
000160 4f 50 18 3c 0c 7e 41 bd 3a 80 e0 3d b5 0c 07 bc
       0.009296491 -0.04723935 0.10961957 -0.008242776
000170 dc ba e6 3a 1e 9f 4e bd 48 88 16 bd 52 f5 4c bd
       0.0017603296 -0.050444715 -0.03675106 -0.050038643
000180 6f 3c 31 3d fb aa c3 bc 7c 17 c1 3d 28 37 96 3d
       0.043270525 -0.02388524 0.094283074 0.07334739
000190 a3 fe 0b bc d2 78 df bc 75 b3 be 3d 0e bc 40 3c
       -0.008544597 -0.027279291 0.093115725 0.011763586
0001a0 96 a7 95 bc 56 58 a3 3c f4 7e 2a 3d 60 b8 88 3d
       -0.018268388 0.019939583 0.04162498 0.06675792
0001b0 7a c7 15 3d 72 7f 2a 3c 7a 6d 3a 3d fa e0 94 bd
       0.03656719 0.010406362 0.04551456 -0.072694734
0001c0 2d 52 1a 3c 98 4a ba 3d 91 a8 7c bc 16 fc 18 3c
       0.009419006 0.09096259 -0.015421049 0.009337446
0001d0 a0 0f 40 bd 7a 14 d9 3d 94 2d b8 3c 0e 38 ce 3c
       -0.0468899 0.10599609 0.02248267 0.025173213
0001e0 35 b3 92 3d 60 89 90 3c 13 ba 0c bc 5c df 6f 3b
       0.07163087 0.01764363 -0.008589285 0.0036601638
0001f0 f8 b2 1c 3d 44 23 28 bd b5 2e 73 3d c0 e1 b9 3c
       0.038256615 -0.041049257 0.059370715 0.022690654

linear3.weight f4 [1, 128]
000000 c8 b3 4d bd b4 f4 5c 3b e7 50 f8 bc d2 f6 fe 3d
       -0.05022028 0.003371519 -0.030312015 0.12449421
000010 16 eb a5 3d f7 3e 88 bd f9 03 3b bd 5e 80 eb 3d
       0.0810148 -0.066526346 -0.045658085 0.114990935
000020 f0 ef f2 3d 60 b4 c5 3d c4 4e 34 bd 60 96 a7 3d
       0.11862171 0.096535444 -0.04402043 0.08182979
000030 ac 36 1f bd b7 9d 75 bd d6 3a a1 3d 40 ab 05 3e
       -0.0388705 -0.05996486 0.0787255 0.13053608
000040 70 a6 72 3a bc 03 a9 3d e8 33 85 bd fa b0 e1 3d
       0.00092563685 0.082526654 -0.06504041 0.11020084
000050 04 09 08 3e d3 94 30 3d 20 60 e9 3d 8d a3 f1 3d
       0.13284689 0.04311068 0.113952875 0.11798773
000060 ce 39 3a 3d 2e e7 fb 3d f9 49 d3 3d 99 f5 da bc
       0.045465283 0.122999534 0.103168435 -0.026728438
000070 06 f6 7a 3d 43 99 99 bd 58 8f 86 bd ad 13 01 3e
       0.061269782 -0.074999355 -0.065703094 0.12605162
000080 61 ab 2a 3d 38 d0 87 3d 9a 2b 89 bd da 41 83 bd
       0.041667346 0.066315114 -0.066977695 -0.064090446
000090 66 12 9a 3d 57 34 7a bd 9d 66 b1 3d 1d d9 35 3d
       0.075230405 -0.06108507 0.0866215 0.04439651
0000a0 32 af 9d 3d 26 e7 63 bd 57 81 42 bd c8 e3 94 3d
       0.076994315 -0.055640362 -0.04748663 0.07270008
0000b0 c5 df 04 3e b3 2b 5f bd 08 c9 82 bd 3e b3 9d bd
       0.12975986 -0.054485034 -0.06386 -0.07700203
0000c0 a8 37 8b 3d 9a 53 e7 3d 7c 10 90 3d 18 93 90 bd
       0.06797725 0.112952426 0.07034394 -0.07059306
0000d0 bc 20 a5 bc 14 0e 8f 3d af 15 47 bd 09 c6 05 3e
       -0.02015721 0.06985107 -0.048604663 0.13063826
0000e0 06 77 00 bd 5e f3 87 3d d6 39 b7 3d 42 17 96 3b
       -0.03136351 0.066382155 0.08946578 0.0045804093
0000f0 03 1b 33 3d 08 56 4c bd 25 43 44 3d 07 78 70 3d
       0.043726932 -0.049886733 0.047915597 0.058708217
000100 44 0a 0d bd 65 ef 76 3d b8 89 89 bd ae 6b 02 3e
       -0.03443362 0.0602869 -0.06715721 0.12736389
000110 76 67 3d 3d 5f 3b 5c bd 01 33 d1 bc ff f7 b0 3d
       0.046241246 -0.05376756 -0.025537016 0.086410515
000120 12 94 ae 3d 1e 60 04 3e e8 4e 14 bd 4e 44 e8 3d
       0.08524336 0.12927291 -0.036208063 0.11341153
000130 ba 58 c7 3d 9c ba 23 bd 3a 0d f2 3d 09 46 d8 3d
       0.0973372 -0.039972886 0.11818929 0.10560233
000140 49 92 e0 3d e5 30 0b 3e a4 48 94 3d ee d0 dd bc
       0.10965402 0.1359287 0.072404176 -0.027077165
000150 a0 65 3a bd 6b 24 8f 3d 54 a2 65 bb 7d 3d e1 bc
       -0.045507073 0.06989368 -0.0035039382 -0.02749514
000160 29 4c d5 3d 0e 21 46 bd 5f 66 c6 3d d7 d4 0c bd
       0.10414917 -0.048371367 0.096874945 -0.034382667
000170 a9 ae 8d bc 5e 2a 49 bd 60 41 1e bd ec 54 eb bc
       -0.017295199 -0.04911267 -0.038636565 -0.028727017
000180 95 96 a4 3d da 07 81 bd 91 3e 00 3e 29 0b 71 3d
       0.08036534 -0.06300326 0.12523867 0.058848534
000190 c3 3d 37 bd d0 2e 45 3d fc 36 c1 3d 30 e0 62 bd
       -0.044736635 0.048140347 0.094343156 -0.055389583
0001a0 ee d3 e0 bc 9e 1c 8a bd 1f c9 04 bc 0c 62 08 3e
       -0.027444806 -0.067437395 -0.008104592 0.13318652
0001b0 68 7b 41 3d 77 4f 92 3d db 6a ef 3d 46 17 82 bd
       0.04723683 0.07144063 0.11690303 -0.06352095
0001c0 b6 eb 9e 3d 8a 35 ae 3d d1 ad 3c bd 1a fc fd bb
       0.07759802 0.085063055 -0.0460642 -0.007751
0001d0 8f e3 76 bc 00 1f 95 3d 1f 51 a4 3d 26 05 be 3d
       -0.015068903 0.072813034 0.08023285 0.09278326
0001e0 b5 17 03 3e a5 fe 37 bd 05 dc b4 3d c6 e2 9f 3d
       0.12802012 -0.044920582 0.08831028 0.078069255
0001f0 f3 37 ab 3d 2a b3 17 bd af ed 91 3d 88 8e 52 bd
       0.08360281 -0.0370361 0.07125413 -0.05140546
