weights/best_weights_ep2_20250827_191702.pth (torch, 188801 bytes, 5 tensors)

linear1.weight f4 [256, 51]
00000000: f25d 74bd 6021 873c 527d 0fbe b636 febd
00000010: c21f b2bd fb0b d7bc 2208 11bd b2e8 fabd
00000020: 82b0 f9bd 33be 03be f311 4e3d 43da b73d
00000030: e112 d3bd 9c48 7d3d 32c5 66bd bf01 663d
00000040: 536e 97bd 8012 13bd d670 15be 1722 c73d
00000050: 930e a4bd 3015 08be 3697 a13d 9655 0fbd
00000060: 470c 17bd 0c89 523d 9023 7fbd b2f2 12be
00000070: 965a 93bc fcb1 edbc 0860 ea3c 0397 3c3d
00000080: c7e0 0abe 2208 d33d 3aa1 aebd 8ecf a23d
00000090: 557a 2fbc 915a c13d b96b ea3d 2ac9 e43d
000000a0: 3a4e a6bd afdf 4b3d 7253 2abd d199 e43c
000000b0: c430 0cbe d168 db3c e949 af3c f6b5 37bd
000000c0: d071 183d f048 d93a 657a 10bd fb9e ecbd
000000d0: 2895 9a3d da81 a93d e0c2 573c 4b6b cc3d
000000e0: 516f 113e 8fce 65bc c550 0c3e 5a27 fc3d
000000f0: ea1b a33b d8d7 b1bd 8c95 b73b d3a5 b7bc
00000100: 9c36 3b3d e055 01be 9e03 013e b063 a63d
00000110: 431e 0d3d 1e7d b7bd 84e5 7d3d 904a a3bd
00000120: 27c8 893d 1d7d ebbd 25b6 dcbd a053 d9b9
00000130: 953d b23d ace5 86bd d405 45bd b836 cabc
00000140: dc08 7c3d ee7a 803d f24b d8bd 7495 b93d
00000150: 013f 0c3e aab1 7bbd 612a ec3d 6a3d ebbd
00000160: 30bf 6b3d 2ebe 213d 7035 383d 4b25 8d3d
00000170: 239f ccbd c64b fa3d 6f59 b6bd 0b0c 4f3d
00000180: 8141 eebd dbad 943d da33 06be bd4f 41bc
00000190: 1d31 db3d 060c cdbc 81a0 f7bd 5ed1 bf3d
000001a0: 56d5 ee3d 18bf 22bd 7a40 d1bd 623e 02be
000001b0: e046 d6bb f0cf 1abd 80d9 623b dcdf 8e3d
000001c0: 6ff5 0b3e e0c6 40bd 246d b13d f077 1f3d
000001d0: 3e23 cb3d 210b e2bd 6a51 b43d 128c 21bd
000001e0: b016 abbd 4421 3f3d 9f36 0c3e 0e21 cdbd
000001f0: 6b5d 0fbe 0033 cabd bac4 e53d 78cb 01be
00000200: e610 b5bd 27fb eabd 9263 0ebd 147e dfbc
00000210: cdf5 98bd 8871 8d3c 00b2 013a a837 dabc
00000220: 081e 14bd b449 373d 203e 1fbd 00de 4e3b
00000230: 7c34 6b3d c0a9 37bb a093 b1bb 8074 39bd
00000240: fa33 36bd 429b 4bbd 4041 42bd 9cc4 c0bc
00000250: a00c 833c 40b5 243d 50fb 50bc 6cf5 f4bd
00000260: b84a ce3d ea35 95bd ea36 473d eec2 ebbd
00000270: d677 a53d db20 23bd 692f 12be fe0d 0fbe
00000280: c621 0ebe f0db 603d 0203 b3bd cc09 ae3d
00000290: f2df 253d 35fb 8ebc e551 903d 89e3 cd3d
000002a0: 6c4c 9b3d 483c 203d f4b1 d03d 98c5 c4bd
000002b0: 14cf 21bd f715 07be 1f09 0abe 3c6b c0bd
000002c0: e6b2 43bc 1f5a 353d 7742 40bd e808 0bbe
000002d0: a2bb 1ebe ea18 0cbe e9b1 db3d ee31 8e3c
000002e0: ce58 1fbd 8e08 643c 187a ad3d f092 343d
000002f0: a96b cdbd cc26 dd3d 72d2 d03c b111 0a3d
00000300: d07b e2bd c86b 0e3e b69d 0ebe 7c83 8b3d
00000310: ced4 84bd 489d 353d c846 07be 51c3 c7bd
00000320: bb60 3fbc d6e8 4bbd 1e07 a93b 42ef 4a3d
00000330: ddd0 823d 78d6 3cbd 567a da3d 10c3 8a3c
00000340: 4d24 b7bd e845 83bd 84c6 9c3d 9212 dabd
00000350: 12d3 8f3d ce5a 943c 5f3b a7bd ebd0 6fbd
00000360: 1d03 a43c b537 5ebd 5af6 fbbc bbe3 12bd
00000370: da1f 19bd 1467 b33d a155 f1bd 3868 dc3d
00000380: 6078 9f3d 7d69 dcbd 7c54 89bd 85c2 53bd
00000390: 2280 90bb abc7 cebd eccb c7bc a0e1 a03c
000003a0: 5247 8cbc e12c 803d cb28 99bc 3354 863d
000003b0: a48e d2bd 96f3 ff3d 2a1e 3bbc 55c6 f73d
000003c0: 8088 973d edc4 0dbd ae62 6e3d c287 d93d
000003d0: e6c6 983d 9db5 39bd 2f8b d4bd a4ae 113e
000003e0: 64b3 f4bc 4413 963d 4e28 033d 60df c4bc
000003f0: b622 483d e63b ca3d 0e83 613d da1c f03d
-0.059659906 0.016495407 -0.1401265 -0.12412779 -0.086974636 -0.02625083 -0.035408147 -0.12251414
-0.12191869 -0.12865524 0.050310086 0.08977177 -0.10306335 0.061836824 -0.056340404 0.05615401
-0.073940895 -0.035906315 -0.14593825 0.09723299 -0.08010592 -0.13289332 0.07890169 -0.03499373
-0.036876943 0.05140023 -0.062289774 -0.14350393 -0.01798753 -0.029015534 0.028610244 0.046042453
-0.13562308 0.103042856 -0.08526845 0.07949744 -0.010710319 0.09441102 0.11446328 0.111711815
-0.08120389 0.04977387 -0.041583486 0.027905377 -0.13690478 0.026783379 0.021397548 -0.044851266
0.037217915 0.0016577523 -0.035272975 -0.115537606 0.075479805 0.0827672 0.01316902 0.09981402
0.1420262 -0.014026298 0.13702686 0.12312193 0.004977693 -0.08683747 0.005602544 -0.022417938
0.045706376 -0.12630415 0.12599036 0.08124483 0.034452688 -0.08959411 0.06198646 -0.07973206
0.06727629 -0.11498473 -0.10776929 -0.0004145177 0.08703152 -0.06586775 -0.04810126 -0.024684295
0.061531886 0.06273447 -0.105613604 0.09061709 0.13695909 -0.06144873 0.11531521 -0.11486323
0.057555377 0.03948801 0.044972837 0.06891879 -0.099912904 0.12221484 -0.08903777 0.050548594
-0.11633588 0.07259723 -0.13105717 -0.011798796 0.10702727 -0.025030147 -0.120911606 0.093661055
0.11661784 -0.039733022 -0.10217376 -0.1271911 -0.0065392107 -0.03779596 0.0034614503 0.069762915
0.13667844 -0.047064662 0.08663395 0.03893274 0.09918831 -0.11037279 0.08804591 -0.039440222
-0.08353937 0.046662584 0.13692711 -0.1001607 -0.1400048 -0.09873009 0.11219163 -0.12675273
-0.08841114 -0.11473685 -0.034762926 -0.027281798 -0.07468758 0.01726605 0.00049474835 -0.026637867
-0.036161453 0.044748023 -0.038877606 0.0031565428 0.0574231 -0.0028024763 -0.0054192096 -0.04527712
-0.044483162 -0.049708612 -0.04742551 -0.02353125 0.015997231 0.040211916 -0.01275523 -0.11960873
0.10072845 -0.07285674 0.048636355 -0.11511789 0.080794975 -0.039826255 -0.14275898 -0.13970181
-0.13880071 0.05489725 -0.08740808 0.08497962 0.040496774 -0.01745377 0.0704687 0.100531645
0.07582936 0.03911999 0.10190192 -0.096080005 -0.039504126 -0.13191973 -0.13480042 -0.09395453
-0.011944508 0.0442754 -0.046938386 -0.13577616 -0.15501264 -0.13681379 0.10727293 0.017357793
-0.03890305 0.013918055 0.08470553 0.044085443 -0.100303 0.107984155 0.025490973 0.033708278
-0.110587716 0.13908303 -0.1392735 0.06812188 -0.06485902 0.04433945 -0.13210595 -0.097540505
-0.011680777 -0.049782597 0.005158319 0.04954458 0.06387494 -0.04610297 0.10667865 0.016938716
-0.08942471 -0.06409818 0.07655051 -0.10648073 0.0702268 0.018109705 -0.08165621 -0.05854885
0.020021016 -0.054252345 -0.030757118 -0.035861712 -0.03738389 0.08759895 -0.117839105 0.10762066
0.077866316 -0.10762308 -0.06705567 -0.05169918 -0.004409806 -0.100966774 -0.02438923 0.019638836
-0.017123852 0.0625856 -0.01869621 0.065590285 -0.10281113 0.12497632 -0.011420766 0.12098376
0.07399082 -0.03461163 0.058199577 0.10621597 0.07459812 -0.045339216 -0.1037811 0.14226776
-0.029870696 0.073278934 0.03202086 -0.024032295 0.048861228 0.09874706 0.055056624 0.11724253

linear1.bias f4 [256]
00000000: 3661 e93c 7c99 df3d 3a12 b2bd 9c39 e7bc
00000010: 7183 013c 4261 21be 904a dd3d 8cf5 0ebb
00000020: 9563 053e 9c6d f33d 24e2 91bc 4198 c33c
00000030: df6c f1bd 148a 11bd 2440 abbd cbf1 02be
00000040: 1981 67bd d25a e93d 6558 99bd 5675 b23d
00000050: 2d3a 073e c2df 2b3d 5a72 3fbd 8a24 653d
00000060: a6c2 19bc d875 793d 4546 83bd 50d6 50bd
00000070: 56a6 e8bd fccc 823d e8d8 3e3d 747d 433d
00000080: c385 ebbd 712d d03c 432f ef3c 1a0d f03d
00000090: 2d69 d7bd 8c5f d9bc c1ed 203e 1272 eebd
000000a0: 0f15 cf3d 4419 7d3b 5cab 21bb aeb2 de3d
000000b0: 74d6 71bd f2e2 acbd d1be f13c 4335 323c
000000c0: 37cd 843d 0a6d 26bd b9ae c2bd f1fc 6abc
000000d0: c5e2 533d fd3b 383d b2b2 cd3c f0df 34bd
000000e0: a2c6 9f3d 389a f23d 688e 9cbd 2a09 c6bd
000000f0: 3c9a 903d 5c2a 503d d3d8 e8bd 7c5e 3f3d
00000100: fc39 37bc dcf9 053d 183b 8e3c 0e44 78bd
00000110: 9ce0 eabd 6c3b 79bd 20d1 08bc ab34 98bc
00000120: cf73 acbd 78a9 4e3d 908e 25bc fee6 453d
00000130: 2899 cf3c 8dca 093d 83f9 fabd 2b24 c53d
00000140: d0c6 fa3d f0c2 b4bd b479 e43c 5f7d e23d
00000150: 9d50 c2bd ae27 ae3d 0aa4 83bd e073 d0bc
00000160: 92ec fabd 6502 0c3e be3d e63b 9cda e73d
00000170: 5609 f7bd 5c35 21bd eaba e83b 4a4d a5bb
00000180: 6279 6abd 7ae0 ebbd 50c4 e23d f863 f3bd
00000190: 1e67 ff3d 7966 b33d 057f 273d 2c4c b83d
000001a0: f6bb 943d 9a22 2ebd 62c6 cc3d 99ec bbbd
000001b0: 7563 ec3c 762e cabd 9e34 f63d a218 46bd
000001c0: 410e 1e3e 2062 983a a8ac 8d3c c498 8dbd
000001d0: d900 c2bd 9844 a93c ae39 aabd 8c51 2f3d
000001e0: d035 013e 1124 12bd c4e5 d33d 7676 e93d
000001f0: 8d06 dbbd e883 f13d 06a4 b13d 30fb e33c
00000200: dec9 ea3d 364f 843d efad 0cbe d469 7f3c
00000210: 225f c7bc 16b2 3abd 08be 823c e840 703d
00000220: 91f5 c43c 4628 01be 7e08 a43d e135 013e
00000230: 4020 993d 6884 27bd 6d3c e9bd 552d bbbd
00000240: 4ccd e9bc 5ef6 78bd a188 0abe ee51 bebd
00000250: 31c5 273c b21d c03c d0ae acbd a9ee 9bbd
00000260: 00ca c93d 40d8 5f3d 32fe c9bd f050 493b
00000270: 5613 033e 3cab a73d a336 fdbd e44d d6bd
00000280: a65f c23d 387c 09be 8fa3 dcbc 08b3 c1bd
00000290: e120 36bc 98c6 04be 7b14 03be 3fa1 5fbd
000002a0: aaa9 aa3d 69de 80bd ea0a 1abd d77c 8bbd
000002b0: 684e bdbc 3a0e 21bd ea82 04bd 94a1 12be
000002c0: 44f7 d33d fd0a 5d3c 7c6a 173d ba60 ad3d
000002d0: b155 15be 16ee c8bd 150e 67bd 1c6b 78bd
000002e0: a014 a63d d0cb 0b3a c327 01be b377 253c
000002f0: 0e5a 9cbc 200a 92bd 4083 0ebe f6f0 87bc
00000300: 745f 1cbd 8a8e 963d 6e84 623d 9014 dfbd
00000310: 83ca d1bc 0fbd 4dbd 9ff1 123e 6251 a93d
00000320: de18 10bd ba09 b13d 7cea a93d 1acf bb3c
00000330: 51e7 013e 8ebc 11be 4c4a 093e 305d 6b3b
00000340: 390c 023e 9aa7 2fbd 1631 da3b 1f6a 9c3c
00000350: 2c76 703d 0060 15be 84e7 473d 1e2b 903d
00000360: fa27 b8bd 9a9c 3c3c 1eb1 fd3d 07a8 fcbd
00000370: ca41 d8bd 398b 62bd f00e f83c f593 0fbe
00000380: 3a17 0a3e c9c3 b43d 30b0 e7bd 20e2 623c
00000390: b33c 74bc 0839 d93d 1c1f e13d 247c b63d
000003a0: cfc9 d0bd 7c6b 75bd a81d b8bd 226d 1fbd
000003b0: f656 c93d 9ca4 f83d c0bc 2f3b 3cee ae3d
000003c0: d2bb c5bd 4043 6e3d 253d 273d beac 06bd
000003d0: 2abe dcbb a0dd e13c ad4b fcbd e3ef 9fbd
000003e0: 5fcb 123e 0834 5c3d 2fef 0c3d 3188 003e
000003f0: 58cd b13d 532b a3bd 073c 89bd 94a1 043d
0.028488737 0.10917947 -0.08694883 -0.028225712 0.007904873 -0.15759757 0.10805237 -0.0021813838
0.13026269 0.11886141 -0.017808028 0.023876311 -0.11788344 -0.035532072 -0.08361843 -0.12787549
-0.0565196 0.11394276 -0.07487563 0.08713786 0.13205786 0.04196144 -0.046739914 0.05594305
-0.009384787 0.0609034 -0.06409887 -0.050985634 -0.11359851 0.06386754 0.046593577 0.047727063
-0.115001224 0.025412293 0.02919734 0.11721249 -0.105181076 -0.026534818 0.15715696 -0.11642851
0.101114385 0.0038619796 -0.0024668789 0.10873924 -0.05904241 -0.08441724 0.029509934 0.010876956
0.06484454 -0.04063133 -0.09505982 -0.0143425325 0.051729936 0.044979084 0.025109623 -0.044158876
0.07801558 0.11845821 -0.07644349 -0.09669717 0.07060668 0.050821647 -0.11369481 0.046720967
-0.011183258 0.032708988 0.017362162 -0.060611777 -0.11468622 -0.060847685 -0.008350641 -0.018579802
-0.08420526 0.050454587 -0.01010479 0.048315994 0.025341585 0.033640433 -0.12254622 0.09626039
0.12244952 -0.08826244 0.027890064 0.11059069 -0.09488032 0.08503662 -0.06427772 -0.025445879
-0.122521535 0.13672788 0.007026403 0.11320993 -0.120623276 -0.039357528 0.00710236 -0.005044614
-0.057244666 -0.11517425 0.110726 -0.11884302 0.1247084 0.087597795 0.04089262 0.08998904
0.07262413 -0.042513467 0.09998776 -0.09175987 0.028856019 -0.09872143 0.12021755 -0.048363335
0.15435125 0.0011625923 0.017294243 -0.06913903 -0.09472818 0.02066259 -0.08311783 0.04280238
0.12618184 -0.035678927 0.10346559 0.11399548 -0.10694609 0.11792737 0.08673863 0.027829736
0.11464284 0.06460421 -0.13738225 0.015589196 -0.024337355 -0.045579992 0.015959755 0.05865565
0.024042876 -0.1261302 0.08009432 0.1261821 0.07476854 -0.040897757 -0.113884784 -0.09139506
-0.028540276 -0.06078183 -0.13528682 -0.092929706 0.010239885 0.02345166 -0.0843178 -0.0761388
0.098529816 0.05464959 -0.09862937 0.0030718409 0.12800345 0.08186957 -0.12363937 -0.10464075
0.094909 -0.13426292 -0.02693346 -0.094579756 -0.011116237 -0.12966383 -0.12800781 -0.054597136
0.08333142 -0.06292421 -0.037608065 -0.06810921 -0.023108676 -0.039320208 -0.032351412 -0.1431945
0.103498966 0.013491389 0.036966786 0.08465715 -0.1458347 -0.09811036 -0.056409914 -0.060649022
0.08109403 0.00053327996 -0.12612824 0.010099339 -0.01908591 -0.071308374 -0.13917255 -0.016594391
-0.03817697 0.07351406 0.055302076 -0.10892594 -0.02560926 -0.05022913 0.14349984 0.08267476
-0.035179965 0.08644433 0.082966775 0.022925902 0.12685896 -0.14232084 0.13407248 0.0035913698
0.12699975 -0.042884447 0.0066586835 0.019093571 0.058706447 -0.14587402 0.048804775 0.07039474
-0.08992 0.011511946 0.12387298 -0.12336736 -0.10559423 -0.055308554 0.03028056 -0.14021285
0.13485423 0.088264056 -0.11312902 0.013847858 -0.01490705 0.10606581 0.10992262 0.08910397
-0.10194742 -0.05991696 -0.089900315 -0.038922437 0.098310396 0.12140772 0.0026815385 0.08541533
-0.096549645 0.058169603 0.040829796 -0.032879584 -0.0067365365 0.0275715 -0.123191215 -0.07809427
0.14335392 0.05376056 0.03440779 0.12551953 0.08681744 -0.07967248 -0.067009024 0.032380655

linear2.weight f4 [128, 256]
00000000: 5685 f8bc 107a baba ee5a 54bd d95f 863c
00000010: e5a2 1ebd 16c3 0ebd 899f babc 940c 063d
00000020: cbad e63c f4ff 8a3c d07e 703c 891f 8cbd
00000030: e1ef 4abc 8060 823c c04b b2ba a094 213d
00000040: b624 13bc 6d2f dbbc 04a4 83bb fd81 0b3c
00000050: 24bf 203d d33a 0bbd 0bcb 283d 825c 563d
00000060: 7af4 85bb bdf9 8cbd 9c30 d33c 9ec2 0d3c
00000070: e470 85bb 5218 113d ce73 8cbd 12c5 e43c
00000080: 90b6 43bd d869 423b dc61 543d 9265 3ebd
00000090: d6bf 55bd d21d 3dbd 942c 3fbd 7c42 0bbd
000000a0: 4ceb 483d c076 6abd fc3b 3fbd f96d bebc
000000b0: 8a28 35bd ec8b 523d 18a1 f8ba d224 82bc
000000c0: c7bf 48bd 6ba0 06bd 5bf7 ea3c 4440 abbc
000000d0: 0061 88b8 9329 c13c c637 6b3c ac26 c9bc
000000e0: 3c4e 28bd c83f 72bd d49a eabc 417a 88bd
000000f0: 0de9 36bd 244d 0e3d 1d43 48bd af4c 0f3d
00000100: 2450 56bd 8da6 223d c22c 60bd 1d0d cbbc
00000110: eb7b dd3c 59b9 7e3c f683 273d e0da 263d
00000120: 96da 7c3d c894 7abd dd7d 1c3d 4af1 88bb
00000130: 68ac 6abd c0ac 53b9 dc2f c23c a6f9 d43b
00000140: 96dd 4d3c 1721 2c3d c04c 93bc 286e 3dbd
00000150: 0202 253d 8a0e 71bc c471 043d 842d 6f3b
00000160: 5320 ddbc 7f69 543d 32b9 fdbc 4ea7 35bd
00000170: d638 613d 9471 31bd 7f10 a43c 0880 403d
00000180: c30e 8ebd 3006 9dbc 6c2e 453d bad3 923c
00000190: 29a5 9ebc 9d01 9dbc 2786 1d3c 88ba 50bb
000001a0: 4965 23bc 58bb 033d 2cbf d83b 8c13 3bbd
000001b0: 4d70 8cbd 5049 6cbd cc0d 4e3d ff61 2c3d
000001c0: 44ed ccbc 11ae 563d 454c 03bd 38a3 223b
000001d0: 7d4b 3fbd a88c cbbc 9280 413d b048 e43c
000001e0: 1eab 483c ad0f 053d fd1e 8ebc 3db4 9ebc
000001f0: f339 893d 40b9 f3bc e0cf 8ebd 08f8 c33c
00000200: a4e4 463d 1ecb e33b b852 6f3b 2267 55bd
00000210: 266e 06bd e6ff 573d 701c b03a c323 0ebd
00000220: 0c3b 11bd 4f21 fc3c 576c f83c 35a2 2bbd
00000230: 36fb 90bd 1c79 503b 5bdf 24bd 0aba 38bd
00000240: 32a3 b9bb 3ae8 5dbd ba0a 993c d4e1 14bd
00000250: 55f6 1bbd de08 4dbd 0cb6 f03c 4770 983c
00000260: 0251 b3bc e4e2 4d3d 282b 263d 1249 d0bb
00000270: f27f 88bb 82d0 73bc 1cba 29bd bf6c f53c
00000280: e837 353d a6a6 d53c c77f 7c3c 31b0 eb3c
00000290: 9253 003d a2e1 9bbc 16db 0fbd dafc fcbc
000002a0: 9b8a cbbc 5f22 5bbc 3c93 8c3b 30ae 44bd
000002b0: 1139 27bc c57e 8ebc 905a 6cbd cc4e 51bd
000002c0: 58f8 4f3b b072 5e3a 906c fc3c af0b 0b3c
000002d0: 2357 0fbc be1f 5dbc 24dc 09bb f262 76bc
000002e0: 3ac0 50bc 63c1 123d 384f 553d 20b2 ef3c
000002f0: ceff 463d e026 d9bc 0db3 e3bc 8084 ae3c
00000300: d894 373d 965a 0e3c 193f 1c3d c0fe 21bd
00000310: 126a 7bbd e6cf dbbc f237 7abd eca0 5bbd
00000320: e189 93bc 823a 62bd 5ef3 033c 6edf c83b
00000330: 3b19 943c 128c 70bc 548b 33bd 90df 41bd
00000340: b81e 1cbd e800 aebc 00c4 71b9 2a97 74bc
00000350: faa1 41bd 087e 8bbc 8e19 7dbd a378 56bd
00000360: 85ee 66bd 22df f13b e58f 8ebc d087 223d
00000370: 9c9a 083d 5817 6ebd 8a47 1abd e6d8 893d
00000380: 22a3 513d 9922 49bd b064 033d eaf0 55bd
00000390: 0e90 063c 705a 6bbd c02c d0bc e6b4 1c3c
000003a0: 7809 073b b42d 0cbd 8207 75bc 20d4 68bd
000003b0: 4b30 a93c e0ab 453a 6bdc 1c3d a870 e43c
000003c0: 1ad3 503d a6a9 b1bc 5199 ea3c 7c5f 97bc
000003d0: 822f 65bd 20ef 12bd bc78 753b e321 2c3d
000003e0: 8e1c 243d 5c2e 5cbd a5d4 8b3d ecfc c7bb
000003f0: c42b 01bb 40dd 4f3c ef89 63bd 0a35 3d3d
-0.030337017 -0.0014227051 -0.05184453 0.016403126 -0.038729567 -0.034854017 -0.02278115 0.03272684
0.028159043 0.016967751 0.014678672 -0.06841952 -0.012386293 0.015915155 -0.0013602898 0.03944838
-0.008980921 -0.026756013 -0.004017355 0.008514878 0.039244786 -0.033991646 0.041209262 0.052334316
-0.004087982 -0.06883571 0.025780015 0.008652357 -0.0040722955 0.035423584 -0.068580255 0.027926002
-0.047781527 0.0029665139 0.05185114 -0.046483584 -0.052184902 -0.046171017 -0.046673372 -0.03399895
0.04905252 -0.057242155 -0.046688065 -0.023245798 -0.044228114 0.05140297 -0.0018968908 -0.015886698
-0.049011018 -0.03286783 0.028682401 -0.020904668 -6.503053e-05 0.023579394 0.014356559 -0.024554573
-0.041090235 -0.059142858 -0.02863828 -0.06663943 -0.04465585 0.034741536 -0.04889213 0.03498524
-0.05232252 0.039709616 -0.054730184 -0.024786526 0.027036628 0.01554712 0.040897332 0.04073608
0.061731897 -0.061177045 0.03820597 -0.0041791545 -0.057293326 -0.00020186882 0.023704462 0.006499487
0.012565037 0.042023744 -0.017980933 -0.04624763 0.040285118 -0.014712939 0.032335058 0.0036495635
-0.026992952 0.05185842 -0.030972097 -0.044349007 0.054985844 -0.043321207 0.020027397 0.0469971
-0.06936409 -0.01916799 0.048139974 0.017923225 -0.019365864 -0.019165808 0.009614504 -0.0031849463
-0.009972879 0.032161087 0.0066145863 -0.04567294 -0.06857357 -0.057687104 0.050306126 0.042085644
-0.02501548 0.052412096 -0.03205516 0.0024816524 -0.04670285 -0.024847344 0.047241755 0.027866691
0.012247829 0.032485653 -0.01734876 -0.019373054 0.06700506 -0.02975142 -0.06973243 0.023921981
0.048557892 0.0069517037 0.003651781 -0.05210031 -0.03281989 0.05273428 0.0013436209 -0.034702074
-0.035456702 0.030777602 0.030325098 -0.04190274 -0.07079165 0.0031810468 -0.04025207 -0.045099296
-0.0056652064 -0.054176547 0.018681873 -0.03634818 -0.038076717 -0.050057285 0.029383682 0.018608226
-0.021889213 0.050265208 0.0405685 -0.006356367 -0.004165643 -0.014881255 -0.041437253 0.02995908
0.04424277 0.02608044 0.015411324 0.028770538 0.0313297 -0.019028489 -0.035121046 -0.030882288
-0.024846366 -0.013374894 0.0042900126 -0.04801768 -0.010206477 -0.017394433 -0.057703555 -0.051100537
0.0031733718 0.00084857177 0.030813485 0.008486672 -0.008748802 -0.013496337 -0.0021035755 -0.015038239
-0.012741143 0.03582896 0.052077502 0.029259741 0.048583798 -0.026507795 -0.027795339 0.021303415
0.044819683 0.00868859 0.038146112 -0.03954959 -0.061380453 -0.026832532 -0.06108851 -0.053620264
-0.018010082 -0.05523158 0.008053629 0.0061301505 0.018078437 -0.014681833 -0.043834046 -0.047332346
-0.038115233 -0.021240667 -0.00023056567 -0.014928618 -0.047273614 -0.01702787 -0.06179195 -0.052361142
-0.056379814 0.007381336 -0.017402599 0.039680302 0.033350572 -0.05812773 -0.03766588 0.06730823
0.051180966 -0.04910526 0.032078445 -0.052231707 0.008213056 -0.057459295 -0.025411963 0.009564614
0.002060501 -0.034223273 -0.014955403 -0.056842923 0.02065291 0.0007540565 0.038296144 0.02788575
0.050982572 -0.02168734 0.02863756 -0.018478148 -0.05595351 -0.03587258 0.0037455996 0.042024504
0.040066294 -0.05375515 0.06827668 -0.0061031487 -0.0019709924 0.012687027 -0.055551466 0.04619316

linear2.bias f4 [128]
00000000: 6e6f 6a3c 4faa 9ebd 4601 f2bb e752 1c3d
00000010: 51cc 5fbc 4696 22bd 9b98 093d 166e 063d
00000020: ce90 03bd dd62 afbc 9bf2 a6bd 8015 b739
00000030: f96a 443d a0c7 9f39 c0c4 1ebd a313 383c
00000040: 5835 933c 32e8 6c3d 6060 0a3d 4168 083d
00000050: a121 1e3d c6ad 62bd 1949 12bd ef01 813d
00000060: a8c5 a13c b85c e63b 4e6a 2a3d de9b 61bd
00000070: 9d66 ef3c c0a6 b63c 6dea a2bd 84cd 2d3d
00000080: 2043 81ba 1443 ba3c d851 d03c 7cfc 303b
00000090: 29b7 223d b456 0abd 2a4c 8f3d dcd4 51bd
000000a0: 0a2a 2abd d184 a0bc 3030 e43c 3035 67ba
000000b0: 98ed 603d 0068 2fbb 1e01 2b3d 8852 36bd
000000c0: 6848 87ba b97d 113d dd86 863d b2f1 62bc
000000d0: 7141 09bd 86df e73b 37af 83bd c844 0cbd
000000e0: 3124 083d 4775 dfbc aa30 323d 747e aebb
000000f0: b649 063d ba57 6cbc aad0 b83c ad8a 74bc
00000100: 4e50 f0bc eb87 d5bc b089 833a d61f a63c
00000110: 607e f73c f0e3 9ebc d44c 1cbc f68d 763d
00000120: d67c 7d3d a830 b0bb d004 49bb 2d83 3fbc
00000130: 2608 98bc 194a 86bd ca5d 883d b5f1 143d
00000140: 6860 09bd c250 823d 4844 3b3d 9088 78bd
00000150: f18b e7bc cd16 1e3d 182c 0f3d cd42 d03c
00000160: 049a a9bc ae8a 41bd b00f a33d d05d 09bc
00000170: f88d e63a 1e9f 4ebd 4888 16bd 9203 4dbd
00000180: ee6d 593c fbaa c3bc efa6 833d 5e8d 313d
00000190: a3fe 0bbc 469d 6abd ed42 813d 0ebc 403c
000001a0: 96a7 95bc 5658 a33c f47e 2a3d a08f 163d
000001b0: ce35 d73b 3282 a0bc a331 7e3c fae0 94bd
000001c0: fe98 a8bc 20b4 793d 4c24 bfbb 16fc 183c
000001d0: a00f 40bd f9a3 9b3d 8c51 f6bb 7828 9ebb
000001e0: 5485 2a3d 806a 163c 820f 1ebd 27c6 d7bc
000001f0: c447 073c 308c 27bd 629b f03c c0e1 b93c
0.0143087935 -0.077473275 -0.0073854057 0.038165 -0.013659553 -0.039694093 0.0335928 0.03281983
-0.03212052 -0.021409446 -0.08151742 0.000349205 0.04795358 0.00030475575 -0.038761854 0.0112351505
0.017969772 0.057838626 0.033783317 0.03330255 0.03860629 -0.055341505 -0.035714243 0.06299197
0.01974757 0.007030096 0.041605286 -0.055080287 0.029223735 0.02229631 -0.079548694 0.042432323
-0.0009861924 0.022737063 0.025429651 0.0027005961 0.039725456 -0.033774093 0.06996949 -0.05122839
-0.041543998 -0.019594582 0.027855009 -0.0008819876 0.054914087 -0.002676487 0.041749112 -0.0445123
-0.0010321261 0.03552029 0.06568692 -0.01385157 -0.033509675 0.0070762066 -0.06429904 -0.034245282
0.03323764 -0.027277602 0.04350344 -0.005325133 0.03278514 -0.0144252125 0.022560436 -0.014925641
-0.029335167 -0.026065787 0.0010035541 0.020278852 0.030211627 -0.019395798 -0.009539802 0.06019398
0.06188663 -0.005376894 -0.0030673034 -0.01168899 -0.018558573 -0.06557102 0.06658514 0.036363322
-0.033539206 0.063630596 0.045719415 -0.06067711 -0.028264971 0.038595963 0.03495416 0.025422478
-0.020703323 -0.047251396 0.079619765 -0.008384183 0.0017589917 -0.050444715 -0.03675106 -0.050052233
0.013270838 -0.02388524 0.064283244 0.04334771 -0.008544597 -0.057278894 0.06311593 0.011763586
-0.018268388 0.019939583 0.04162498 0.036758065 0.0065676933 -0.019593332 0.015514764 -0.072694734
-0.020580765 0.060962796 -0.0058331843 0.009337446 -0.0468899 0.07599635 -0.0075170454 -0.0048266016
0.041631058 0.009180665 -0.03858901 -0.026339604 0.008256856 -0.040905178 0.029370967 0.022690654

linear3.weight f4 [1, 128]
00000000: c8b3 4dbd b4f4 5c3b e750 f8bc 2f86 c13d
00000010: ebf4 503d f73e 88bd f903 3bbd bb0f ae3d
00000020: 4f7f b53d bd43 883d ee4f 34bd 7c4b 543d
00000030: 6e2c 48bd b79d 75bd 6794 473d dde5 cd3d
00000040: 9af8 323c 3426 573d e833 85bd 5740 a43d
00000050: 65a1 d23d 3ace 563c 7def ab3d eb32 b43d
00000060: 2462 7d3c 8b76 be3d 57d9 953d 99f5 dabc
00000070: c114 003d 4399 99bd 588f 86bd b7b6 c43d
00000080: 7728 3f3c 2bbf 143d 9a2b 89bd da41 83bd
00000090: 8843 393d 5734 7abd f3eb 673d 64df 6b3c
000000a0: 207d 403d 26e7 63bd 5781 42bd 4ce6 2e3d
000000b0: e74e cc3d b32b 5fbd bcca 60bd 3eb3 9dbd
000000c0: 0b8e 1b3d f7e2 a93d b13f 253d e201 7dbd
000000d0: bc20 a5bc e33a 233d af15 47bd 6f1b ce3d
000000e0: 0677 00bd 7805 153d 6692 733d d4d1 963b
000000f0: fce6 603c 0856 4cbd c4c3 923c 812d eb3c
00000100: 440a 0dbd 3e1c f83c b889 89bd b966 c73d
00000110: 640c 853c 5f3b 5cbd 0133 d1bc ba0e 673d
00000120: de46 623d 994f cb3d e84e 14bd abd3 aa3d
00000130: 18e8 893d 9cba 23bd 989c b43d 67d5 9a3d
00000140: a721 a33d 27f1 d83d 02b0 2d3d 39de 17bd
00000150: a065 3abd 8f67 233d 54a2 65bb 7d3d e1bc
00000160: 87db 973d 420c 46bd bcf5 883d 97cc 09bd
00000170: 5dae 8dbc 5e2a 49bd 6041 1ebd ee1e ebbc
00000180: e64b 4e3d da07 81bd 7f0c c33d c553 ec3c
00000190: c33d 37bd 169b 943c 59c6 833d 30e0 62bd
000001a0: eed3 e0bc 9e1c 8abd 1fc9 04bc 7553 d33d
000001b0: 4534 8d3c aabd 293d 39fa b13d 4617 82bd
000001c0: 26f6 423d ce89 613d 9606 65bd 1afc fdbb
000001d0: 8fe3 76bc ba5c 2f3d fac0 4d3d 8394 803d
000001e0: c7be c83d 4d9e 11bd c6d6 6e3d 46e4 443d
000001f0: a28e 5b3d 24f1 17bd 18fa 283d 888e 52bd
-0.05022028 0.003371519 -0.030312015 0.094494216 0.051014822 -0.066526346 -0.045658085 0.08499094
0.08862173 0.06653545 -0.04402154 0.0518298 -0.048870496 -0.05996486 0.048725512 0.100536086
0.010923529 0.052526668 -0.06504041 0.08020084 0.1028469 0.013110692 0.08395288 0.08798774
0.015465293 0.09299954 0.07316845 -0.026728438 0.031269792 -0.074999355 -0.065703094 0.096051626
0.011667362 0.036315124 -0.066977695 -0.064090446 0.04523042 -0.06108507 0.056621503 0.014396522
0.04699433 -0.055640362 -0.04748663 0.042700097 0.09975987 -0.054485034 -0.054880843 -0.07700203
0.03797726 0.08295243 0.040343944 -0.061769374 -0.02015721 0.03985108 -0.048604663 0.10063826
-0.03136351 0.03638217 0.05946579 0.00460265 0.013726946 -0.049886733 0.017915614 0.028708221
-0.03443362 0.030286904 -0.06715721 0.0973639 0.01624126 -0.05376756 -0.025537016 0.05641053
0.055243365 0.099272914 -0.036208063 0.08341154 0.067337215 -0.039972886 0.088189304 0.075602345
0.07965403 0.10592871 0.042404182 -0.037077162 -0.045507073 0.039893683 -0.0035039382 -0.02749514
0.074149184 -0.048351534 0.06687495 -0.033642378 -0.017295057 -0.04911267 -0.038636565 -0.028701272
0.05036535 -0.06300326 0.09523868 0.028848538 -0.044736635 0.018140357 0.06434316 -0.055389583
-0.027444806 -0.067437395 -0.008104592 0.103186525 0.017236838 0.041440643 0.08690304 -0.06352095
0.047598027 0.05506306 -0.055914484 -0.007751 -0.015068903 0.04281304 0.050232865 0.06278326
0.09802013 -0.035551358 0.058310293 0.04806926 0.053602822 -0.037095204 0.041254133 -0.05140546
