weights/ep4_20250827_191753_weights.pth (torch, 188741 bytes, 5 tensors)

linear1.weight f4 [256, 51]
000000 a9 5a 50 bd f2 20 bd 3c 03 d8 0d be b6 36 fe bd
       -0.05086771 0.023086999 -0.13851933 -0.12412779
000010 c2 1f b2 bd fb 0b d7 bc 30 7e d4 bc b2 e8 fa bd
       -0.086974636 -0.02625083 -0.025939077 -0.12251414
000020 82 b0 f9 bd 33 be 03 be f3 11 4e 3d 43 da b7 3d
       -0.12191869 -0.12865524 0.050310086 0.08977177
000030 e1 12 d3 bd 9c 48 7d 3d 32 c5 66 bd f3 77 75 3d
       -0.10306335 0.061836824 -0.056340404 0.059928846
000040 35 10 84 bd 9e 32 d6 bc 92 34 0c be d9 59 da 3d
       -0.06448404 -0.026147183 -0.13691929 0.10661668
000050 f0 7a 90 bd 0c d8 03 be ea 47 b5 3d ee b1 ce bc
       -0.070546985 -0.12875384 0.08851607 -0.025231328
000060 be 17 e3 bc 92 a9 78 3d d8 43 58 bd ce e6 09 be
       -0.027721282 0.06070859 -0.052799076 -0.13466951
000070 5e b9 0b bc a7 4f 9e bc 9a e2 1a 3d c8 d3 61 3d
       -0.008528082 -0.01932509 0.03781376 0.05513361
000080 80 43 01 be c4 28 e6 3d 24 b0 9c bd f8 e4 b5 3d
       -0.12623405 0.11238244 -0.07650784 0.08881563
000090 b0 02 06 bc 83 42 d5 3d bb 6f fe 3d e4 21 f8 3d
       -0.008179352 0.10413077 0.12423655 0.12115839
0000a0 05 66 96 bd 02 b8 6f 3d e6 a6 04 bd dd 9b 17 3d
       -0.073436774 0.058525093 -0.03238573 0.037013877
0000b0 ab 8d 02 be d1 68 db 3c e9 49 af 3c f6 b5 37 bd
       -0.12749355 0.026783379 0.021397548 -0.044851266
0000c0 d0 71 18 3d f0 48 d9 3a 65 7a 10 bd 39 a9 c3 bd
       0.037217915 0.0016577523 -0.035272975 -0.09553761
0000d0 ea 8a c3 3d 9c 77 d2 3d e0 c2 57 3c 0d 61 f5 3d
       0.0954798 0.1027672 0.01316902 0.119814016
0000e0 33 ea 25 3e 0a bf c3 3b a7 cb 20 3e 8f 8e 12 3e
       0.16202621 0.0059737014 0.15702687 0.14312194
0000f0 04 9e cc 3c 16 e2 88 bd 8c 95 b7 3b 68 76 1e bb
       0.024977691 -0.066837475 0.005602544 -0.0024179462
000100 10 91 86 3d fe b5 d9 bd 80 7e 15 3e 72 59 cf 3d
       0.06570637 -0.106304154 0.14599037 0.10124482
000110 c8 09 5f 3d 5c 87 8e bd 70 1b 2c 3d fd 35 cc bd
       0.054452688 -0.069594115 0.042018354 -0.09971235
000120 e9 bd b2 3d b2 7d eb bd dd b6 dc bd bc 71 a0 3c
       0.08727629 -0.11498584 -0.10777066 0.019585483
000130 9e 4f b2 3d 8a d9 86 bd a0 34 e6 bc bc 7e 99 bb
       0.08706592 -0.06584461 -0.028101265 -0.0046842974
000140 30 fa a6 3d b0 70 a9 3d ee 95 00 be 39 ad 90 3d
       0.08153188 0.082734466 -0.12557194 0.070642896
000150 e3 b9 20 3e 26 c6 29 bd 12 90 0a 3e a8 47 c2 bd
       0.1569591 -0.041448735 0.13531521 -0.094863236
000160 c0 db 6b 3d 98 d5 21 3d 7a 10 85 3d 5a 25 8d 3d
       0.057582617 0.03951034 0.06497283 0.0689189
000170 22 9f cc bd c5 a0 11 3e fb 10 b6 bd 02 94 4f 3d
       -0.0999129 0.14221485 -0.088899575 0.05067826
000180 bf 4b c5 bd bc 28 a9 3d d3 ec f7 bd 58 5e 06 3c
       -0.09633588 0.082597226 -0.121057175 0.008201204
000190 bf b6 c6 3d fa 7a 0f bd 81 a0 f7 bd 5e d1 bf 3d
       0.09702825 -0.03502939 -0.120911606 0.093661055
0001a0 56 d5 ee 3d 18 bf 22 bd 7a 40 d1 bd 62 3e 02 be
       0.11661784 -0.039733022 -0.10217376 -0.1271911
0001b0 e0 46 d6 bb f0 cf 1a bd 80 d9 62 3b dc df 8e 3d
       -0.0065392107 -0.03779596 0.0034614503 0.069762915
0001c0 6f f5 0b 3e e0 c6 40 bd 24 6d b1 3d f0 77 1f 3d
       0.13667844 -0.047064662 0.08663395 0.03893274
0001d0 3e 23 cb 3d 21 0b e2 bd 6a 51 b4 3d 12 8c 21 bd
       0.09918831 -0.11037279 0.08804591 -0.039440222
0001e0 b0 16 ab bd 44 21 3f 3d 9f 36 0c 3e 0e 21 cd bd
       -0.08353937 0.046662584 0.13692711 -0.1001607
0001f0 6b 5d 0f be 00 33 ca bd ba c4 e5 3d 78 cb 01 be
       -0.1400048 -0.09873009 0.11219163 -0.12675273
000200 e6 10 b5 bd 27 fb ea bd 92 63 0e bd 14 7e df bc
       -0.08841114 -0.11473685 -0.034762926 -0.027281798
000210 cd f5 98 bd 88 71 8d 3c 00 b2 01 3a a8 37 da bc
       -0.07468758 0.01726605 0.00049474835 -0.026637867
000220 08 1e 14 bd b4 49 37 3d 20 3e 1f bd 00 de 4e 3b
       -0.036161453 0.044748023 -0.038877606 0.0031565428
000230 7c 34 6b 3d c0 a9 37 bb a0 93 b1 bb 80 74 39 bd
       0.0574231 -0.0028024763 -0.0054192096 -0.04527712
000240 fa 33 36 bd 42 9b 4b bd 40 41 42 bd 9c c4 c0 bc
       -0.044483162 -0.049708612 -0.04742551 -0.02353125
000250 a0 0c 83 3c 40 b5 24 3d 50 fb 50 bc 6c f5 f4 bd
       0.015997231 0.040211916 -0.01275523 -0.11960873
000260 b8 4a ce 3d ea 35 95 bd ea 36 47 3d ef c2 eb bd
       0.10072845 -0.07285674 0.048636355 -0.1151179
000270 d6 77 a5 3d 9e 16 4c bd 69 2f 12 be fe 0d 0f be
       0.080794975 -0.049826257 -0.14275898 -0.13970181
000280 c6 21 0e be f0 db 60 3d e3 7d c7 bd eb 8e 99 3d
       -0.13880071 0.05489725 -0.09740808 0.074979626
000290 f2 df 25 3d 35 fb 8e bc e5 51 90 3d 89 e3 cd 3d
       0.040496774 -0.01745377 0.0704687 0.100531645
0002a0 6c 4c 9b 3d 48 3c 20 3d f4 b1 d0 3d 98 c5 c4 bd
       0.07582936 0.03911999 0.10190192 -0.096080005
0002b0 ba 37 f5 bc 52 92 fa bd 1f 09 0a be 6b 98 b4 bd
       -0.029933799 -0.1223494 -0.13480042 -0.08818134
0002c0 bc 38 ca bb 1e 5a 35 3d 77 42 40 bd e8 08 0b be
       -0.006171314 0.044275396 -0.046938386 -0.13577616
0002d0 a2 bb 1e be ea 18 0c be e9 b1 db 3d ee 31 8e 3c
       -0.15501264 -0.13681379 0.10727293 0.017357793
0002e0 66 5c ed bc 7d 59 c3 3c 18 7a ad 3d ee 92 34 3d
       -0.028974723 0.023846382 0.08470553 0.044085436
0002f0 aa 6b cd bd cc 26 dd 3d 72 d2 d0 3c b1 11 0a 3d
       -0.10030301 0.107984155 0.025490973 0.033708278
000300 d0 7b e2 bd c8 6b 0e 3e b6 9d 0e be 7c 83 8b 3d
       -0.110587716 0.13908303 -0.1392735 0.06812188
000310 ce d4 84 bd 48 9d 35 3d c8 46 07 be 51 c3 c7 bd
       -0.06485902 0.04433945 -0.13210595 -0.097540505
000320 bb 60 3f bc d6 e8 4b bd 1e 07 a9 3b 42 ef 4a 3d
       -0.011680777 -0.049782597 0.005158319 0.04954458
000330 9f c6 ab 3d e7 d5 d5 bc 0c b8 01 3e 10 c3 8a 3c
       0.08387493 -0.026102973 0.12667865 0.016938716
000340 8d 2e 8e bd 4c a0 34 bd 46 bc c5 3d 03 ef d8 bd
       -0.069424726 -0.044098184 0.09655051 -0.10592463
000350 d4 c8 b8 3d eb 18 1c 3d cc 4d ce bd ec d0 6f bd
       0.0902268 0.0381097 -0.10073432 -0.058548853
000360 10 ed 23 3d 31 4c 0c bd a2 3e 30 bc 6c f0 81 bc
       0.040021002 -0.03425235 -0.01075712 -0.015861712
000370 aa 68 8e bc d6 5c dc 3d df 5f c8 bd 89 a9 b3 3d
       -0.017383892 0.107598945 -0.09783911 0.08772571
000380 9e 53 6d 3d bb 73 b3 bd 0d 55 89 bd fe c3 53 bd
       0.05794107 -0.08762308 -0.06705675 -0.051700585
000390 02 6e 7f 3c 59 9c ce bd 90 4c c7 bc 55 5c 22 3d
       0.015590193 -0.10088415 -0.0243285 0.039638836
0003a0 b4 7d 3c 3b a3 22 a9 3d e8 e3 aa 3a ee 8e 3b 3d
       0.0028761448 0.082585596 0.0013037892 0.045790605
0003b0 ce 49 fb bd ad 74 14 3e e6 8f 0c 3c 0b 5e 10 3e
       -0.122699365 0.14497633 0.00857923 0.14098375
0003c0 42 7e c0 3d 3c 99 0d bd f4 86 6e 3d c2 3e 01 3e
       0.09399082 -0.034569964 0.05823417 0.12621596
0003d0 18 c7 98 3d 74 b5 39 bd 6d 95 ab bd c5 ec 11 3e
       0.07459849 -0.045339063 -0.0837811 0.14250477
0003e0 be 63 f2 bc 06 09 bf 3d 10 1e 2c 3d b6 e7 65 bc
       -0.029588576 0.09327893 0.042020857 -0.014032295
0003f0 1d 07 8d 3d 0c c2 b5 3d e6 8e 38 3d d8 86 d3 3d
       0.068861224 0.08874902 0.045058154 0.10328454

linear1.bias f4 [256]
000000 a5 79 1b 3d 9f 47 04 3e 3a 12 b2 bd 9b 39 e7 bc
       0.037957806 0.12917946 -0.08694883 -0.02822571
000010 c2 98 e4 3c 9b 15 1f be 29 20 03 3e f4 e3 0f bb
       0.027904872 -0.15535586 0.12805237 -0.002195594
000020 77 de 19 3e b0 31 0e 3e 24 e2 91 bc a6 b7 33 3d
       0.1502627 0.13886142 -0.017808028 0.043876313
000030 a7 da d8 bd 3f 7a 7e bc 62 4a 82 bd 67 7c 04 be
       -0.105885796 -0.015532075 -0.06361844 -0.1293808
000040 93 95 15 bd 4a 28 09 3e 45 c5 60 bd 18 6b db 3d
       -0.0365196 0.13394275 -0.05487563 0.10713786
000050 0f b5 1b 3e ff 2a 7c 3d aa 0d db bc 07 88 9b 3d
       0.15205787 0.06156444 -0.026739914 0.075943045
000060 c0 46 26 bc ae b0 a5 3d 45 46 83 bd 97 d5 fd bc
       -0.010148704 0.080903396 -0.06409887 -0.030985637
000070 94 b0 bf bd fc cc 82 3d 36 62 88 3d 74 7d 43 3d
       -0.093598515 0.06386754 0.06659357 0.047727063
000080 01 90 c2 bd 3d 02 3a 3d 99 fc a0 3c 6f 81 0c 3e
       -0.09500123 0.04541229 0.019651698 0.1372125
000090 6b 73 ae bd 04 22 d6 bb a3 68 35 3e 31 f7 d9 bd
       -0.08518108 -0.0065348167 0.17715697 -0.10642851
0000a0 0f 15 cf 3d 33 7a c3 3c 9e a1 8f 3c 38 d4 03 3e
       0.101114385 0.02386198 0.01753312 0.12873924
0000b0 f0 ea 1f bd 30 ed 83 bd ed ca 4a 3d ac f1 fc 3c
       -0.039042413 -0.06441724 0.04950993 0.030876957
0000c0 3f a4 84 3d 0b 03 a9 bc f7 b8 99 bd 46 62 b9 3b
       0.0647664 -0.020631334 -0.07505982 0.005657467
0000d0 25 e7 92 3d c1 13 85 3d de c4 38 3d d6 e8 c5 bc
       0.071729936 0.064979084 0.045109622 -0.024158876
0000e0 64 bc c8 3d fe c7 0d 3e 68 8e 9c bd 68 13 9d bd
       0.09801558 0.13845822 -0.07644349 -0.07669717
0000f0 fe 8f b9 3d f0 0a 91 3d 30 db e9 bd 00 a5 88 3d
       0.090606675 0.07082164 -0.1141876 0.06672096
000100 18 74 10 3c 62 e5 57 3d 10 09 19 3d 88 58 26 bd
       0.008816741 0.05270899 0.03736216 -0.040611774
000110 da ea c1 bd 12 a0 8c bd 20 d1 08 bc da 4a 9a bc
       -0.094686225 -0.068664685 -0.008350641 -0.01883452
000120 cf 73 ac bd 7e 4a 90 3d 83 1f 22 3c 39 72 5e 3d
       -0.08420526 0.07045458 0.009895208 0.05430815
000130 18 b8 39 3d 12 b6 5b 3d 66 b4 07 be 41 e1 c1 3d
       0.04534158 0.053640433 -0.1325241 0.09466792
000140 4a de 11 3e d1 3d c9 bd 4a 64 02 3c d8 59 e2 3d
       0.14244953 -0.09826244 0.007958481 0.110522926
000150 db 5a 99 bd 70 1d d7 3d 12 3e 84 bd 5a 73 b2 bb
       -0.074880324 0.10503662 -0.064571515 -0.00544588
000160 1b ed fa bd 47 7d 20 3e 7a 66 dd 3c 2f 68 08 3e
       -0.122522555 0.1567279 0.027026404 0.13320993
000170 94 13 ce bd af 93 9e bc c4 05 de 3c 70 07 75 3c
       -0.10062328 -0.01935753 0.027102359 0.0149553865
000180 dc 8d 18 bd 55 ef 09 be 09 dd 05 3e 39 68 f4 bd
       -0.037244663 -0.13470204 0.130726 -0.119339414
000190 71 2e 14 3e 79 66 b3 3d 8a 6a 79 3d ee 41 e1 3d
       0.14470841 0.087597795 0.06089262 0.10998903
0001a0 b8 b1 bd 3d 9a 22 2e bd 24 bc f5 3d d7 f6 92 bd
       0.09262413 -0.042513467 0.119987756 -0.07175987
0001b0 e2 37 12 3c b4 38 a1 bd 31 95 0f 3e f7 b2 69 bd
       0.008924456 -0.078721434 0.14021756 -0.05705544
0001c0 23 89 32 3e 2b 5d ad 3c d9 c1 18 3d 04 46 49 bd
       0.17435126 0.02116259 0.037294243 -0.049139038
0001d0 9f 9f 99 bd d1 8d 26 3d ec 43 81 bd 88 9e 80 3d
       -0.075011484 0.04066259 -0.06311783 0.062802374
0001e0 b2 b0 15 3e 67 a3 17 bd 86 db fc 3d 1c 36 09 3e
       0.14618185 -0.037021067 0.12346558 0.13399547
0001f0 8d 06 db bd d6 3c 0d 3e c8 99 da 3d 1c e9 43 3d
       -0.10694609 0.13792738 0.10673863 0.047829732
000200 d0 df 09 3e f8 44 ad 3d 1b 66 f0 bd fb c5 11 3d
       0.13464284 0.0846042 -0.11738225 0.0355892
000210 60 20 8e bb 54 bc 11 bd 89 4a 13 3d 36 16 a1 3d
       -0.0043373555 -0.035579994 0.035959754 0.078655645
000220 4e 66 34 3d ca 5a d9 bd 40 fe cc 3d c3 b0 15 3e
       0.044042878 -0.1061302 0.10009432 0.1461821
000230 02 16 c2 3d c6 31 ab bc ab 46 c0 bd 93 37 92 bd
       0.09476854 -0.020897757 -0.09388479 -0.07139506
000240 84 ec 0b bc da 0a 27 bd 8f ee fd bd 2c 5c 95 bd
       -0.008540276 -0.040781833 -0.12399017 -0.07292971
000250 a2 b9 f7 3c 5e fa 31 3d d0 ae ac bd cd f1 65 bd
       0.030239884 0.04345166 -0.0843178 -0.056138802
000260 c2 bf f2 3d e2 e1 98 3d 32 fe c9 bd 28 01 bd 3c
       0.11852981 0.07464959 -0.09862937 0.02307184
000270 c7 50 0d 3e fe a0 d0 3d e1 40 d4 bd 22 58 ad bd
       0.13800345 0.10186957 -0.10363937 -0.084640756
000280 68 55 eb 3d 66 c4 09 be 12 32 e3 bb 46 bd 98 bd
       0.11490899 -0.13453826 -0.006933459 -0.07457976
000290 33 8d 11 3c c1 c9 04 be 34 33 dd bd ba b5 0d bd
       0.008883762 -0.12967588 -0.10800782 -0.034597136
0002a0 aa a9 aa 3d 69 de 80 bd ca 3e 90 bc 2a 0e 45 bd
       0.08333142 -0.06292421 -0.017608065 -0.04810921
0002b0 f4 ba 4b bb 6a 45 9e bc 96 5d 4a bc 3c a2 12 be
       -0.0031086775 -0.019320209 -0.012351414 -0.143197
0002c0 06 ed fc 3d 44 2e 09 3d 00 56 69 3d 7c 56 d6 3d
       0.12349896 0.033491388 0.05696678 0.10465714
0002d0 cd 44 18 be 31 28 b5 bd 90 22 15 bd 98 7f 26 bd
       -0.14869995 -0.088455565 -0.036409914 -0.040649027
0002e0 62 0a cf 3d 68 35 a8 3c c4 59 d9 bd e3 92 f6 3c
       0.10109402 0.020533279 -0.106128246 0.030099338
0002f0 c4 64 9c bc bb 28 52 bd 40 83 0e be a0 30 5f 3b
       -0.019091018 -0.051308375 -0.13917255 0.0034056082
000300 de e7 94 bc 4c 84 bf 3d f9 37 9a 3d ce 1e b6 bd
       -0.01817697 0.093514055 0.07530207 -0.08892594
000310 e6 cd b7 bb 15 a3 f7 bc 81 6c 27 3e 24 47 d2 3d
       -0.005609262 -0.03022913 0.16349985 0.10267475
000320 65 b5 78 bc 7c ff d9 3d 26 03 82 3d 11 d3 2f 3d
       -0.015179967 0.10644433 0.06348257 0.042925898
000330 33 62 16 3e bd c3 25 be 2e c5 1d 3e b0 42 c1 3c
       0.14685898 -0.1618795 0.1540725 0.02359137
000340 1b 87 16 3e 2a 78 bb bc 4e 63 da 3c 94 20 20 3d
       0.14699976 -0.022884447 0.02665868 0.03909357
000350 d8 30 a1 3d 1e e5 00 be 84 e7 47 3d e0 20 b9 3d
       0.07870644 -0.12587401 0.048804775 0.090394735
000360 38 32 8f bd 67 60 3a 3c 71 53 13 3e 74 91 08 be
       -0.06992 0.011375523 0.14387299 -0.13336736
000370 08 4c af bd ca 96 39 bd f0 0e f8 3c f5 93 0f be
       -0.08559424 -0.04530982 0.03028056 -0.14021285
000380 1c 92 1e 3e 8b b9 dd 3d 6e ba be bd 0c a4 0a 3d
       0.15485424 0.10826405 -0.093129024 0.033847854
000390 c2 e2 a6 3b 65 17 01 3e 6f 0a 05 3e e6 71 df 3d
       0.0050929496 0.1260658 0.12992261 0.10910396
0003a0 cf c9 d0 bd f8 7f 23 bd d9 47 e0 bd 3b 03 9b bc
       -0.10194742 -0.039916962 -0.10951204 -0.018922439
0003b0 b8 4c f2 3d 30 cd 10 3e a1 ce b9 3c 5b 73 9a 3d
       0.11831039 0.14140773 0.022681536 0.075415336
0003c0 d2 bb c5 bd 4b 46 61 3d aa 28 79 3d e4 04 53 bc
       -0.096549645 0.054998677 0.060829796 -0.012879584
0003d0 ff 4e 59 3c 55 da 42 3d eb 55 d3 bd 77 a4 6f bd
       0.013263463 0.0475715 -0.10319122 -0.058506455
0003e0 41 46 27 3e c6 0f 97 3d 3d eb 0c 3d 29 95 fc 3d
       0.16335393 0.073760554 0.03440403 0.123331375
0003f0 1a c3 da 3d 22 6b 74 bd 8a 8c 40 bd 19 8d 56 3d
       0.10681744 -0.059672482 -0.04700903 0.052380655

linear2.weight f4 [128, 256]
000000 56 85 f8 bc 10 7a ba ba ee 5a 54 bd d9 5f 86 3c
       -0.030337017 -0.0014227051 -0.05184453 0.016403126
000010 e5 a2 1e bd 16 c3 0e bd 89 9f ba bc 94 0c 06 3d
       -0.038729567 -0.034854017 -0.02278115 0.03272684
000020 cb ad e6 3c f4 ff 8a 3c d0 7e 70 3c 89 1f 8c bd
       0.028159043 0.016967751 0.014678672 -0.06841952
000030 e1 ef 4a bc 80 60 82 3c c0 4b b2 ba a0 94 21 3d
       -0.012386293 0.015915155 -0.0013602898 0.03944838
000040 b6 24 13 bc 6d 2f db bc 04 a4 83 bb fd 81 0b 3c
       -0.008980921 -0.026756013 -0.004017355 0.008514878
000050 24 bf 20 3d d3 3a 0b bd 0b cb 28 3d 82 5c 56 3d
       0.039244786 -0.033991646 0.041209262 0.052334316
000060 7a f4 85 bb bd f9 8c bd 9c 30 d3 3c 9e c2 0d 3c
       -0.004087982 -0.06883571 0.025780015 0.008652357
000070 e4 70 85 bb 52 18 11 3d ce 73 8c bd 12 c5 e4 3c
       -0.0040722955 0.035423584 -0.068580255 0.027926002
000080 90 b6 43 bd d8 69 42 3b dc 61 54 3d 92 65 3e bd
       -0.047781527 0.0029665139 0.05185114 -0.046483584
000090 d6 bf 55 bd d2 1d 3d bd 94 2c 3f bd 7c 42 0b bd
       -0.052184902 -0.046171017 -0.046673372 -0.03399895
0000a0 4c eb 48 3d c0 76 6a bd fc 3b 3f bd f9 6d be bc
       0.04905252 -0.057242155 -0.046688065 -0.023245798
0000b0 8a 28 35 bd ec 8b 52 3d 18 a1 f8 ba d2 24 82 bc
       -0.044228114 0.05140297 -0.0018968908 -0.015886698
0000c0 c7 bf 48 bd 6b a0 06 bd 5b f7 ea 3c 44 40 ab bc
       -0.049011018 -0.03286783 0.028682401 -0.020904668
0000d0 00 61 88 b8 93 29 c1 3c c6 37 6b 3c ac 26 c9 bc
       -6.503053e-05 0.023579394 0.014356559 -0.024554573
0000e0 3c 4e 28 bd c8 3f 72 bd d4 9a ea bc 41 7a 88 bd
       -0.041090235 -0.059142858 -0.02863828 -0.06663943
0000f0 0d e9 36 bd 24 4d 0e 3d 1d 43 48 bd af 4c 0f 3d
       -0.04465585 0.034741536 -0.04889213 0.03498524
000100 24 50 56 bd 8d a6 22 3d c2 2c 60 bd 1d 0d cb bc
       -0.05232252 0.039709616 -0.054730184 -0.024786526
000110 eb 7b dd 3c 59 b9 7e 3c f6 83 27 3d e0 da 26 3d
       0.027036628 0.01554712 0.040897332 0.04073608
000120 96 da 7c 3d c8 94 7a bd dd 7d 1c 3d 4a f1 88 bb
       0.061731897 -0.061177045 0.03820597 -0.0041791545
000130 68 ac 6a bd c0 ac 53 b9 dc 2f c2 3c a6 f9 d4 3b
       -0.057293326 -0.00020186882 0.023704462 0.006499487
000140 96 dd 4d 3c 17 21 2c 3d c0 4c 93 bc 28 6e 3d bd
       0.012565037 0.042023744 -0.017980933 -0.04624763
000150 02 02 25 3d 8a 0e 71 bc c4 71 04 3d 84 2d 6f 3b
       0.040285118 -0.014712939 0.032335058 0.0036495635
000160 53 20 dd bc 7f 69 54 3d 32 b9 fd bc 4e a7 35 bd
       -0.026992952 0.05185842 -0.030972097 -0.044349007
000170 d6 38 61 3d 94 71 31 bd 7f 10 a4 3c 08 80 40 3d
       0.054985844 -0.043321207 0.020027397 0.0469971
000180 c3 0e 8e bd 30 06 9d bc 6c 2e 45 3d ba d3 92 3c
       -0.06936409 -0.01916799 0.048139974 0.017923225
000190 29 a5 9e bc 9d 01 9d bc 27 86 1d 3c 88 ba 50 bb
       -0.019365864 -0.019165808 0.009614504 -0.0031849463
0001a0 49 65 23 bc 58 bb 03 3d 2c bf d8 3b 8c 13 3b bd
       -0.009972879 0.032161087 0.0066145863 -0.04567294
0001b0 4d 70 8c bd 50 49 6c bd cc 0d 4e 3d ff 61 2c 3d
       -0.06857357 -0.057687104 0.050306126 0.042085644
0001c0 44 ed cc bc 11 ae 56 3d 45 4c 03 bd 38 a3 22 3b
       -0.02501548 0.052412096 -0.03205516 0.0024816524
0001d0 7d 4b 3f bd a8 8c cb bc 92 80 41 3d b0 48 e4 3c
       -0.04670285 -0.024847344 0.047241755 0.027866691
0001e0 1e ab 48 3c ad 0f 05 3d fd 1e 8e bc 3d b4 9e bc
       0.012247829 0.032485653 -0.01734876 -0.019373054
0001f0 f3 39 89 3d 40 b9 f3 bc e0 cf 8e bd 08 f8 c3 3c
       0.06700506 -0.02975142 -0.06973243 0.023921981
000200 a4 e4 46 3d 1e cb e3 3b b8 52 6f 3b 22 67 55 bd
       0.048557892 0.0069517037 0.003651781 -0.05210031
000210 26 6e 06 bd e6 ff 57 3d 70 1c b0 3a c3 23 0e bd
       -0.03281989 0.05273428 0.0013436209 -0.034702074
000220 0c 3b 11 bd 4f 21 fc 3c 57 6c f8 3c 35 a2 2b bd
       -0.035456702 0.030777602 0.030325098 -0.04190274
000230 36 fb 90 bd 1c 79 50 3b 5b df 24 bd 0a ba 38 bd
       -0.07079165 0.0031810468 -0.04025207 -0.045099296
000240 32 a3 b9 bb 3a e8 5d bd ba 0a 99 3c d4 e1 14 bd
       -0.0056652064 -0.054176547 0.018681873 -0.03634818
000250 55 f6 1b bd de 08 4d bd 0c b6 f0 3c 47 70 98 3c
       -0.038076717 -0.050057285 0.029383682 0.018608226
000260 02 51 b3 bc e4 e2 4d 3d 28 2b 26 3d 12 49 d0 bb
       -0.021889213 0.050265208 0.0405685 -0.006356367
000270 f2 7f 88 bb 82 d0 73 bc 1c ba 29 bd bf 6c f5 3c
       -0.004165643 -0.014881255 -0.041437253 0.02995908
000280 e8 37 35 3d a6 a6 d5 3c c7 7f 7c 3c 31 b0 eb 3c
       0.04424277 0.02608044 0.015411324 0.028770538
000290 92 53 00 3d a2 e1 9b bc 16 db 0f bd da fc fc bc
       0.0313297 -0.019028489 -0.035121046 -0.030882288
0002a0 9b 8a cb bc 5f 22 5b bc 3c 93 8c 3b 30 ae 44 bd
       -0.024846366 -0.013374894 0.0042900126 -0.04801768
0002b0 11 39 27 bc c5 7e 8e bc 90 5a 6c bd cc 4e 51 bd
       -0.010206477 -0.017394433 -0.057703555 -0.051100537
0002c0 58 f8 4f 3b b0 72 5e 3a 90 6c fc 3c af 0b 0b 3c
       0.0031733718 0.00084857177 0.030813485 0.008486672
0002d0 23 57 0f bc be 1f 5d bc 24 dc 09 bb f2 62 76 bc
       -0.008748802 -0.013496337 -0.0021035755 -0.015038239
0002e0 3a c0 50 bc 63 c1 12 3d 38 4f 55 3d 20 b2 ef 3c
       -0.012741143 0.03582896 0.052077502 0.029259741
0002f0 ce ff 46 3d e0 26 d9 bc 0d b3 e3 bc 80 84 ae 3c
       0.048583798 -0.026507795 -0.027795339 0.021303415
000300 d8 94 37 3d 96 5a 0e 3c 19 3f 1c 3d c0 fe 21 bd
       0.044819683 0.00868859 0.038146112 -0.03954959
000310 12 6a 7b bd e6 cf db bc f2 37 7a bd ec a0 5b bd
       -0.061380453 -0.026832532 -0.06108851 -0.053620264
000320 e1 89 93 bc 82 3a 62 bd 5e f3 03 3c 6e df c8 3b
       -0.018010082 -0.05523158 0.008053629 0.0061301505
000330 3b 19 94 3c 12 8c 70 bc 54 8b 33 bd 90 df 41 bd
       0.018078437 -0.014681833 -0.043834046 -0.047332346
000340 b8 1e 1c bd e8 00 ae bc 00 c4 71 b9 2a 97 74 bc
       -0.038115233 -0.021240667 -0.00023056567 -0.014928618
000350 fa a1 41 bd 08 7e 8b bc 8e 19 7d bd a3 78 56 bd
       -0.047273614 -0.01702787 -0.06179195 -0.052361142
000360 85 ee 66 bd 22 df f1 3b e5 8f 8e bc d0 87 22 3d
       -0.056379814 0.007381336 -0.017402599 0.039680302
000370 9c 9a 08 3d 58 17 6e bd 8a 47 1a bd e6 d8 89 3d
       0.033350572 -0.05812773 -0.03766588 0.06730823
000380 22 a3 51 3d 99 22 49 bd b0 64 03 3d ea f0 55 bd
       0.051180966 -0.04910526 0.032078445 -0.052231707
000390 0e 90 06 3c 70 5a 6b bd c0 2c d0 bc e6 b4 1c 3c
       0.008213056 -0.057459295 -0.025411963 0.009564614
0003a0 78 09 07 3b b4 2d 0c bd 82 07 75 bc 20 d4 68 bd
       0.002060501 -0.034223273 -0.014955403 -0.056842923
0003b0 4b 30 a9 3c e0 ab 45 3a 6b dc 1c 3d a8 70 e4 3c
       0.02065291 0.0007540565 0.038296144 0.02788575
0003c0 1a d3 50 3d a6 a9 b1 bc 51 99 ea 3c 7c 5f 97 bc
       0.050982572 -0.02168734 0.02863756 -0.018478148
0003d0 82 2f 65 bd 20 ef 12 bd bc 78 75 3b e3 21 2c 3d
       -0.05595351 -0.03587258 0.0037455996 0.042024504
0003e0 8e 1c 24 3d 5c 2e 5c bd a5 d4 8b 3d ec fc c7 bb
       0.040066294 -0.05375515 0.06827668 -0.0061031487
0003f0 c4 2b 01 bb 40 dd 4f 3c ef 89 63 bd 0a 35 3d 3d
       -0.0019709924 0.012687027 -0.055551466 0.04619316

linear2.bias f4 [128]
000000 6e 6f 6a 3c 4f aa 9e bd 46 01 f2 bb 6c 3e 6e 3d
       0.0143087935 -0.077473275 -0.0073854057 0.058165
000010 86 c3 cf 3b 46 96 22 bd 9b 98 09 3d 9a 59 58 3d
       0.006340447 -0.039694093 0.0335928 0.052819826
000020 25 95 46 bc 30 bd b8 ba 9b f2 a6 bd 60 b3 a6 3c
       -0.01212052 -0.0014094468 -0.08151742 0.020349205
000030 36 75 1b 3d a0 c7 9f 39 74 b2 99 bc dc e0 ff 3c
       0.037953578 0.00030475575 -0.01876185 0.031235151
000040 be cc 02 3c db 69 9f 3d 60 60 0a 3d c6 53 5a 3d
       0.007983385 0.07783862 0.033783317 0.05330255
000050 26 0d 70 3d 42 c2 10 bd 29 bb 80 bc b1 f7 a9 3d
       0.05860629 -0.03534151 -0.015714245 0.082991965
000060 58 ce 22 3d 39 6e dd 3c d2 55 7c 3d de 9b 61 bd
       0.039747566 0.027030097 0.061605282 -0.055080287
000070 d4 9e 49 3d c0 a6 b6 3c 6d ea a2 bd 08 b9 7f 3d
       0.049223736 0.02229631 -0.079548694 0.06243232
000080 d8 c2 9b 3c 0e 0d 2f 3d d8 51 d0 3c 7c fc 30 3b
       0.019013807 0.04273706 0.025429651 0.0027005961
000090 ae a2 74 3d b4 56 0a bd ec 41 b8 3d b0 d2 ff bc
       0.059725456 -0.033774093 0.089969486 -0.031228393
0000a0 0a 7d b0 bc d1 84 a0 bc 30 30 e4 3c 60 9d 9c 3c
       -0.021543998 -0.019594582 0.027855009 0.019118011
0000b0 8e 6c 99 3d 00 68 2f bb aa 27 4f 3d 88 52 36 bd
       0.07491408 -0.002676487 0.050574936 -0.0445123
0000c0 82 62 9b 3c 3e 69 63 3d 9f 7c af 3d cc 8c bb bc
       0.01896787 0.05552029 0.085686915 -0.022894286
0000d0 71 41 09 bd ea ce dd 3c 37 af 83 bd 0d 65 69 bc
       -0.033509675 0.027076203 -0.06429904 -0.014245284
0000e0 31 24 08 3d f4 78 ee bb 17 0e 82 3d 74 7e ae bb
       0.03323764 -0.0072776023 0.06350344 -0.005325133
0000f0 3b 35 58 3d ba 57 6c bc da 53 2e 3d ca 46 a6 3b
       0.05278514 -0.0144252125 0.042560436 0.0050743567
000100 4e 50 f0 bc 82 c3 c6 bb b0 89 83 3a 70 fb 24 3d
       -0.029335167 -0.006065787 0.0010035541 0.040278852
000110 b5 aa 4d 3d f0 e3 9e bc d4 4c 1c bc bd 3c a4 3d
       0.050211627 -0.019395798 -0.009539802 0.080193974
000120 2d b4 a7 3d c1 95 6f 3c d0 04 49 bb e7 2a 08 3c
       0.08188663 0.014623106 -0.0030673034 0.00831101
000130 40 ee bc 3a 19 4a 86 bd 8c 53 b1 3d 3a dd 66 3d
       0.0014414266 -0.06557102 0.086585134 0.05636332
000140 8e d3 5d bc 84 46 ab 3d e6 97 86 3d 29 bf 90 bd
       -0.013539208 0.08363059 0.06571941 -0.07067711
000150 f1 8b e7 bc 52 02 70 3d 18 2c 0f 3d cd 42 d0 3c
       -0.028264971 0.058595963 0.03495416 0.025422478
000160 30 5f 38 ba ae 8a 41 bd 72 05 cc 3d f9 7e 09 bc
       -0.0007033227 -0.047251396 0.09961976 -0.008392089
000170 f8 8d e6 3a 1e 9f 4e bd 48 88 16 bd 92 03 4d bd
       0.0017589917 -0.050444715 -0.03675106 -0.050052233
000180 00 47 08 3d fb aa c3 bc b1 9c ac 3d 71 bc 81 3d
       0.033270836 -0.02388524 0.08428324 0.063347705
000190 a3 fe 0b bc c2 b1 18 bd af 38 aa 3d 0e bc 40 3c
       -0.008544597 -0.037278898 0.08311593 0.011763586
0001a0 96 a7 95 bc 56 58 a3 3c f4 7e 2a 3d 24 7b 68 3d
       -0.018268388 0.019939583 0.04162498 0.05675806
0001b0 7d a4 d9 3c 00 36 d5 39 ee 77 11 3d fa e0 94 bd
       0.026567692 0.0004066676 0.035514764 -0.072694734
0001c0 a0 3e 18 ba d2 cf a5 3d de ed 7c bc 16 fc 18 3c
       -0.00058076717 0.08096279 -0.015437571 0.009337446
0001d0 a0 0f 40 bd bb 99 c4 3d 4e 85 4c 3c d8 99 78 3c
       -0.0468899 0.09599634 0.012482954 0.015173398
0001e0 d8 70 7c 3d a3 73 e2 3c fa 47 98 bc 72 bc cf bb
       0.061631054 0.02764303 -0.018589009 -0.006339603
0001f0 ec 7a e7 3c 32 42 28 bd 36 39 4a 3d c0 e1 b9 3c
       0.028256856 -0.041078754 0.049370967 0.022690654

linear3.weight f4 [1, 128]
000000 c8 b3 4d bd b4 f4 5c 3b e7 50 f8 bc f1 7b ea 3d
       -0.05022028 0.003371519 -0.030312015 0.11449421
000010 38 70 91 3d f7 3e 88 bd f9 03 3b bd 7d 05 d7 3d
       0.07101482 -0.066526346 -0.045658085 0.10499094
000020 11 75 de 3d 7f 39 b1 3d ee 4f 34 bd 80 1b 93 3d
       0.108621724 0.08653545 -0.04402154 0.071829796
000030 ac 36 1f bd b7 9d 75 bd f6 bf 8c 3d 9f db f6 3d
       -0.0388705 -0.05996486 0.06872551 0.12053608
000040 70 a6 72 3a dc 88 94 3d e8 33 85 bd 19 36 cd 3d
       0.00092563685 0.07252666 -0.06504041 0.10020084
000050 27 97 fb 3d 14 9f 07 3d 3f e5 d4 3d ad 28 dd 3d
       0.122846894 0.033110693 0.10395288 0.10798774
000060 0e 44 11 3d 4d 6c e7 3d 19 cf be 3d 99 f5 da bc
       0.035465293 0.112999536 0.093168445 -0.026728438
000070 46 00 52 3d 43 99 99 bd 58 8f 86 bd 79 ac ed 3d
       0.051269792 -0.074999355 -0.065703094 0.11605162
000080 a2 b5 01 3d b0 aa 66 3d 9a 2b 89 bd da 41 83 bd
       0.03166736 0.056315124 -0.066977695 -0.064090446
000090 86 97 85 3d 57 34 7a bd bc eb 9c 3d 5d e3 0c 3d
       0.065230414 -0.06108507 0.0766215 0.034396518
0000a0 52 34 89 3d 26 e7 63 bd 57 81 42 bd e8 68 80 3d
       0.066994324 -0.055640362 -0.04748663 0.06270009
0000b0 a9 44 f5 3d b3 2b 5f bd 37 de 82 bd 3e b3 9d bd
       0.119759865 -0.054485034 -0.0639004 -0.07700203
0000c0 90 79 6d 3d b9 d8 d2 3d 37 2b 77 3d 18 93 90 bd
       0.05797726 0.10295243 0.060343947 -0.07059306
0000d0 bc 20 a5 bc 67 26 75 3d af 15 47 bd 31 11 f7 3d
       -0.02015721 0.059851076 -0.048604663 0.12063826
0000e0 06 77 00 bd fc f0 66 3d f5 be a2 3d d4 d1 96 3b
       -0.03136351 0.056382164 0.079465784 0.00460265
0000f0 44 25 0a 3d 08 56 4c bd 66 4d 1b 3d 46 82 47 3d
       0.033726946 -0.049886733 0.03791561 0.048708223
000100 44 0a 0d bd a4 f9 4d 3d b8 89 89 bd 7b 5c f0 3d
       -0.03443362 0.050286904 -0.06715721 0.11736389
000110 b7 71 14 3d 5f 3b 5c bd 01 33 d1 bc 1f 7d 9c 3d
       0.03624126 -0.05376756 -0.025537016 0.076410525
000120 31 19 9a 3d 5b 45 f4 3d e8 4e 14 bd 6d c9 d3 3d
       0.07524336 0.11927291 -0.036208063 0.10341153
000130 da dd b2 3d 9c ba 23 bd 5a 92 dd 3d 29 cb c3 3d
       0.08733721 -0.039972886 0.1081893 0.09560234
000140 69 17 cc 3d 75 f3 00 3e 86 9b 7f 3d ee d0 dd bc
       0.09965403 0.12592871 0.062404178 -0.027077165
000150 a0 65 3a bd 14 53 75 3d 54 a2 65 bb 7d 3d e1 bc
       -0.045507073 0.059893683 -0.0035039382 -0.02749514
000160 49 d1 c0 3d 42 0c 46 bd 7e eb b1 3d 1a c9 09 bd
       0.09414918 -0.048351534 0.08687495 -0.03363905
000170 5d ae 8d bc 5e 2a 49 bd 60 41 1e bd ee 1e eb bc
       -0.017295057 -0.04911267 -0.038636565 -0.028701272
000180 b5 1b 90 3d da 07 81 bd 41 02 ec 3d 68 15 48 3d
       0.07036535 -0.06300326 0.115238674 0.04884854
000190 c3 3d 37 bd 10 39 1c 3d 1b bc ac 3d 30 e0 62 bd
       -0.044736635 0.038140357 0.08434316 -0.055389583
0001a0 ee d3 e0 bc 9e 1c 8a bd 1f c9 04 bc 37 49 fc 3d
       -0.027444806 -0.067437395 -0.008104592 0.12318652
0001b0 a8 85 18 3d 2e a9 7b 3d fb ef da 3d 46 17 82 bd
       0.03723684 0.06144064 0.10690304 -0.06352095
0001c0 d6 70 8a 3d a9 ba 99 3d f7 42 3c bd 1a fc fd bb
       0.06759803 0.07506306 -0.0459623 -0.007751
0001d0 8f e3 76 bc 1f a4 80 3d 3f d6 8f 3d 45 8a a9 3d
       -0.015068903 0.062813036 0.07023286 0.08278326
0001e0 89 b4 f1 3d f3 f3 60 bd 25 61 a0 3d e5 67 8b 3d
       0.118020125 -0.054920148 0.07831029 0.06806926
0001f0 13 bd 96 3d e2 61 17 bd 9c e5 7a 3d 88 8e 52 bd
       0.07360282 -0.036958583 0.06125413 -0.05140546
